…
[INFO] 2024-04-11 02:25:01 > Load LSFB train dataset.
[INFO] 2024-04-11 02:25:01 > Train dataset size: 957700
[INFO] 2024-04-11 02:25:01 > Valid dataset size: 5235
[INFO] 2024-04-11 02:25:01 > Load LSFB test dataset.
[INFO] 2024-04-11 02:25:01 > Test dataset size: 40059
[INFO] 2024-04-11 02:25:01 > Build the model.
[INFO] 2024-04-11 02:25:01 > Modules are located on './src/models.conv1d'.
[INFO] 2024-04-11 02:25:01 > Number of parameters: 675148
[INFO] 2024-04-11 02:25:01 > EMA(
  (online_model): Classifier(
    (blocks): ModuleList(
      (0): ModuleList(
        (0): Block(
          (conv1d0): Conv1DBlock(
            (in_linear): Linear(in_features=32, out_features=64, bias=True)
            (conv1d): dwconv1d(
              (pad): ConstantPad1d(padding=(16, 0), value=0)
              (conv): Conv1d(64, 64, kernel_size=(17,), stride=(1,), padding=valid, groups=64)
            )
            (eca): eca(
              (avg_pool): AdaptiveAvgPool2d(output_size=1)
              (conv): Conv1d(1, 1, kernel_size=(3,), stride=(1,), padding=(1,), bias=False)
              (sigmoid): Sigmoid()
            )
            (bn): BatchNorm1d(64, eps=0.0001, momentum=0.1, affine=True, track_running_stats=True)
            (out_linear): Linear(in_features=64, out_features=32, bias=True)
            (dropout): Dropout(p=0.2, inplace=False)
            (drop_path): StochasticDepth(p=0.0, mode=batch)
            (activation): GELU(approximate='none')
          )
          (conv1d1): Conv1DBlock(
            (in_linear): Linear(in_features=32, out_features=64, bias=True)
            (conv1d): dwconv1d(
              (pad): ConstantPad1d(padding=(16, 0), value=0)
              (conv): Conv1d(64, 64, kernel_size=(17,), stride=(1,), padding=valid, groups=64)
            )
            (eca): eca(
              (avg_pool): AdaptiveAvgPool2d(output_size=1)
              (conv): Conv1d(1, 1, kernel_size=(3,), stride=(1,), padding=(1,), bias=False)
              (sigmoid): Sigmoid()
            )
            (bn): BatchNorm1d(64, eps=0.0001, momentum=0.1, affine=True, track_running_stats=True)
            (out_linear): Linear(in_features=64, out_features=32, bias=True)
            (dropout): Dropout(p=0.2, inplace=False)
            (drop_path): StochasticDepth(p=0.0, mode=batch)
            (activation): GELU(approximate='none')
          )
          (conv1d2): Conv1DBlock(
            (in_linear): Linear(in_features=32, out_features=128, bias=True)
            (conv1d): dwconv1d(
              (pad): ConstantPad1d(padding=(16, 0), value=0)
              (conv): Conv1d(128, 128, kernel_size=(17,), stride=(1,), padding=valid, groups=128)
            )
            (eca): eca(
              (avg_pool): AdaptiveAvgPool2d(output_size=1)
              (conv): Conv1d(1, 1, kernel_size=(3,), stride=(1,), padding=(1,), bias=False)
              (sigmoid): Sigmoid()
            )
            (bn): BatchNorm1d(128, eps=0.0001, momentum=0.1, affine=True, track_running_stats=True)
            (out_linear): Linear(in_features=128, out_features=64, bias=True)
            (dropout): Dropout(p=0.2, inplace=False)
            (drop_path): StochasticDepth(p=0.0, mode=batch)
            (activation): GELU(approximate='none')
          )
          (bn): BatchNorm1d(32, eps=0.0001, momentum=0.1, affine=True, track_running_stats=True)
        )
      )
      (1): ModuleList(
        (0): TransformerEncoderLayer(
          (self_attn): MultiheadAttention(
            (out_proj): NonDynamicallyQuantizableLinear(in_features=64, out_features=64, bias=True)
          )
          (linear1): Linear(in_features=64, out_features=64, bias=True)
          (dropout): Dropout(p=0.2, inplace=False)
          (linear2): Linear(in_features=64, out_features=64, bias=True)
          (norm1): LayerNorm((64,), eps=1e-05, elementwise_affine=True)
          (norm2): LayerNorm((64,), eps=1e-05, elementwise_affine=True)
          (dropout1): Dropout(p=0.2, inplace=False)
          (dropout2): Dropout(p=0.2, inplace=False)
        )
      )
      (2): ModuleList(
        (0): Block(
          (conv1d0): Conv1DBlock(
            (in_linear): Linear(in_features=64, out_features=128, bias=True)
            (conv1d): dwconv1d(
              (pad): ConstantPad1d(padding=(16, 0), value=0)
              (conv): Conv1d(128, 128, kernel_size=(17,), stride=(1,), padding=valid, groups=128)
            )
            (eca): eca(
              (avg_pool): AdaptiveAvgPool2d(output_size=1)
              (conv): Conv1d(1, 1, kernel_size=(3,), stride=(1,), padding=(1,), bias=False)
              (sigmoid): Sigmoid()
            )
            (bn): BatchNorm1d(128, eps=0.0001, momentum=0.1, affine=True, track_running_stats=True)
            (out_linear): Linear(in_features=128, out_features=64, bias=True)
            (dropout): Dropout(p=0.2, inplace=False)
            (drop_path): StochasticDepth(p=0.0, mode=batch)
            (activation): GELU(approximate='none')
          )
          (conv1d1): Conv1DBlock(
            (in_linear): Linear(in_features=64, out_features=128, bias=True)
            (conv1d): dwconv1d(
              (pad): ConstantPad1d(padding=(16, 0), value=0)
              (conv): Conv1d(128, 128, kernel_size=(17,), stride=(1,), padding=valid, groups=128)
            )
            (eca): eca(
              (avg_pool): AdaptiveAvgPool2d(output_size=1)
              (conv): Conv1d(1, 1, kernel_size=(3,), stride=(1,), padding=(1,), bias=False)
              (sigmoid): Sigmoid()
            )
            (bn): BatchNorm1d(128, eps=0.0001, momentum=0.1, affine=True, track_running_stats=True)
            (out_linear): Linear(in_features=128, out_features=64, bias=True)
            (dropout): Dropout(p=0.2, inplace=False)
            (drop_path): StochasticDepth(p=0.0, mode=batch)
            (activation): GELU(approximate='none')
          )
          (conv1d2): Conv1DBlock(
            (in_linear): Linear(in_features=64, out_features=128, bias=True)
            (conv1d): dwconv1d(
              (pad): ConstantPad1d(padding=(16, 0), value=0)
              (conv): Conv1d(128, 128, kernel_size=(17,), stride=(1,), padding=valid, groups=128)
            )
            (eca): eca(
              (avg_pool): AdaptiveAvgPool2d(output_size=1)
              (conv): Conv1d(1, 1, kernel_size=(3,), stride=(1,), padding=(1,), bias=False)
              (sigmoid): Sigmoid()
            )
            (bn): BatchNorm1d(128, eps=0.0001, momentum=0.1, affine=True, track_running_stats=True)
            (out_linear): Linear(in_features=128, out_features=64, bias=True)
            (dropout): Dropout(p=0.2, inplace=False)
            (drop_path): StochasticDepth(p=0.0, mode=batch)
            (activation): GELU(approximate='none')
          )
          (bn): BatchNorm1d(64, eps=0.0001, momentum=0.1, affine=True, track_running_stats=True)
        )
      )
      (3): ModuleList(
        (0): TransformerEncoderLayer(
          (self_attn): MultiheadAttention(
            (out_proj): NonDynamicallyQuantizableLinear(in_features=64, out_features=64, bias=True)
          )
          (linear1): Linear(in_features=64, out_features=64, bias=True)
          (dropout): Dropout(p=0.2, inplace=False)
          (linear2): Linear(in_features=64, out_features=64, bias=True)
          (norm1): LayerNorm((64,), eps=1e-05, elementwise_affine=True)
          (norm2): LayerNorm((64,), eps=1e-05, elementwise_affine=True)
          (dropout1): Dropout(p=0.2, inplace=False)
          (dropout2): Dropout(p=0.2, inplace=False)
        )
      )
      (4): ModuleList(
        (0): Block(
          (conv1d0): Conv1DBlock(
            (in_linear): Linear(in_features=64, out_features=128, bias=True)
            (conv1d): dwconv1d(
              (pad): ConstantPad1d(padding=(16, 0), value=0)
              (conv): Conv1d(128, 128, kernel_size=(17,), stride=(1,), padding=valid, groups=128)
            )
            (eca): eca(
              (avg_pool): AdaptiveAvgPool2d(output_size=1)
              (conv): Conv1d(1, 1, kernel_size=(3,), stride=(1,), padding=(1,), bias=False)
              (sigmoid): Sigmoid()
            )
            (bn): BatchNorm1d(128, eps=0.0001, momentum=0.1, affine=True, track_running_stats=True)
            (out_linear): Linear(in_features=128, out_features=64, bias=True)
            (dropout): Dropout(p=0.2, inplace=False)
            (drop_path): StochasticDepth(p=0.0, mode=batch)
            (activation): GELU(approximate='none')
          )
          (conv1d1): Conv1DBlock(
            (in_linear): Linear(in_features=64, out_features=128, bias=True)
            (conv1d): dwconv1d(
              (pad): ConstantPad1d(padding=(16, 0), value=0)
              (conv): Conv1d(128, 128, kernel_size=(17,), stride=(1,), padding=valid, groups=128)
            )
            (eca): eca(
              (avg_pool): AdaptiveAvgPool2d(output_size=1)
              (conv): Conv1d(1, 1, kernel_size=(3,), stride=(1,), padding=(1,), bias=False)
              (sigmoid): Sigmoid()
            )
            (bn): BatchNorm1d(128, eps=0.0001, momentum=0.1, affine=True, track_running_stats=True)
            (out_linear): Linear(in_features=128, out_features=64, bias=True)
            (dropout): Dropout(p=0.2, inplace=False)
            (drop_path): StochasticDepth(p=0.0, mode=batch)
            (activation): GELU(approximate='none')
          )
          (conv1d2): Conv1DBlock(
            (in_linear): Linear(in_features=64, out_features=128, bias=True)
            (conv1d): dwconv1d(
              (pad): ConstantPad1d(padding=(16, 0), value=0)
              (conv): Conv1d(128, 128, kernel_size=(17,), stride=(1,), padding=valid, groups=128)
            )
            (eca): eca(
              (avg_pool): AdaptiveAvgPool2d(output_size=1)
              (conv): Conv1d(1, 1, kernel_size=(3,), stride=(1,), padding=(1,), bias=False)
              (sigmoid): Sigmoid()
            )
            (bn): BatchNorm1d(128, eps=0.0001, momentum=0.1, affine=True, track_running_stats=True)
            (out_linear): Linear(in_features=128, out_features=64, bias=True)
            (dropout): Dropout(p=0.2, inplace=False)
            (drop_path): StochasticDepth(p=0.0, mode=batch)
            (activation): GELU(approximate='none')
          )
          (bn): BatchNorm1d(64, eps=0.0001, momentum=0.1, affine=True, track_running_stats=True)
        )
      )
      (5): ModuleList(
        (0): TransformerEncoderLayer(
          (self_attn): MultiheadAttention(
            (out_proj): NonDynamicallyQuantizableLinear(in_features=64, out_features=64, bias=True)
          )
          (linear1): Linear(in_features=64, out_features=64, bias=True)
          (dropout): Dropout(p=0.2, inplace=False)
          (linear2): Linear(in_features=64, out_features=64, bias=True)
          (norm1): LayerNorm((64,), eps=1e-05, elementwise_affine=True)
          (norm2): LayerNorm((64,), eps=1e-05, elementwise_affine=True)
          (dropout1): Dropout(p=0.2, inplace=False)
          (dropout2): Dropout(p=0.2, inplace=False)
        )
      )
      (6): ModuleList(
        (0): Block(
          (conv1d0): Conv1DBlock(
            (in_linear): Linear(in_features=64, out_features=128, bias=True)
            (conv1d): dwconv1d(
              (pad): ConstantPad1d(padding=(16, 0), value=0)
              (conv): Conv1d(128, 128, kernel_size=(17,), stride=(1,), padding=valid, groups=128)
            )
            (eca): eca(
              (avg_pool): AdaptiveAvgPool2d(output_size=1)
              (conv): Conv1d(1, 1, kernel_size=(3,), stride=(1,), padding=(1,), bias=False)
              (sigmoid): Sigmoid()
            )
            (bn): BatchNorm1d(128, eps=0.0001, momentum=0.1, affine=True, track_running_stats=True)
            (out_linear): Linear(in_features=128, out_features=64, bias=True)
            (dropout): Dropout(p=0.2, inplace=False)
            (drop_path): StochasticDepth(p=0.0, mode=batch)
            (activation): GELU(approximate='none')
          )
          (conv1d1): Conv1DBlock(
            (in_linear): Linear(in_features=64, out_features=128, bias=True)
            (conv1d): dwconv1d(
              (pad): ConstantPad1d(padding=(16, 0), value=0)
              (conv): Conv1d(128, 128, kernel_size=(17,), stride=(1,), padding=valid, groups=128)
            )
            (eca): eca(
              (avg_pool): AdaptiveAvgPool2d(output_size=1)
              (conv): Conv1d(1, 1, kernel_size=(3,), stride=(1,), padding=(1,), bias=False)
              (sigmoid): Sigmoid()
            )
            (bn): BatchNorm1d(128, eps=0.0001, momentum=0.1, affine=True, track_running_stats=True)
            (out_linear): Linear(in_features=128, out_features=64, bias=True)
            (dropout): Dropout(p=0.2, inplace=False)
            (drop_path): StochasticDepth(p=0.0, mode=batch)
            (activation): GELU(approximate='none')
          )
          (conv1d2): Conv1DBlock(
            (in_linear): Linear(in_features=64, out_features=128, bias=True)
            (conv1d): dwconv1d(
              (pad): ConstantPad1d(padding=(16, 0), value=0)
              (conv): Conv1d(128, 128, kernel_size=(17,), stride=(1,), padding=valid, groups=128)
            )
            (eca): eca(
              (avg_pool): AdaptiveAvgPool2d(output_size=1)
              (conv): Conv1d(1, 1, kernel_size=(3,), stride=(1,), padding=(1,), bias=False)
              (sigmoid): Sigmoid()
            )
            (bn): BatchNorm1d(128, eps=0.0001, momentum=0.1, affine=True, track_running_stats=True)
            (out_linear): Linear(in_features=128, out_features=64, bias=True)
            (dropout): Dropout(p=0.2, inplace=False)
            (drop_path): StochasticDepth(p=0.0, mode=batch)
            (activation): GELU(approximate='none')
          )
          (bn): BatchNorm1d(64, eps=0.0001, momentum=0.1, affine=True, track_running_stats=True)
        )
      )
      (7): ModuleList(
        (0): TransformerEncoderLayer(
          (self_attn): MultiheadAttention(
            (out_proj): NonDynamicallyQuantizableLinear(in_features=64, out_features=64, bias=True)
          )
          (linear1): Linear(in_features=64, out_features=64, bias=True)
          (dropout): Dropout(p=0.2, inplace=False)
          (linear2): Linear(in_features=64, out_features=64, bias=True)
          (norm1): LayerNorm((64,), eps=1e-05, elementwise_affine=True)
          (norm2): LayerNorm((64,), eps=1e-05, elementwise_affine=True)
          (dropout1): Dropout(p=0.2, inplace=False)
          (dropout2): Dropout(p=0.2, inplace=False)
        )
      )
    )
    (inlinear): Linear(in_features=297, out_features=32, bias=False)
    (bn): BatchNorm1d(32, eps=0.0001, momentum=0.1, affine=True, track_running_stats=True)
    (top_linear): Linear(in_features=64, out_features=128, bias=True)
    (outlinear): Linear(in_features=32, out_features=610, bias=True)
    (dropout): Dropout(p=0.2, inplace=False)
  )
  (ema_model): Classifier(
    (blocks): ModuleList(
      (0): ModuleList(
        (0): Block(
          (conv1d0): Conv1DBlock(
            (in_linear): Linear(in_features=32, out_features=64, bias=True)
            (conv1d): dwconv1d(
              (pad): ConstantPad1d(padding=(16, 0), value=0)
              (conv): Conv1d(64, 64, kernel_size=(17,), stride=(1,), padding=valid, groups=64)
            )
            (eca): eca(
              (avg_pool): AdaptiveAvgPool2d(output_size=1)
              (conv): Conv1d(1, 1, kernel_size=(3,), stride=(1,), padding=(1,), bias=False)
              (sigmoid): Sigmoid()
            )
            (bn): BatchNorm1d(64, eps=0.0001, momentum=0.1, affine=True, track_running_stats=True)
            (out_linear): Linear(in_features=64, out_features=32, bias=True)
            (dropout): Dropout(p=0.2, inplace=False)
            (drop_path): StochasticDepth(p=0.0, mode=batch)
            (activation): GELU(approximate='none')
          )
          (conv1d1): Conv1DBlock(
            (in_linear): Linear(in_features=32, out_features=64, bias=True)
            (conv1d): dwconv1d(
              (pad): ConstantPad1d(padding=(16, 0), value=0)
              (conv): Conv1d(64, 64, kernel_size=(17,), stride=(1,), padding=valid, groups=64)
            )
            (eca): eca(
              (avg_pool): AdaptiveAvgPool2d(output_size=1)
              (conv): Conv1d(1, 1, kernel_size=(3,), stride=(1,), padding=(1,), bias=False)
              (sigmoid): Sigmoid()
            )
            (bn): BatchNorm1d(64, eps=0.0001, momentum=0.1, affine=True, track_running_stats=True)
            (out_linear): Linear(in_features=64, out_features=32, bias=True)
            (dropout): Dropout(p=0.2, inplace=False)
            (drop_path): StochasticDepth(p=0.0, mode=batch)
            (activation): GELU(approximate='none')
          )
          (conv1d2): Conv1DBlock(
            (in_linear): Linear(in_features=32, out_features=128, bias=True)
            (conv1d): dwconv1d(
              (pad): ConstantPad1d(padding=(16, 0), value=0)
              (conv): Conv1d(128, 128, kernel_size=(17,), stride=(1,), padding=valid, groups=128)
            )
            (eca): eca(
              (avg_pool): AdaptiveAvgPool2d(output_size=1)
              (conv): Conv1d(1, 1, kernel_size=(3,), stride=(1,), padding=(1,), bias=False)
              (sigmoid): Sigmoid()
            )
            (bn): BatchNorm1d(128, eps=0.0001, momentum=0.1, affine=True, track_running_stats=True)
            (out_linear): Linear(in_features=128, out_features=64, bias=True)
            (dropout): Dropout(p=0.2, inplace=False)
            (drop_path): StochasticDepth(p=0.0, mode=batch)
            (activation): GELU(approximate='none')
          )
          (bn): BatchNorm1d(32, eps=0.0001, momentum=0.1, affine=True, track_running_stats=True)
        )
      )
      (1): ModuleList(
        (0): TransformerEncoderLayer(
          (self_attn): MultiheadAttention(
            (out_proj): NonDynamicallyQuantizableLinear(in_features=64, out_features=64, bias=True)
          )
          (linear1): Linear(in_features=64, out_features=64, bias=True)
          (dropout): Dropout(p=0.2, inplace=False)
          (linear2): Linear(in_features=64, out_features=64, bias=True)
          (norm1): LayerNorm((64,), eps=1e-05, elementwise_affine=True)
          (norm2): LayerNorm((64,), eps=1e-05, elementwise_affine=True)
          (dropout1): Dropout(p=0.2, inplace=False)
          (dropout2): Dropout(p=0.2, inplace=False)
        )
      )
      (2): ModuleList(
        (0): Block(
          (conv1d0): Conv1DBlock(
            (in_linear): Linear(in_features=64, out_features=128, bias=True)
            (conv1d): dwconv1d(
              (pad): ConstantPad1d(padding=(16, 0), value=0)
              (conv): Conv1d(128, 128, kernel_size=(17,), stride=(1,), padding=valid, groups=128)
            )
            (eca): eca(
              (avg_pool): AdaptiveAvgPool2d(output_size=1)
              (conv): Conv1d(1, 1, kernel_size=(3,), stride=(1,), padding=(1,), bias=False)
              (sigmoid): Sigmoid()
            )
            (bn): BatchNorm1d(128, eps=0.0001, momentum=0.1, affine=True, track_running_stats=True)
            (out_linear): Linear(in_features=128, out_features=64, bias=True)
            (dropout): Dropout(p=0.2, inplace=False)
            (drop_path): StochasticDepth(p=0.0, mode=batch)
            (activation): GELU(approximate='none')
          )
          (conv1d1): Conv1DBlock(
            (in_linear): Linear(in_features=64, out_features=128, bias=True)
            (conv1d): dwconv1d(
              (pad): ConstantPad1d(padding=(16, 0), value=0)
              (conv): Conv1d(128, 128, kernel_size=(17,), stride=(1,), padding=valid, groups=128)
            )
            (eca): eca(
              (avg_pool): AdaptiveAvgPool2d(output_size=1)
              (conv): Conv1d(1, 1, kernel_size=(3,), stride=(1,), padding=(1,), bias=False)
              (sigmoid): Sigmoid()
            )
            (bn): BatchNorm1d(128, eps=0.0001, momentum=0.1, affine=True, track_running_stats=True)
            (out_linear): Linear(in_features=128, out_features=64, bias=True)
            (dropout): Dropout(p=0.2, inplace=False)
            (drop_path): StochasticDepth(p=0.0, mode=batch)
            (activation): GELU(approximate='none')
          )
          (conv1d2): Conv1DBlock(
            (in_linear): Linear(in_features=64, out_features=128, bias=True)
            (conv1d): dwconv1d(
              (pad): ConstantPad1d(padding=(16, 0), value=0)
              (conv): Conv1d(128, 128, kernel_size=(17,), stride=(1,), padding=valid, groups=128)
            )
            (eca): eca(
              (avg_pool): AdaptiveAvgPool2d(output_size=1)
              (conv): Conv1d(1, 1, kernel_size=(3,), stride=(1,), padding=(1,), bias=False)
              (sigmoid): Sigmoid()
            )
            (bn): BatchNorm1d(128, eps=0.0001, momentum=0.1, affine=True, track_running_stats=True)
            (out_linear): Linear(in_features=128, out_features=64, bias=True)
            (dropout): Dropout(p=0.2, inplace=False)
            (drop_path): StochasticDepth(p=0.0, mode=batch)
            (activation): GELU(approximate='none')
          )
          (bn): BatchNorm1d(64, eps=0.0001, momentum=0.1, affine=True, track_running_stats=True)
        )
      )
      (3): ModuleList(
        (0): TransformerEncoderLayer(
          (self_attn): MultiheadAttention(
            (out_proj): NonDynamicallyQuantizableLinear(in_features=64, out_features=64, bias=True)
          )
          (linear1): Linear(in_features=64, out_features=64, bias=True)
          (dropout): Dropout(p=0.2, inplace=False)
          (linear2): Linear(in_features=64, out_features=64, bias=True)
          (norm1): LayerNorm((64,), eps=1e-05, elementwise_affine=True)
          (norm2): LayerNorm((64,), eps=1e-05, elementwise_affine=True)
          (dropout1): Dropout(p=0.2, inplace=False)
          (dropout2): Dropout(p=0.2, inplace=False)
        )
      )
      (4): ModuleList(
        (0): Block(
          (conv1d0): Conv1DBlock(
            (in_linear): Linear(in_features=64, out_features=128, bias=True)
            (conv1d): dwconv1d(
              (pad): ConstantPad1d(padding=(16, 0), value=0)
              (conv): Conv1d(128, 128, kernel_size=(17,), stride=(1,), padding=valid, groups=128)
            )
            (eca): eca(
              (avg_pool): AdaptiveAvgPool2d(output_size=1)
              (conv): Conv1d(1, 1, kernel_size=(3,), stride=(1,), padding=(1,), bias=False)
              (sigmoid): Sigmoid()
            )
            (bn): BatchNorm1d(128, eps=0.0001, momentum=0.1, affine=True, track_running_stats=True)
            (out_linear): Linear(in_features=128, out_features=64, bias=True)
            (dropout): Dropout(p=0.2, inplace=False)
            (drop_path): StochasticDepth(p=0.0, mode=batch)
            (activation): GELU(approximate='none')
          )
          (conv1d1): Conv1DBlock(
            (in_linear): Linear(in_features=64, out_features=128, bias=True)
            (conv1d): dwconv1d(
              (pad): ConstantPad1d(padding=(16, 0), value=0)
              (conv): Conv1d(128, 128, kernel_size=(17,), stride=(1,), padding=valid, groups=128)
            )
            (eca): eca(
              (avg_pool): AdaptiveAvgPool2d(output_size=1)
              (conv): Conv1d(1, 1, kernel_size=(3,), stride=(1,), padding=(1,), bias=False)
              (sigmoid): Sigmoid()
            )
            (bn): BatchNorm1d(128, eps=0.0001, momentum=0.1, affine=True, track_running_stats=True)
            (out_linear): Linear(in_features=128, out_features=64, bias=True)
            (dropout): Dropout(p=0.2, inplace=False)
            (drop_path): StochasticDepth(p=0.0, mode=batch)
            (activation): GELU(approximate='none')
          )
          (conv1d2): Conv1DBlock(
            (in_linear): Linear(in_features=64, out_features=128, bias=True)
            (conv1d): dwconv1d(
              (pad): ConstantPad1d(padding=(16, 0), value=0)
              (conv): Conv1d(128, 128, kernel_size=(17,), stride=(1,), padding=valid, groups=128)
            )
            (eca): eca(
              (avg_pool): AdaptiveAvgPool2d(output_size=1)
              (conv): Conv1d(1, 1, kernel_size=(3,), stride=(1,), padding=(1,), bias=False)
              (sigmoid): Sigmoid()
            )
            (bn): BatchNorm1d(128, eps=0.0001, momentum=0.1, affine=True, track_running_stats=True)
            (out_linear): Linear(in_features=128, out_features=64, bias=True)
            (dropout): Dropout(p=0.2, inplace=False)
            (drop_path): StochasticDepth(p=0.0, mode=batch)
            (activation): GELU(approximate='none')
          )
          (bn): BatchNorm1d(64, eps=0.0001, momentum=0.1, affine=True, track_running_stats=True)
        )
      )
      (5): ModuleList(
        (0): TransformerEncoderLayer(
          (self_attn): MultiheadAttention(
            (out_proj): NonDynamicallyQuantizableLinear(in_features=64, out_features=64, bias=True)
          )
          (linear1): Linear(in_features=64, out_features=64, bias=True)
          (dropout): Dropout(p=0.2, inplace=False)
          (linear2): Linear(in_features=64, out_features=64, bias=True)
          (norm1): LayerNorm((64,), eps=1e-05, elementwise_affine=True)
          (norm2): LayerNorm((64,), eps=1e-05, elementwise_affine=True)
          (dropout1): Dropout(p=0.2, inplace=False)
          (dropout2): Dropout(p=0.2, inplace=False)
        )
      )
      (6): ModuleList(
        (0): Block(
          (conv1d0): Conv1DBlock(
            (in_linear): Linear(in_features=64, out_features=128, bias=True)
            (conv1d): dwconv1d(
              (pad): ConstantPad1d(padding=(16, 0), value=0)
              (conv): Conv1d(128, 128, kernel_size=(17,), stride=(1,), padding=valid, groups=128)
            )
            (eca): eca(
              (avg_pool): AdaptiveAvgPool2d(output_size=1)
              (conv): Conv1d(1, 1, kernel_size=(3,), stride=(1,), padding=(1,), bias=False)
              (sigmoid): Sigmoid()
            )
            (bn): BatchNorm1d(128, eps=0.0001, momentum=0.1, affine=True, track_running_stats=True)
            (out_linear): Linear(in_features=128, out_features=64, bias=True)
            (dropout): Dropout(p=0.2, inplace=False)
            (drop_path): StochasticDepth(p=0.0, mode=batch)
            (activation): GELU(approximate='none')
          )
          (conv1d1): Conv1DBlock(
            (in_linear): Linear(in_features=64, out_features=128, bias=True)
            (conv1d): dwconv1d(
              (pad): ConstantPad1d(padding=(16, 0), value=0)
              (conv): Conv1d(128, 128, kernel_size=(17,), stride=(1,), padding=valid, groups=128)
            )
            (eca): eca(
              (avg_pool): AdaptiveAvgPool2d(output_size=1)
              (conv): Conv1d(1, 1, kernel_size=(3,), stride=(1,), padding=(1,), bias=False)
              (sigmoid): Sigmoid()
            )
            (bn): BatchNorm1d(128, eps=0.0001, momentum=0.1, affine=True, track_running_stats=True)
            (out_linear): Linear(in_features=128, out_features=64, bias=True)
            (dropout): Dropout(p=0.2, inplace=False)
            (drop_path): StochasticDepth(p=0.0, mode=batch)
            (activation): GELU(approximate='none')
          )
          (conv1d2): Conv1DBlock(
            (in_linear): Linear(in_features=64, out_features=128, bias=True)
            (conv1d): dwconv1d(
              (pad): ConstantPad1d(padding=(16, 0), value=0)
              (conv): Conv1d(128, 128, kernel_size=(17,), stride=(1,), padding=valid, groups=128)
            )
            (eca): eca(
              (avg_pool): AdaptiveAvgPool2d(output_size=1)
              (conv): Conv1d(1, 1, kernel_size=(3,), stride=(1,), padding=(1,), bias=False)
              (sigmoid): Sigmoid()
            )
            (bn): BatchNorm1d(128, eps=0.0001, momentum=0.1, affine=True, track_running_stats=True)
            (out_linear): Linear(in_features=128, out_features=64, bias=True)
            (dropout): Dropout(p=0.2, inplace=False)
            (drop_path): StochasticDepth(p=0.0, mode=batch)
            (activation): GELU(approximate='none')
          )
          (bn): BatchNorm1d(64, eps=0.0001, momentum=0.1, affine=True, track_running_stats=True)
        )
      )
      (7): ModuleList(
        (0): TransformerEncoderLayer(
          (self_attn): MultiheadAttention(
            (out_proj): NonDynamicallyQuantizableLinear(in_features=64, out_features=64, bias=True)
          )
          (linear1): Linear(in_features=64, out_features=64, bias=True)
          (dropout): Dropout(p=0.2, inplace=False)
          (linear2): Linear(in_features=64, out_features=64, bias=True)
          (norm1): LayerNorm((64,), eps=1e-05, elementwise_affine=True)
          (norm2): LayerNorm((64,), eps=1e-05, elementwise_affine=True)
          (dropout1): Dropout(p=0.2, inplace=False)
          (dropout2): Dropout(p=0.2, inplace=False)
        )
      )
    )
    (inlinear): Linear(in_features=297, out_features=32, bias=False)
    (bn): BatchNorm1d(32, eps=0.0001, momentum=0.1, affine=True, track_running_stats=True)
    (top_linear): Linear(in_features=64, out_features=128, bias=True)
    (outlinear): Linear(in_features=32, out_features=610, bias=True)
    (dropout): Dropout(p=0.2, inplace=False)
  )
)
[INFO] 2024-04-11 02:25:04 > Start training!
[INFO] 2024-04-11 02:50:38 > Train Top 1-acc 0.6672	Train Top 10-acc 4.8047	Train Loss 6.2378
[INFO] 2024-04-11 02:50:38 > Step:      1 Progress: 2.0% Elapsed: 0:25:34 Loss: 6.238 Top1: 0.6672 Top10: 4.805 
[INFO] 2024-04-11 02:50:39 > Start Validation (1 Step): LSFB-vanilla-medium-deep-ema-train-2024_04_11_02_25_01
…
