…
[INFO] 2024-06-07 11:17:30 > Train dataset size: 957700
[INFO] 2024-06-07 11:17:30 > Valid dataset size: 5235
[INFO] 2024-06-07 11:17:30 > Load LSFB test dataset.
[INFO] 2024-06-07 11:17:30 > Test dataset size: 40059
[INFO] 2024-06-07 11:17:30 > Build the model.
[INFO] 2024-06-07 11:17:30 > Modules are located on './src/models.CsiMLPe'.
[INFO] 2024-06-07 11:17:30 > Number of parameters: 80712
[INFO] 2024-06-07 11:17:30 > Model(
  (arr0): Rearrange('b n d -> b d n')
  (arr1): Rearrange('b d n -> b n d')
  (motion_mlp): TransMLP(
    (mlps): Sequential(
      (0): MLPblock(
        (fc0): Temporal_FC(
          (fc): Linear(in_features=16, out_features=16, bias=True)
        )
        (norm0): SLayerNorm()
        (adaLN_modulation): Sequential(
          (0): SiLU()
          (1): Linear(in_features=16, out_features=48, bias=True)
        )
      )
      (1): MLPblock(
        (fc0): Temporal_FC(
          (fc): Linear(in_features=16, out_features=16, bias=True)
        )
        (norm0): SLayerNorm()
        (adaLN_modulation): Sequential(
          (0): SiLU()
          (1): Linear(in_features=16, out_features=48, bias=True)
        )
      )
      (2): MLPblock(
        (fc0): Temporal_FC(
          (fc): Linear(in_features=16, out_features=16, bias=True)
        )
        (norm0): SLayerNorm()
        (adaLN_modulation): Sequential(
          (0): SiLU()
          (1): Linear(in_features=16, out_features=48, bias=True)
        )
      )
      (3): MLPblock(
        (fc0): Temporal_FC(
          (fc): Linear(in_features=16, out_features=16, bias=True)
        )
        (norm0): SLayerNorm()
        (adaLN_modulation): Sequential(
          (0): SiLU()
          (1): Linear(in_features=16, out_features=48, bias=True)
        )
      )
    )
  )
  (motion_fc_in): Linear(in_features=180, out_features=180, bias=True)
  (motion_fc_out): Linear(in_features=180, out_features=180, bias=True)
  (y_embedder): LabelEmbedder(
    (embedding_table): Embedding(610, 16)
  )
)
[INFO] 2024-06-07 11:17:32 > Start training!
[INFO] 2024-06-07 11:17:32 > Visualize real poses.
[INFO] 2024-06-07 11:17:35 > Save poses to /mnt/sda2/models/HandCraft/samples/LSFB/CsiMLPe-depth_big/figures/LSFB-depth_big-train-2024_06_07_11_17_30/real_keypoints_.gif
[INFO] 2024-06-07 11:28:13 > Train Loss 34.3026
[INFO] 2024-06-07 11:28:13 > Step:      1 Progress: 1.0% Elapsed: 0:10:40 Loss: 34.3 
…
