…
[INFO] 2024-03-07 09:56:13 > Load LSFB train dataset.
[INFO] 2024-03-07 09:56:13 > Train dataset size: 1003305
[INFO] 2024-03-07 09:56:13 > Valid dataset size: 5392
[INFO] 2024-03-07 09:56:13 > Load LSFB test dataset.
[INFO] 2024-03-07 09:56:14 > Test dataset size: 41255
[INFO] 2024-03-07 09:56:14 > Build the model.
[INFO] 2024-03-07 09:56:14 > Modules are located on './src/models.conv1d'.
[INFO] 2024-03-07 09:56:14 > Number of parameters: 305088
[INFO] 2024-03-07 09:56:14 > EMA(
  (online_model): Classifier(
    (blocks): ModuleList(
      (0): ModuleList(
        (0): Block(
          (conv1d0): Conv1DBlock(
            (in_linear): Linear(in_features=32, out_features=32, bias=True)
            (conv1d): conv1d(
              (pad): ConstantPad1d(padding=(16, 0), value=0)
              (conv): Conv1d(32, 32, kernel_size=(17,), stride=(1,), padding=valid)
            )
            (eca): eca(
              (avg_pool): AdaptiveAvgPool2d(output_size=1)
              (conv): Conv1d(1, 1, kernel_size=(3,), stride=(1,), padding=(1,), bias=False)
              (sigmoid): Sigmoid()
            )
            (bn): BatchNorm1d(32, eps=0.0001, momentum=0.1, affine=True, track_running_stats=True)
            (out_linear): Linear(in_features=32, out_features=32, bias=True)
            (dropout): Dropout(p=0.0, inplace=False)
            (drop_path): StochasticDepth(p=0.0, mode=batch)
            (activation): GELU(approximate=none)
          )
          (conv1d1): Conv1DBlock(
            (in_linear): Linear(in_features=32, out_features=32, bias=True)
            (conv1d): conv1d(
              (pad): ConstantPad1d(padding=(16, 0), value=0)
              (conv): Conv1d(32, 32, kernel_size=(17,), stride=(1,), padding=valid)
            )
            (eca): eca(
              (avg_pool): AdaptiveAvgPool2d(output_size=1)
              (conv): Conv1d(1, 1, kernel_size=(3,), stride=(1,), padding=(1,), bias=False)
              (sigmoid): Sigmoid()
            )
            (bn): BatchNorm1d(32, eps=0.0001, momentum=0.1, affine=True, track_running_stats=True)
            (out_linear): Linear(in_features=32, out_features=32, bias=True)
            (dropout): Dropout(p=0.0, inplace=False)
            (drop_path): StochasticDepth(p=0.0, mode=batch)
            (activation): GELU(approximate=none)
          )
          (conv1d2): Conv1DBlock(
            (in_linear): Linear(in_features=32, out_features=32, bias=True)
            (conv1d): conv1d(
              (pad): ConstantPad1d(padding=(16, 0), value=0)
              (conv): Conv1d(32, 32, kernel_size=(17,), stride=(1,), padding=valid)
            )
            (eca): eca(
              (avg_pool): AdaptiveAvgPool2d(output_size=1)
              (conv): Conv1d(1, 1, kernel_size=(3,), stride=(1,), padding=(1,), bias=False)
              (sigmoid): Sigmoid()
            )
            (bn): BatchNorm1d(32, eps=0.0001, momentum=0.1, affine=True, track_running_stats=True)
            (out_linear): Linear(in_features=32, out_features=32, bias=True)
            (dropout): Dropout(p=0.0, inplace=False)
            (drop_path): StochasticDepth(p=0.0, mode=batch)
            (activation): GELU(approximate=none)
          )
          (bn): BatchNorm1d(32, eps=0.0001, momentum=0.1, affine=True, track_running_stats=True)
        )
      )
      (1): ModuleList(
        (0): TransformerEncoderLayer(
          (self_attn): MultiheadAttention(
            (out_proj): NonDynamicallyQuantizableLinear(in_features=32, out_features=32, bias=True)
          )
          (linear1): Linear(in_features=32, out_features=32, bias=True)
          (dropout): Dropout(p=0.0, inplace=False)
          (linear2): Linear(in_features=32, out_features=32, bias=True)
          (norm1): LayerNorm((32,), eps=1e-05, elementwise_affine=True)
          (norm2): LayerNorm((32,), eps=1e-05, elementwise_affine=True)
          (dropout1): Dropout(p=0.0, inplace=False)
          (dropout2): Dropout(p=0.0, inplace=False)
        )
      )
      (2): ModuleList(
        (0): Block(
          (conv1d0): Conv1DBlock(
            (in_linear): Linear(in_features=32, out_features=32, bias=True)
            (conv1d): conv1d(
              (pad): ConstantPad1d(padding=(16, 0), value=0)
              (conv): Conv1d(32, 32, kernel_size=(17,), stride=(1,), padding=valid)
            )
            (eca): eca(
              (avg_pool): AdaptiveAvgPool2d(output_size=1)
              (conv): Conv1d(1, 1, kernel_size=(3,), stride=(1,), padding=(1,), bias=False)
              (sigmoid): Sigmoid()
            )
            (bn): BatchNorm1d(32, eps=0.0001, momentum=0.1, affine=True, track_running_stats=True)
            (out_linear): Linear(in_features=32, out_features=32, bias=True)
            (dropout): Dropout(p=0.0, inplace=False)
            (drop_path): StochasticDepth(p=0.0, mode=batch)
            (activation): GELU(approximate=none)
          )
          (conv1d1): Conv1DBlock(
            (in_linear): Linear(in_features=32, out_features=32, bias=True)
            (conv1d): conv1d(
              (pad): ConstantPad1d(padding=(16, 0), value=0)
              (conv): Conv1d(32, 32, kernel_size=(17,), stride=(1,), padding=valid)
            )
            (eca): eca(
              (avg_pool): AdaptiveAvgPool2d(output_size=1)
              (conv): Conv1d(1, 1, kernel_size=(3,), stride=(1,), padding=(1,), bias=False)
              (sigmoid): Sigmoid()
            )
            (bn): BatchNorm1d(32, eps=0.0001, momentum=0.1, affine=True, track_running_stats=True)
            (out_linear): Linear(in_features=32, out_features=32, bias=True)
            (dropout): Dropout(p=0.0, inplace=False)
            (drop_path): StochasticDepth(p=0.0, mode=batch)
            (activation): GELU(approximate=none)
          )
          (conv1d2): Conv1DBlock(
            (in_linear): Linear(in_features=32, out_features=32, bias=True)
            (conv1d): conv1d(
              (pad): ConstantPad1d(padding=(16, 0), value=0)
              (conv): Conv1d(32, 32, kernel_size=(17,), stride=(1,), padding=valid)
            )
            (eca): eca(
              (avg_pool): AdaptiveAvgPool2d(output_size=1)
              (conv): Conv1d(1, 1, kernel_size=(3,), stride=(1,), padding=(1,), bias=False)
              (sigmoid): Sigmoid()
            )
            (bn): BatchNorm1d(32, eps=0.0001, momentum=0.1, affine=True, track_running_stats=True)
            (out_linear): Linear(in_features=32, out_features=32, bias=True)
            (dropout): Dropout(p=0.0, inplace=False)
            (drop_path): StochasticDepth(p=0.0, mode=batch)
            (activation): GELU(approximate=none)
          )
          (bn): BatchNorm1d(32, eps=0.0001, momentum=0.1, affine=True, track_running_stats=True)
        )
      )
      (3): ModuleList(
        (0): TransformerEncoderLayer(
          (self_attn): MultiheadAttention(
            (out_proj): NonDynamicallyQuantizableLinear(in_features=32, out_features=32, bias=True)
          )
          (linear1): Linear(in_features=32, out_features=32, bias=True)
          (dropout): Dropout(p=0.0, inplace=False)
          (linear2): Linear(in_features=32, out_features=32, bias=True)
          (norm1): LayerNorm((32,), eps=1e-05, elementwise_affine=True)
          (norm2): LayerNorm((32,), eps=1e-05, elementwise_affine=True)
          (dropout1): Dropout(p=0.0, inplace=False)
          (dropout2): Dropout(p=0.0, inplace=False)
        )
      )
    )
    (inlinear): Linear(in_features=297, out_features=32, bias=False)
    (bn): BatchNorm1d(15, eps=0.0001, momentum=0.1, affine=True, track_running_stats=True)
    (top_linear): Linear(in_features=32, out_features=64, bias=True)
    (outlinear): Linear(in_features=15, out_features=633, bias=True)
    (dropout): Dropout(p=0.0, inplace=False)
  )
  (ema_model): Classifier(
    (blocks): ModuleList(
      (0): ModuleList(
        (0): Block(
          (conv1d0): Conv1DBlock(
            (in_linear): Linear(in_features=32, out_features=32, bias=True)
            (conv1d): conv1d(
              (pad): ConstantPad1d(padding=(16, 0), value=0)
              (conv): Conv1d(32, 32, kernel_size=(17,), stride=(1,), padding=valid)
            )
            (eca): eca(
              (avg_pool): AdaptiveAvgPool2d(output_size=1)
              (conv): Conv1d(1, 1, kernel_size=(3,), stride=(1,), padding=(1,), bias=False)
              (sigmoid): Sigmoid()
            )
            (bn): BatchNorm1d(32, eps=0.0001, momentum=0.1, affine=True, track_running_stats=True)
            (out_linear): Linear(in_features=32, out_features=32, bias=True)
            (dropout): Dropout(p=0.0, inplace=False)
            (drop_path): StochasticDepth(p=0.0, mode=batch)
            (activation): GELU(approximate=none)
          )
          (conv1d1): Conv1DBlock(
            (in_linear): Linear(in_features=32, out_features=32, bias=True)
            (conv1d): conv1d(
              (pad): ConstantPad1d(padding=(16, 0), value=0)
              (conv): Conv1d(32, 32, kernel_size=(17,), stride=(1,), padding=valid)
            )
            (eca): eca(
              (avg_pool): AdaptiveAvgPool2d(output_size=1)
              (conv): Conv1d(1, 1, kernel_size=(3,), stride=(1,), padding=(1,), bias=False)
              (sigmoid): Sigmoid()
            )
            (bn): BatchNorm1d(32, eps=0.0001, momentum=0.1, affine=True, track_running_stats=True)
            (out_linear): Linear(in_features=32, out_features=32, bias=True)
            (dropout): Dropout(p=0.0, inplace=False)
            (drop_path): StochasticDepth(p=0.0, mode=batch)
            (activation): GELU(approximate=none)
          )
          (conv1d2): Conv1DBlock(
            (in_linear): Linear(in_features=32, out_features=32, bias=True)
            (conv1d): conv1d(
              (pad): ConstantPad1d(padding=(16, 0), value=0)
              (conv): Conv1d(32, 32, kernel_size=(17,), stride=(1,), padding=valid)
            )
            (eca): eca(
              (avg_pool): AdaptiveAvgPool2d(output_size=1)
              (conv): Conv1d(1, 1, kernel_size=(3,), stride=(1,), padding=(1,), bias=False)
              (sigmoid): Sigmoid()
            )
            (bn): BatchNorm1d(32, eps=0.0001, momentum=0.1, affine=True, track_running_stats=True)
            (out_linear): Linear(in_features=32, out_features=32, bias=True)
            (dropout): Dropout(p=0.0, inplace=False)
            (drop_path): StochasticDepth(p=0.0, mode=batch)
            (activation): GELU(approximate=none)
          )
          (bn): BatchNorm1d(32, eps=0.0001, momentum=0.1, affine=True, track_running_stats=True)
        )
      )
      (1): ModuleList(
        (0): TransformerEncoderLayer(
          (self_attn): MultiheadAttention(
            (out_proj): NonDynamicallyQuantizableLinear(in_features=32, out_features=32, bias=True)
          )
          (linear1): Linear(in_features=32, out_features=32, bias=True)
          (dropout): Dropout(p=0.0, inplace=False)
          (linear2): Linear(in_features=32, out_features=32, bias=True)
          (norm1): LayerNorm((32,), eps=1e-05, elementwise_affine=True)
          (norm2): LayerNorm((32,), eps=1e-05, elementwise_affine=True)
          (dropout1): Dropout(p=0.0, inplace=False)
          (dropout2): Dropout(p=0.0, inplace=False)
        )
      )
      (2): ModuleList(
        (0): Block(
          (conv1d0): Conv1DBlock(
            (in_linear): Linear(in_features=32, out_features=32, bias=True)
            (conv1d): conv1d(
              (pad): ConstantPad1d(padding=(16, 0), value=0)
              (conv): Conv1d(32, 32, kernel_size=(17,), stride=(1,), padding=valid)
            )
            (eca): eca(
              (avg_pool): AdaptiveAvgPool2d(output_size=1)
              (conv): Conv1d(1, 1, kernel_size=(3,), stride=(1,), padding=(1,), bias=False)
              (sigmoid): Sigmoid()
            )
            (bn): BatchNorm1d(32, eps=0.0001, momentum=0.1, affine=True, track_running_stats=True)
            (out_linear): Linear(in_features=32, out_features=32, bias=True)
            (dropout): Dropout(p=0.0, inplace=False)
            (drop_path): StochasticDepth(p=0.0, mode=batch)
            (activation): GELU(approximate=none)
          )
          (conv1d1): Conv1DBlock(
            (in_linear): Linear(in_features=32, out_features=32, bias=True)
            (conv1d): conv1d(
              (pad): ConstantPad1d(padding=(16, 0), value=0)
              (conv): Conv1d(32, 32, kernel_size=(17,), stride=(1,), padding=valid)
            )
            (eca): eca(
              (avg_pool): AdaptiveAvgPool2d(output_size=1)
              (conv): Conv1d(1, 1, kernel_size=(3,), stride=(1,), padding=(1,), bias=False)
              (sigmoid): Sigmoid()
            )
            (bn): BatchNorm1d(32, eps=0.0001, momentum=0.1, affine=True, track_running_stats=True)
            (out_linear): Linear(in_features=32, out_features=32, bias=True)
            (dropout): Dropout(p=0.0, inplace=False)
            (drop_path): StochasticDepth(p=0.0, mode=batch)
            (activation): GELU(approximate=none)
          )
          (conv1d2): Conv1DBlock(
            (in_linear): Linear(in_features=32, out_features=32, bias=True)
            (conv1d): conv1d(
              (pad): ConstantPad1d(padding=(16, 0), value=0)
              (conv): Conv1d(32, 32, kernel_size=(17,), stride=(1,), padding=valid)
            )
            (eca): eca(
              (avg_pool): AdaptiveAvgPool2d(output_size=1)
              (conv): Conv1d(1, 1, kernel_size=(3,), stride=(1,), padding=(1,), bias=False)
              (sigmoid): Sigmoid()
            )
            (bn): BatchNorm1d(32, eps=0.0001, momentum=0.1, affine=True, track_running_stats=True)
            (out_linear): Linear(in_features=32, out_features=32, bias=True)
            (dropout): Dropout(p=0.0, inplace=False)
            (drop_path): StochasticDepth(p=0.0, mode=batch)
            (activation): GELU(approximate=none)
          )
          (bn): BatchNorm1d(32, eps=0.0001, momentum=0.1, affine=True, track_running_stats=True)
        )
      )
      (3): ModuleList(
        (0): TransformerEncoderLayer(
          (self_attn): MultiheadAttention(
            (out_proj): NonDynamicallyQuantizableLinear(in_features=32, out_features=32, bias=True)
          )
          (linear1): Linear(in_features=32, out_features=32, bias=True)
          (dropout): Dropout(p=0.0, inplace=False)
          (linear2): Linear(in_features=32, out_features=32, bias=True)
          (norm1): LayerNorm((32,), eps=1e-05, elementwise_affine=True)
          (norm2): LayerNorm((32,), eps=1e-05, elementwise_affine=True)
          (dropout1): Dropout(p=0.0, inplace=False)
          (dropout2): Dropout(p=0.0, inplace=False)
        )
      )
    )
    (inlinear): Linear(in_features=297, out_features=32, bias=False)
    (bn): BatchNorm1d(15, eps=0.0001, momentum=0.1, affine=True, track_running_stats=True)
    (top_linear): Linear(in_features=32, out_features=64, bias=True)
    (outlinear): Linear(in_features=15, out_features=633, bias=True)
    (dropout): Dropout(p=0.0, inplace=False)
  )
)
[INFO] 2024-03-07 09:56:19 > Start training!
                                                                                                                                                                                                                                                                   
…
