…
[INFO] 2024-05-30 02:08:03 > Train dataset size: 957700
[INFO] 2024-05-30 02:08:03 > Valid dataset size: 5235
[INFO] 2024-05-30 02:08:03 > Load LSFB test dataset.
[INFO] 2024-05-30 02:08:03 > Test dataset size: 40059
[INFO] 2024-05-30 02:08:03 > Build the model.
[INFO] 2024-05-30 02:08:03 > Modules are located on './src/models.CsiMLPe'.
[INFO] 2024-05-30 02:08:03 > Number of parameters: 203628
[INFO] 2024-05-30 02:08:03 > Model(
  (arr0): Rearrange('b n d -> b d n')
  (arr1): Rearrange('b d n -> b n d')
  (motion_mlp): TransMLP(
    (mlps): Sequential(
      (0): MLPblock(
        (fc0): Temporal_FC(
          (fc): Linear(in_features=24, out_features=24, bias=True)
        )
        (norm0): SLayerNorm()
        (adaLN_modulation): Sequential(
          (0): SiLU()
          (1): Linear(in_features=24, out_features=72, bias=True)
        )
      )
      (1): MLPblock(
        (fc0): Temporal_FC(
          (fc): Linear(in_features=24, out_features=24, bias=True)
        )
        (norm0): SLayerNorm()
        (adaLN_modulation): Sequential(
          (0): SiLU()
          (1): Linear(in_features=24, out_features=72, bias=True)
        )
      )
      (2): MLPblock(
        (fc0): Temporal_FC(
          (fc): Linear(in_features=24, out_features=24, bias=True)
        )
        (norm0): SLayerNorm()
        (adaLN_modulation): Sequential(
          (0): SiLU()
          (1): Linear(in_features=24, out_features=72, bias=True)
        )
      )
      (3): MLPblock(
        (fc0): Temporal_FC(
          (fc): Linear(in_features=24, out_features=24, bias=True)
        )
        (norm0): SLayerNorm()
        (adaLN_modulation): Sequential(
          (0): SiLU()
          (1): Linear(in_features=24, out_features=72, bias=True)
        )
      )
    )
  )
  (motion_fc_in): Linear(in_features=297, out_features=297, bias=True)
  (motion_fc_out): Linear(in_features=297, out_features=297, bias=True)
  (y_embedder): LabelEmbedder(
    (embedding_table): Embedding(610, 24)
  )
)
[INFO] 2024-05-30 02:08:03 > Checkpoint is /mnt/sda2/models/HandCraft/samples/LSFB/CsiMLPe-vanilla/checkpoints/LSFB-vanilla-train-2024_05_21_19_17_26/model=CsiMLPe-best-weights-step=93.pth


[INFO] 2024-05-30 02:08:06 > --------------------------------------------------------------------------------

[INFO] 2024-05-30 02:08:06 > --------------------------------------------------------------------------------
…
