…
[INFO] 2023-12-21 21:22:45 > cfgs.PRE =
[INFO] 2023-12-21 21:22:45 > {
  "apply_rflip": true
}
[INFO] 2023-12-21 21:22:45 > cfgs.AUG =
[INFO] 2023-12-21 21:22:45 > {}
[INFO] 2023-12-21 21:22:45 > cfgs.RUN =
[INFO] 2023-12-21 21:22:45 > {
  "mixed_precision": true
}
[INFO] 2023-12-21 21:22:45 > Build a Generative Adversarial Network.
[INFO] 2023-12-21 21:22:45 > Modules are located on './src/models.conv1d'.
[INFO] 2023-12-21 21:22:47 > Number of parameters: 58378226
[INFO] 2023-12-21 21:22:47 > Classifier(
  (blocks): ModuleList(
    (0): ModuleList(
      (0): Block(
        (conv1d0): Conv1DBlock(
          (in_linear): Linear(in_features=256, out_features=512, bias=True)
          (conv1d): Conv1d(512, 512, kernel_size=(17,), stride=(1,), padding=same)
          (eca): eca(
            (avg_pool): AdaptiveAvgPool2d(output_size=1)
            (conv): Conv1d(1, 1, kernel_size=(3,), stride=(1,), padding=(1,), bias=False)
            (sigmoid): Sigmoid()
          )
          (bn): BatchNorm1d(512, eps=0.0001, momentum=0.1, affine=True, track_running_stats=True)
          (out_linear): Linear(in_features=512, out_features=256, bias=True)
          (dropout): Dropout(p=0.2, inplace=False)
          (activation): ReLU(inplace=True)
        )
        (conv1d1): Conv1DBlock(
          (in_linear): Linear(in_features=256, out_features=512, bias=True)
          (conv1d): Conv1d(512, 512, kernel_size=(17,), stride=(1,), padding=same)
          (eca): eca(
            (avg_pool): AdaptiveAvgPool2d(output_size=1)
            (conv): Conv1d(1, 1, kernel_size=(3,), stride=(1,), padding=(1,), bias=False)
            (sigmoid): Sigmoid()
          )
          (bn): BatchNorm1d(512, eps=0.0001, momentum=0.1, affine=True, track_running_stats=True)
          (out_linear): Linear(in_features=512, out_features=256, bias=True)
          (dropout): Dropout(p=0.2, inplace=False)
          (activation): ReLU(inplace=True)
        )
        (conv1d2): Conv1DBlock(
          (in_linear): Linear(in_features=256, out_features=512, bias=True)
          (conv1d): Conv1d(512, 512, kernel_size=(17,), stride=(1,), padding=same)
          (eca): eca(
            (avg_pool): AdaptiveAvgPool2d(output_size=1)
            (conv): Conv1d(1, 1, kernel_size=(3,), stride=(1,), padding=(1,), bias=False)
            (sigmoid): Sigmoid()
          )
          (bn): BatchNorm1d(512, eps=0.0001, momentum=0.1, affine=True, track_running_stats=True)
          (out_linear): Linear(in_features=512, out_features=256, bias=True)
          (dropout): Dropout(p=0.2, inplace=False)
          (activation): ReLU(inplace=True)
        )
        (bn): BatchNorm1d(256, eps=0.0001, momentum=0.1, affine=True, track_running_stats=True)
      )
    )
    (1): ModuleList(
      (0): TransformerEncoderLayer(
        (self_attn): MultiheadAttention(
          (out_proj): NonDynamicallyQuantizableLinear(in_features=256, out_features=256, bias=True)
        )
        (linear1): Linear(in_features=256, out_features=256, bias=True)
        (dropout): Dropout(p=0.2, inplace=False)
        (linear2): Linear(in_features=256, out_features=256, bias=True)
        (norm1): LayerNorm((256,), eps=1e-05, elementwise_affine=True)
        (norm2): LayerNorm((256,), eps=1e-05, elementwise_affine=True)
        (dropout1): Dropout(p=0.2, inplace=False)
        (dropout2): Dropout(p=0.2, inplace=False)
      )
    )
    (2): ModuleList(
      (0): Block(
        (conv1d0): Conv1DBlock(
          (in_linear): Linear(in_features=256, out_features=512, bias=True)
          (conv1d): Conv1d(512, 512, kernel_size=(17,), stride=(1,), padding=same)
          (eca): eca(
            (avg_pool): AdaptiveAvgPool2d(output_size=1)
            (conv): Conv1d(1, 1, kernel_size=(3,), stride=(1,), padding=(1,), bias=False)
            (sigmoid): Sigmoid()
          )
          (bn): BatchNorm1d(512, eps=0.0001, momentum=0.1, affine=True, track_running_stats=True)
          (out_linear): Linear(in_features=512, out_features=256, bias=True)
          (dropout): Dropout(p=0.2, inplace=False)
          (activation): ReLU(inplace=True)
        )
        (conv1d1): Conv1DBlock(
          (in_linear): Linear(in_features=256, out_features=512, bias=True)
          (conv1d): Conv1d(512, 512, kernel_size=(17,), stride=(1,), padding=same)
          (eca): eca(
            (avg_pool): AdaptiveAvgPool2d(output_size=1)
            (conv): Conv1d(1, 1, kernel_size=(3,), stride=(1,), padding=(1,), bias=False)
            (sigmoid): Sigmoid()
          )
          (bn): BatchNorm1d(512, eps=0.0001, momentum=0.1, affine=True, track_running_stats=True)
          (out_linear): Linear(in_features=512, out_features=256, bias=True)
          (dropout): Dropout(p=0.2, inplace=False)
          (activation): ReLU(inplace=True)
        )
        (conv1d2): Conv1DBlock(
          (in_linear): Linear(in_features=256, out_features=512, bias=True)
          (conv1d): Conv1d(512, 512, kernel_size=(17,), stride=(1,), padding=same)
          (eca): eca(
            (avg_pool): AdaptiveAvgPool2d(output_size=1)
            (conv): Conv1d(1, 1, kernel_size=(3,), stride=(1,), padding=(1,), bias=False)
            (sigmoid): Sigmoid()
          )
          (bn): BatchNorm1d(512, eps=0.0001, momentum=0.1, affine=True, track_running_stats=True)
          (out_linear): Linear(in_features=512, out_features=256, bias=True)
          (dropout): Dropout(p=0.2, inplace=False)
          (activation): ReLU(inplace=True)
        )
        (bn): BatchNorm1d(256, eps=0.0001, momentum=0.1, affine=True, track_running_stats=True)
      )
    )
    (3): ModuleList(
      (0): TransformerEncoderLayer(
        (self_attn): MultiheadAttention(
          (out_proj): NonDynamicallyQuantizableLinear(in_features=256, out_features=256, bias=True)
        )
        (linear1): Linear(in_features=256, out_features=256, bias=True)
        (dropout): Dropout(p=0.2, inplace=False)
        (linear2): Linear(in_features=256, out_features=256, bias=True)
        (norm1): LayerNorm((256,), eps=1e-05, elementwise_affine=True)
        (norm2): LayerNorm((256,), eps=1e-05, elementwise_affine=True)
        (dropout1): Dropout(p=0.2, inplace=False)
        (dropout2): Dropout(p=0.2, inplace=False)
      )
    )
    (4): ModuleList(
      (0): Block(
        (conv1d0): Conv1DBlock(
          (in_linear): Linear(in_features=256, out_features=512, bias=True)
          (conv1d): Conv1d(512, 512, kernel_size=(17,), stride=(1,), padding=same)
          (eca): eca(
            (avg_pool): AdaptiveAvgPool2d(output_size=1)
            (conv): Conv1d(1, 1, kernel_size=(3,), stride=(1,), padding=(1,), bias=False)
            (sigmoid): Sigmoid()
          )
          (bn): BatchNorm1d(512, eps=0.0001, momentum=0.1, affine=True, track_running_stats=True)
          (out_linear): Linear(in_features=512, out_features=256, bias=True)
          (dropout): Dropout(p=0.2, inplace=False)
          (activation): ReLU(inplace=True)
        )
        (conv1d1): Conv1DBlock(
          (in_linear): Linear(in_features=256, out_features=512, bias=True)
          (conv1d): Conv1d(512, 512, kernel_size=(17,), stride=(1,), padding=same)
          (eca): eca(
            (avg_pool): AdaptiveAvgPool2d(output_size=1)
            (conv): Conv1d(1, 1, kernel_size=(3,), stride=(1,), padding=(1,), bias=False)
            (sigmoid): Sigmoid()
          )
          (bn): BatchNorm1d(512, eps=0.0001, momentum=0.1, affine=True, track_running_stats=True)
          (out_linear): Linear(in_features=512, out_features=256, bias=True)
          (dropout): Dropout(p=0.2, inplace=False)
          (activation): ReLU(inplace=True)
        )
        (conv1d2): Conv1DBlock(
          (in_linear): Linear(in_features=256, out_features=512, bias=True)
          (conv1d): Conv1d(512, 512, kernel_size=(17,), stride=(1,), padding=same)
          (eca): eca(
            (avg_pool): AdaptiveAvgPool2d(output_size=1)
            (conv): Conv1d(1, 1, kernel_size=(3,), stride=(1,), padding=(1,), bias=False)
            (sigmoid): Sigmoid()
          )
          (bn): BatchNorm1d(512, eps=0.0001, momentum=0.1, affine=True, track_running_stats=True)
          (out_linear): Linear(in_features=512, out_features=256, bias=True)
          (dropout): Dropout(p=0.2, inplace=False)
          (activation): ReLU(inplace=True)
        )
        (bn): BatchNorm1d(256, eps=0.0001, momentum=0.1, affine=True, track_running_stats=True)
      )
    )
    (5): ModuleList(
      (0): TransformerEncoderLayer(
        (self_attn): MultiheadAttention(
          (out_proj): NonDynamicallyQuantizableLinear(in_features=256, out_features=256, bias=True)
        )
        (linear1): Linear(in_features=256, out_features=256, bias=True)
        (dropout): Dropout(p=0.2, inplace=False)
        (linear2): Linear(in_features=256, out_features=256, bias=True)
        (norm1): LayerNorm((256,), eps=1e-05, elementwise_affine=True)
        (norm2): LayerNorm((256,), eps=1e-05, elementwise_affine=True)
        (dropout1): Dropout(p=0.2, inplace=False)
        (dropout2): Dropout(p=0.2, inplace=False)
      )
    )
    (6): ModuleList(
      (0): Block(
        (conv1d0): Conv1DBlock(
          (in_linear): Linear(in_features=256, out_features=512, bias=True)
          (conv1d): Conv1d(512, 512, kernel_size=(17,), stride=(1,), padding=same)
          (eca): eca(
            (avg_pool): AdaptiveAvgPool2d(output_size=1)
            (conv): Conv1d(1, 1, kernel_size=(3,), stride=(1,), padding=(1,), bias=False)
            (sigmoid): Sigmoid()
          )
          (bn): BatchNorm1d(512, eps=0.0001, momentum=0.1, affine=True, track_running_stats=True)
          (out_linear): Linear(in_features=512, out_features=256, bias=True)
          (dropout): Dropout(p=0.2, inplace=False)
          (activation): ReLU(inplace=True)
        )
        (conv1d1): Conv1DBlock(
          (in_linear): Linear(in_features=256, out_features=512, bias=True)
          (conv1d): Conv1d(512, 512, kernel_size=(17,), stride=(1,), padding=same)
          (eca): eca(
            (avg_pool): AdaptiveAvgPool2d(output_size=1)
            (conv): Conv1d(1, 1, kernel_size=(3,), stride=(1,), padding=(1,), bias=False)
            (sigmoid): Sigmoid()
          )
          (bn): BatchNorm1d(512, eps=0.0001, momentum=0.1, affine=True, track_running_stats=True)
          (out_linear): Linear(in_features=512, out_features=256, bias=True)
          (dropout): Dropout(p=0.2, inplace=False)
          (activation): ReLU(inplace=True)
        )
        (conv1d2): Conv1DBlock(
          (in_linear): Linear(in_features=256, out_features=512, bias=True)
          (conv1d): Conv1d(512, 512, kernel_size=(17,), stride=(1,), padding=same)
          (eca): eca(
            (avg_pool): AdaptiveAvgPool2d(output_size=1)
            (conv): Conv1d(1, 1, kernel_size=(3,), stride=(1,), padding=(1,), bias=False)
            (sigmoid): Sigmoid()
          )
          (bn): BatchNorm1d(512, eps=0.0001, momentum=0.1, affine=True, track_running_stats=True)
          (out_linear): Linear(in_features=512, out_features=256, bias=True)
          (dropout): Dropout(p=0.2, inplace=False)
          (activation): ReLU(inplace=True)
        )
        (bn): BatchNorm1d(256, eps=0.0001, momentum=0.1, affine=True, track_running_stats=True)
      )
    )
    (7): ModuleList(
      (0): TransformerEncoderLayer(
        (self_attn): MultiheadAttention(
          (out_proj): NonDynamicallyQuantizableLinear(in_features=256, out_features=256, bias=True)
        )
        (linear1): Linear(in_features=256, out_features=256, bias=True)
        (dropout): Dropout(p=0.2, inplace=False)
        (linear2): Linear(in_features=256, out_features=256, bias=True)
        (norm1): LayerNorm((256,), eps=1e-05, elementwise_affine=True)
        (norm2): LayerNorm((256,), eps=1e-05, elementwise_affine=True)
        (dropout1): Dropout(p=0.2, inplace=False)
        (dropout2): Dropout(p=0.2, inplace=False)
      )
    )
  )
  (inlinear): Linear(in_features=32, out_features=256, bias=False)
  (bn): BatchNorm1d(256, eps=0.0001, momentum=0.1, affine=True, track_running_stats=True)
  (top_linear): Linear(in_features=256, out_features=512, bias=True)
  (pooling): AvgPool1d(kernel_size=(512,), stride=(512,), padding=(0,))
  (outlinear): Linear(in_features=1, out_features=999, bias=True)
  (dropout): Dropout(p=0.2, inplace=False)
)
[INFO] 2023-12-21 21:31:16 > Run name : test
[INFO] 2023-12-21 21:31:16 > cfgs.DATA =
[INFO] 2023-12-21 21:31:16 > {
  "name": "LSFB",
  "input_size": 32,
  "num_classes": 999,
  "min_samples": 20,
  "oversample": true,
  "poses": [
    [
      "right_hand",
      "all"
    ],
    [
      "left_hand",
      "all"
…
[INFO] 2023-12-21 21:50:57 > cfgs.PRE =
[INFO] 2023-12-21 21:50:57 > {
  "apply_rflip": true
}
[INFO] 2023-12-21 21:50:57 > cfgs.AUG =
[INFO] 2023-12-21 21:50:57 > {}
[INFO] 2023-12-21 21:50:57 > cfgs.RUN =
[INFO] 2023-12-21 21:50:57 > {
  "mixed_precision": true
}
[INFO] 2023-12-21 21:50:57 > Build the model.
[INFO] 2023-12-21 21:50:57 > Modules are located on './src/models.conv1d'.
[INFO] 2023-12-21 21:50:59 > Number of parameters: 58377720
[INFO] 2023-12-21 21:50:59 > Classifier(
  (blocks): ModuleList(
    (0): ModuleList(
      (0): Block(
        (conv1d0): Conv1DBlock(
          (in_linear): Linear(in_features=256, out_features=512, bias=True)
          (conv1d): Conv1d(512, 512, kernel_size=(17,), stride=(1,), padding=same)
          (eca): eca(
            (avg_pool): AdaptiveAvgPool2d(output_size=1)
            (conv): Conv1d(1, 1, kernel_size=(3,), stride=(1,), padding=(1,), bias=False)
            (sigmoid): Sigmoid()
          )
          (bn): BatchNorm1d(512, eps=0.0001, momentum=0.1, affine=True, track_running_stats=True)
          (out_linear): Linear(in_features=512, out_features=256, bias=True)
          (dropout): Dropout(p=0.2, inplace=False)
          (activation): ReLU(inplace=True)
        )
        (conv1d1): Conv1DBlock(
          (in_linear): Linear(in_features=256, out_features=512, bias=True)
          (conv1d): Conv1d(512, 512, kernel_size=(17,), stride=(1,), padding=same)
          (eca): eca(
            (avg_pool): AdaptiveAvgPool2d(output_size=1)
            (conv): Conv1d(1, 1, kernel_size=(3,), stride=(1,), padding=(1,), bias=False)
            (sigmoid): Sigmoid()
          )
          (bn): BatchNorm1d(512, eps=0.0001, momentum=0.1, affine=True, track_running_stats=True)
          (out_linear): Linear(in_features=512, out_features=256, bias=True)
          (dropout): Dropout(p=0.2, inplace=False)
          (activation): ReLU(inplace=True)
        )
        (conv1d2): Conv1DBlock(
          (in_linear): Linear(in_features=256, out_features=512, bias=True)
          (conv1d): Conv1d(512, 512, kernel_size=(17,), stride=(1,), padding=same)
          (eca): eca(
            (avg_pool): AdaptiveAvgPool2d(output_size=1)
            (conv): Conv1d(1, 1, kernel_size=(3,), stride=(1,), padding=(1,), bias=False)
            (sigmoid): Sigmoid()
          )
          (bn): BatchNorm1d(512, eps=0.0001, momentum=0.1, affine=True, track_running_stats=True)
          (out_linear): Linear(in_features=512, out_features=256, bias=True)
          (dropout): Dropout(p=0.2, inplace=False)
          (activation): ReLU(inplace=True)
        )
        (bn): BatchNorm1d(256, eps=0.0001, momentum=0.1, affine=True, track_running_stats=True)
      )
    )
    (1): ModuleList(
      (0): TransformerEncoderLayer(
        (self_attn): MultiheadAttention(
          (out_proj): NonDynamicallyQuantizableLinear(in_features=256, out_features=256, bias=True)
        )
        (linear1): Linear(in_features=256, out_features=256, bias=True)
        (dropout): Dropout(p=0.2, inplace=False)
        (linear2): Linear(in_features=256, out_features=256, bias=True)
        (norm1): LayerNorm((256,), eps=1e-05, elementwise_affine=True)
        (norm2): LayerNorm((256,), eps=1e-05, elementwise_affine=True)
        (dropout1): Dropout(p=0.2, inplace=False)
        (dropout2): Dropout(p=0.2, inplace=False)
      )
    )
    (2): ModuleList(
      (0): Block(
        (conv1d0): Conv1DBlock(
          (in_linear): Linear(in_features=256, out_features=512, bias=True)
          (conv1d): Conv1d(512, 512, kernel_size=(17,), stride=(1,), padding=same)
          (eca): eca(
            (avg_pool): AdaptiveAvgPool2d(output_size=1)
            (conv): Conv1d(1, 1, kernel_size=(3,), stride=(1,), padding=(1,), bias=False)
            (sigmoid): Sigmoid()
          )
          (bn): BatchNorm1d(512, eps=0.0001, momentum=0.1, affine=True, track_running_stats=True)
          (out_linear): Linear(in_features=512, out_features=256, bias=True)
          (dropout): Dropout(p=0.2, inplace=False)
          (activation): ReLU(inplace=True)
        )
        (conv1d1): Conv1DBlock(
          (in_linear): Linear(in_features=256, out_features=512, bias=True)
          (conv1d): Conv1d(512, 512, kernel_size=(17,), stride=(1,), padding=same)
          (eca): eca(
            (avg_pool): AdaptiveAvgPool2d(output_size=1)
            (conv): Conv1d(1, 1, kernel_size=(3,), stride=(1,), padding=(1,), bias=False)
            (sigmoid): Sigmoid()
          )
          (bn): BatchNorm1d(512, eps=0.0001, momentum=0.1, affine=True, track_running_stats=True)
          (out_linear): Linear(in_features=512, out_features=256, bias=True)
          (dropout): Dropout(p=0.2, inplace=False)
          (activation): ReLU(inplace=True)
        )
        (conv1d2): Conv1DBlock(
          (in_linear): Linear(in_features=256, out_features=512, bias=True)
          (conv1d): Conv1d(512, 512, kernel_size=(17,), stride=(1,), padding=same)
          (eca): eca(
            (avg_pool): AdaptiveAvgPool2d(output_size=1)
            (conv): Conv1d(1, 1, kernel_size=(3,), stride=(1,), padding=(1,), bias=False)
            (sigmoid): Sigmoid()
          )
          (bn): BatchNorm1d(512, eps=0.0001, momentum=0.1, affine=True, track_running_stats=True)
          (out_linear): Linear(in_features=512, out_features=256, bias=True)
          (dropout): Dropout(p=0.2, inplace=False)
          (activation): ReLU(inplace=True)
        )
        (bn): BatchNorm1d(256, eps=0.0001, momentum=0.1, affine=True, track_running_stats=True)
      )
    )
    (3): ModuleList(
      (0): TransformerEncoderLayer(
        (self_attn): MultiheadAttention(
          (out_proj): NonDynamicallyQuantizableLinear(in_features=256, out_features=256, bias=True)
        )
        (linear1): Linear(in_features=256, out_features=256, bias=True)
        (dropout): Dropout(p=0.2, inplace=False)
        (linear2): Linear(in_features=256, out_features=256, bias=True)
        (norm1): LayerNorm((256,), eps=1e-05, elementwise_affine=True)
        (norm2): LayerNorm((256,), eps=1e-05, elementwise_affine=True)
        (dropout1): Dropout(p=0.2, inplace=False)
        (dropout2): Dropout(p=0.2, inplace=False)
      )
    )
    (4): ModuleList(
      (0): Block(
        (conv1d0): Conv1DBlock(
          (in_linear): Linear(in_features=256, out_features=512, bias=True)
          (conv1d): Conv1d(512, 512, kernel_size=(17,), stride=(1,), padding=same)
          (eca): eca(
            (avg_pool): AdaptiveAvgPool2d(output_size=1)
            (conv): Conv1d(1, 1, kernel_size=(3,), stride=(1,), padding=(1,), bias=False)
            (sigmoid): Sigmoid()
          )
          (bn): BatchNorm1d(512, eps=0.0001, momentum=0.1, affine=True, track_running_stats=True)
          (out_linear): Linear(in_features=512, out_features=256, bias=True)
          (dropout): Dropout(p=0.2, inplace=False)
          (activation): ReLU(inplace=True)
        )
        (conv1d1): Conv1DBlock(
          (in_linear): Linear(in_features=256, out_features=512, bias=True)
          (conv1d): Conv1d(512, 512, kernel_size=(17,), stride=(1,), padding=same)
          (eca): eca(
            (avg_pool): AdaptiveAvgPool2d(output_size=1)
            (conv): Conv1d(1, 1, kernel_size=(3,), stride=(1,), padding=(1,), bias=False)
            (sigmoid): Sigmoid()
          )
          (bn): BatchNorm1d(512, eps=0.0001, momentum=0.1, affine=True, track_running_stats=True)
          (out_linear): Linear(in_features=512, out_features=256, bias=True)
          (dropout): Dropout(p=0.2, inplace=False)
          (activation): ReLU(inplace=True)
        )
        (conv1d2): Conv1DBlock(
          (in_linear): Linear(in_features=256, out_features=512, bias=True)
          (conv1d): Conv1d(512, 512, kernel_size=(17,), stride=(1,), padding=same)
          (eca): eca(
            (avg_pool): AdaptiveAvgPool2d(output_size=1)
            (conv): Conv1d(1, 1, kernel_size=(3,), stride=(1,), padding=(1,), bias=False)
            (sigmoid): Sigmoid()
          )
          (bn): BatchNorm1d(512, eps=0.0001, momentum=0.1, affine=True, track_running_stats=True)
          (out_linear): Linear(in_features=512, out_features=256, bias=True)
          (dropout): Dropout(p=0.2, inplace=False)
          (activation): ReLU(inplace=True)
        )
        (bn): BatchNorm1d(256, eps=0.0001, momentum=0.1, affine=True, track_running_stats=True)
      )
    )
    (5): ModuleList(
      (0): TransformerEncoderLayer(
        (self_attn): MultiheadAttention(
          (out_proj): NonDynamicallyQuantizableLinear(in_features=256, out_features=256, bias=True)
        )
        (linear1): Linear(in_features=256, out_features=256, bias=True)
        (dropout): Dropout(p=0.2, inplace=False)
        (linear2): Linear(in_features=256, out_features=256, bias=True)
        (norm1): LayerNorm((256,), eps=1e-05, elementwise_affine=True)
        (norm2): LayerNorm((256,), eps=1e-05, elementwise_affine=True)
        (dropout1): Dropout(p=0.2, inplace=False)
        (dropout2): Dropout(p=0.2, inplace=False)
      )
    )
    (6): ModuleList(
      (0): Block(
        (conv1d0): Conv1DBlock(
          (in_linear): Linear(in_features=256, out_features=512, bias=True)
          (conv1d): Conv1d(512, 512, kernel_size=(17,), stride=(1,), padding=same)
          (eca): eca(
            (avg_pool): AdaptiveAvgPool2d(output_size=1)
            (conv): Conv1d(1, 1, kernel_size=(3,), stride=(1,), padding=(1,), bias=False)
            (sigmoid): Sigmoid()
          )
          (bn): BatchNorm1d(512, eps=0.0001, momentum=0.1, affine=True, track_running_stats=True)
          (out_linear): Linear(in_features=512, out_features=256, bias=True)
          (dropout): Dropout(p=0.2, inplace=False)
          (activation): ReLU(inplace=True)
        )
        (conv1d1): Conv1DBlock(
          (in_linear): Linear(in_features=256, out_features=512, bias=True)
          (conv1d): Conv1d(512, 512, kernel_size=(17,), stride=(1,), padding=same)
          (eca): eca(
            (avg_pool): AdaptiveAvgPool2d(output_size=1)
            (conv): Conv1d(1, 1, kernel_size=(3,), stride=(1,), padding=(1,), bias=False)
            (sigmoid): Sigmoid()
          )
          (bn): BatchNorm1d(512, eps=0.0001, momentum=0.1, affine=True, track_running_stats=True)
          (out_linear): Linear(in_features=512, out_features=256, bias=True)
          (dropout): Dropout(p=0.2, inplace=False)
          (activation): ReLU(inplace=True)
        )
        (conv1d2): Conv1DBlock(
          (in_linear): Linear(in_features=256, out_features=512, bias=True)
          (conv1d): Conv1d(512, 512, kernel_size=(17,), stride=(1,), padding=same)
          (eca): eca(
            (avg_pool): AdaptiveAvgPool2d(output_size=1)
            (conv): Conv1d(1, 1, kernel_size=(3,), stride=(1,), padding=(1,), bias=False)
            (sigmoid): Sigmoid()
          )
          (bn): BatchNorm1d(512, eps=0.0001, momentum=0.1, affine=True, track_running_stats=True)
          (out_linear): Linear(in_features=512, out_features=256, bias=True)
          (dropout): Dropout(p=0.2, inplace=False)
          (activation): ReLU(inplace=True)
        )
        (bn): BatchNorm1d(256, eps=0.0001, momentum=0.1, affine=True, track_running_stats=True)
      )
    )
    (7): ModuleList(
      (0): TransformerEncoderLayer(
        (self_attn): MultiheadAttention(
          (out_proj): NonDynamicallyQuantizableLinear(in_features=256, out_features=256, bias=True)
        )
        (linear1): Linear(in_features=256, out_features=256, bias=True)
        (dropout): Dropout(p=0.2, inplace=False)
        (linear2): Linear(in_features=256, out_features=256, bias=True)
        (norm1): LayerNorm((256,), eps=1e-05, elementwise_affine=True)
        (norm2): LayerNorm((256,), eps=1e-05, elementwise_affine=True)
        (dropout1): Dropout(p=0.2, inplace=False)
        (dropout2): Dropout(p=0.2, inplace=False)
      )
    )
  )
  (inlinear): Linear(in_features=32, out_features=256, bias=False)
  (bn): BatchNorm1d(3, eps=0.0001, momentum=0.1, affine=True, track_running_stats=True)
  (top_linear): Linear(in_features=256, out_features=512, bias=True)
  (pooling): AvgPool1d(kernel_size=(512,), stride=(512,), padding=(0,))
  (outlinear): Linear(in_features=1, out_features=999, bias=True)
  (dropout): Dropout(p=0.2, inplace=False)
)
[INFO] 2023-12-21 21:56:42 > Run name : test
[INFO] 2023-12-21 21:56:42 > cfgs.DATA =
[INFO] 2023-12-21 21:56:42 > {
  "name": "LSFB",
  "input_size": [
    3,
    32
  ],
  "num_classes": 999,
  "min_samples": 20,
  "oversample": true,
  "poses": [
    [
      "right_hand",
      "all"
    ],
    [
      "left_hand",
…
[INFO] 2023-12-21 21:56:42 > cfgs.PRE =
[INFO] 2023-12-21 21:56:42 > {
  "apply_rflip": true
}
[INFO] 2023-12-21 21:56:42 > cfgs.AUG =
[INFO] 2023-12-21 21:56:42 > {}
[INFO] 2023-12-21 21:56:42 > cfgs.RUN =
[INFO] 2023-12-21 21:56:42 > {
  "mixed_precision": true
}
[INFO] 2023-12-21 21:56:42 > Build the model.
[INFO] 2023-12-21 21:56:42 > Modules are located on './src/models.conv1d'.
[INFO] 2023-12-21 21:56:43 > Number of parameters: 31639032
[INFO] 2023-12-21 21:56:43 > Classifier(
  (blocks): ModuleList(
    (0): ModuleList(
      (0): Block(
        (conv1d0): Conv1DBlock(
          (in_linear): Linear(in_features=256, out_features=512, bias=True)
          (conv1d): Conv1d(256, 512, kernel_size=(17,), stride=(1,), padding=same)
          (eca): eca(
            (avg_pool): AdaptiveAvgPool2d(output_size=1)
            (conv): Conv1d(1, 1, kernel_size=(3,), stride=(1,), padding=(1,), bias=False)
            (sigmoid): Sigmoid()
          )
          (bn): BatchNorm1d(512, eps=0.0001, momentum=0.1, affine=True, track_running_stats=True)
          (out_linear): Linear(in_features=512, out_features=256, bias=True)
          (dropout): Dropout(p=0.2, inplace=False)
          (activation): ReLU(inplace=True)
        )
        (conv1d1): Conv1DBlock(
          (in_linear): Linear(in_features=256, out_features=512, bias=True)
          (conv1d): Conv1d(256, 512, kernel_size=(17,), stride=(1,), padding=same)
          (eca): eca(
            (avg_pool): AdaptiveAvgPool2d(output_size=1)
            (conv): Conv1d(1, 1, kernel_size=(3,), stride=(1,), padding=(1,), bias=False)
            (sigmoid): Sigmoid()
          )
          (bn): BatchNorm1d(512, eps=0.0001, momentum=0.1, affine=True, track_running_stats=True)
          (out_linear): Linear(in_features=512, out_features=256, bias=True)
          (dropout): Dropout(p=0.2, inplace=False)
          (activation): ReLU(inplace=True)
        )
        (conv1d2): Conv1DBlock(
          (in_linear): Linear(in_features=256, out_features=512, bias=True)
          (conv1d): Conv1d(256, 512, kernel_size=(17,), stride=(1,), padding=same)
          (eca): eca(
            (avg_pool): AdaptiveAvgPool2d(output_size=1)
            (conv): Conv1d(1, 1, kernel_size=(3,), stride=(1,), padding=(1,), bias=False)
            (sigmoid): Sigmoid()
          )
          (bn): BatchNorm1d(512, eps=0.0001, momentum=0.1, affine=True, track_running_stats=True)
          (out_linear): Linear(in_features=512, out_features=256, bias=True)
          (dropout): Dropout(p=0.2, inplace=False)
          (activation): ReLU(inplace=True)
        )
        (bn): BatchNorm1d(256, eps=0.0001, momentum=0.1, affine=True, track_running_stats=True)
      )
    )
    (1): ModuleList(
      (0): TransformerEncoderLayer(
        (self_attn): MultiheadAttention(
          (out_proj): NonDynamicallyQuantizableLinear(in_features=256, out_features=256, bias=True)
        )
        (linear1): Linear(in_features=256, out_features=256, bias=True)
        (dropout): Dropout(p=0.2, inplace=False)
        (linear2): Linear(in_features=256, out_features=256, bias=True)
        (norm1): LayerNorm((256,), eps=1e-05, elementwise_affine=True)
        (norm2): LayerNorm((256,), eps=1e-05, elementwise_affine=True)
        (dropout1): Dropout(p=0.2, inplace=False)
        (dropout2): Dropout(p=0.2, inplace=False)
      )
    )
    (2): ModuleList(
      (0): Block(
        (conv1d0): Conv1DBlock(
          (in_linear): Linear(in_features=256, out_features=512, bias=True)
          (conv1d): Conv1d(256, 512, kernel_size=(17,), stride=(1,), padding=same)
          (eca): eca(
            (avg_pool): AdaptiveAvgPool2d(output_size=1)
            (conv): Conv1d(1, 1, kernel_size=(3,), stride=(1,), padding=(1,), bias=False)
            (sigmoid): Sigmoid()
          )
          (bn): BatchNorm1d(512, eps=0.0001, momentum=0.1, affine=True, track_running_stats=True)
          (out_linear): Linear(in_features=512, out_features=256, bias=True)
          (dropout): Dropout(p=0.2, inplace=False)
          (activation): ReLU(inplace=True)
        )
        (conv1d1): Conv1DBlock(
          (in_linear): Linear(in_features=256, out_features=512, bias=True)
          (conv1d): Conv1d(256, 512, kernel_size=(17,), stride=(1,), padding=same)
          (eca): eca(
            (avg_pool): AdaptiveAvgPool2d(output_size=1)
            (conv): Conv1d(1, 1, kernel_size=(3,), stride=(1,), padding=(1,), bias=False)
            (sigmoid): Sigmoid()
          )
          (bn): BatchNorm1d(512, eps=0.0001, momentum=0.1, affine=True, track_running_stats=True)
          (out_linear): Linear(in_features=512, out_features=256, bias=True)
          (dropout): Dropout(p=0.2, inplace=False)
          (activation): ReLU(inplace=True)
        )
        (conv1d2): Conv1DBlock(
          (in_linear): Linear(in_features=256, out_features=512, bias=True)
          (conv1d): Conv1d(256, 512, kernel_size=(17,), stride=(1,), padding=same)
          (eca): eca(
            (avg_pool): AdaptiveAvgPool2d(output_size=1)
            (conv): Conv1d(1, 1, kernel_size=(3,), stride=(1,), padding=(1,), bias=False)
            (sigmoid): Sigmoid()
          )
          (bn): BatchNorm1d(512, eps=0.0001, momentum=0.1, affine=True, track_running_stats=True)
          (out_linear): Linear(in_features=512, out_features=256, bias=True)
          (dropout): Dropout(p=0.2, inplace=False)
          (activation): ReLU(inplace=True)
        )
        (bn): BatchNorm1d(256, eps=0.0001, momentum=0.1, affine=True, track_running_stats=True)
      )
    )
    (3): ModuleList(
      (0): TransformerEncoderLayer(
        (self_attn): MultiheadAttention(
          (out_proj): NonDynamicallyQuantizableLinear(in_features=256, out_features=256, bias=True)
        )
        (linear1): Linear(in_features=256, out_features=256, bias=True)
        (dropout): Dropout(p=0.2, inplace=False)
        (linear2): Linear(in_features=256, out_features=256, bias=True)
        (norm1): LayerNorm((256,), eps=1e-05, elementwise_affine=True)
        (norm2): LayerNorm((256,), eps=1e-05, elementwise_affine=True)
        (dropout1): Dropout(p=0.2, inplace=False)
        (dropout2): Dropout(p=0.2, inplace=False)
      )
    )
    (4): ModuleList(
      (0): Block(
        (conv1d0): Conv1DBlock(
          (in_linear): Linear(in_features=256, out_features=512, bias=True)
          (conv1d): Conv1d(256, 512, kernel_size=(17,), stride=(1,), padding=same)
          (eca): eca(
            (avg_pool): AdaptiveAvgPool2d(output_size=1)
            (conv): Conv1d(1, 1, kernel_size=(3,), stride=(1,), padding=(1,), bias=False)
            (sigmoid): Sigmoid()
          )
          (bn): BatchNorm1d(512, eps=0.0001, momentum=0.1, affine=True, track_running_stats=True)
          (out_linear): Linear(in_features=512, out_features=256, bias=True)
          (dropout): Dropout(p=0.2, inplace=False)
          (activation): ReLU(inplace=True)
        )
        (conv1d1): Conv1DBlock(
          (in_linear): Linear(in_features=256, out_features=512, bias=True)
          (conv1d): Conv1d(256, 512, kernel_size=(17,), stride=(1,), padding=same)
          (eca): eca(
            (avg_pool): AdaptiveAvgPool2d(output_size=1)
            (conv): Conv1d(1, 1, kernel_size=(3,), stride=(1,), padding=(1,), bias=False)
            (sigmoid): Sigmoid()
          )
          (bn): BatchNorm1d(512, eps=0.0001, momentum=0.1, affine=True, track_running_stats=True)
          (out_linear): Linear(in_features=512, out_features=256, bias=True)
          (dropout): Dropout(p=0.2, inplace=False)
          (activation): ReLU(inplace=True)
        )
        (conv1d2): Conv1DBlock(
          (in_linear): Linear(in_features=256, out_features=512, bias=True)
          (conv1d): Conv1d(256, 512, kernel_size=(17,), stride=(1,), padding=same)
          (eca): eca(
            (avg_pool): AdaptiveAvgPool2d(output_size=1)
            (conv): Conv1d(1, 1, kernel_size=(3,), stride=(1,), padding=(1,), bias=False)
            (sigmoid): Sigmoid()
          )
          (bn): BatchNorm1d(512, eps=0.0001, momentum=0.1, affine=True, track_running_stats=True)
          (out_linear): Linear(in_features=512, out_features=256, bias=True)
          (dropout): Dropout(p=0.2, inplace=False)
          (activation): ReLU(inplace=True)
        )
        (bn): BatchNorm1d(256, eps=0.0001, momentum=0.1, affine=True, track_running_stats=True)
      )
    )
    (5): ModuleList(
      (0): TransformerEncoderLayer(
        (self_attn): MultiheadAttention(
          (out_proj): NonDynamicallyQuantizableLinear(in_features=256, out_features=256, bias=True)
        )
        (linear1): Linear(in_features=256, out_features=256, bias=True)
        (dropout): Dropout(p=0.2, inplace=False)
        (linear2): Linear(in_features=256, out_features=256, bias=True)
        (norm1): LayerNorm((256,), eps=1e-05, elementwise_affine=True)
        (norm2): LayerNorm((256,), eps=1e-05, elementwise_affine=True)
        (dropout1): Dropout(p=0.2, inplace=False)
        (dropout2): Dropout(p=0.2, inplace=False)
      )
    )
    (6): ModuleList(
      (0): Block(
        (conv1d0): Conv1DBlock(
          (in_linear): Linear(in_features=256, out_features=512, bias=True)
          (conv1d): Conv1d(256, 512, kernel_size=(17,), stride=(1,), padding=same)
          (eca): eca(
            (avg_pool): AdaptiveAvgPool2d(output_size=1)
            (conv): Conv1d(1, 1, kernel_size=(3,), stride=(1,), padding=(1,), bias=False)
            (sigmoid): Sigmoid()
          )
          (bn): BatchNorm1d(512, eps=0.0001, momentum=0.1, affine=True, track_running_stats=True)
          (out_linear): Linear(in_features=512, out_features=256, bias=True)
          (dropout): Dropout(p=0.2, inplace=False)
          (activation): ReLU(inplace=True)
        )
        (conv1d1): Conv1DBlock(
          (in_linear): Linear(in_features=256, out_features=512, bias=True)
          (conv1d): Conv1d(256, 512, kernel_size=(17,), stride=(1,), padding=same)
          (eca): eca(
            (avg_pool): AdaptiveAvgPool2d(output_size=1)
            (conv): Conv1d(1, 1, kernel_size=(3,), stride=(1,), padding=(1,), bias=False)
            (sigmoid): Sigmoid()
          )
          (bn): BatchNorm1d(512, eps=0.0001, momentum=0.1, affine=True, track_running_stats=True)
          (out_linear): Linear(in_features=512, out_features=256, bias=True)
          (dropout): Dropout(p=0.2, inplace=False)
          (activation): ReLU(inplace=True)
        )
        (conv1d2): Conv1DBlock(
          (in_linear): Linear(in_features=256, out_features=512, bias=True)
          (conv1d): Conv1d(256, 512, kernel_size=(17,), stride=(1,), padding=same)
          (eca): eca(
            (avg_pool): AdaptiveAvgPool2d(output_size=1)
            (conv): Conv1d(1, 1, kernel_size=(3,), stride=(1,), padding=(1,), bias=False)
            (sigmoid): Sigmoid()
          )
          (bn): BatchNorm1d(512, eps=0.0001, momentum=0.1, affine=True, track_running_stats=True)
          (out_linear): Linear(in_features=512, out_features=256, bias=True)
          (dropout): Dropout(p=0.2, inplace=False)
          (activation): ReLU(inplace=True)
        )
        (bn): BatchNorm1d(256, eps=0.0001, momentum=0.1, affine=True, track_running_stats=True)
      )
    )
    (7): ModuleList(
      (0): TransformerEncoderLayer(
        (self_attn): MultiheadAttention(
          (out_proj): NonDynamicallyQuantizableLinear(in_features=256, out_features=256, bias=True)
        )
        (linear1): Linear(in_features=256, out_features=256, bias=True)
        (dropout): Dropout(p=0.2, inplace=False)
        (linear2): Linear(in_features=256, out_features=256, bias=True)
        (norm1): LayerNorm((256,), eps=1e-05, elementwise_affine=True)
        (norm2): LayerNorm((256,), eps=1e-05, elementwise_affine=True)
        (dropout1): Dropout(p=0.2, inplace=False)
        (dropout2): Dropout(p=0.2, inplace=False)
      )
    )
  )
  (inlinear): Linear(in_features=32, out_features=256, bias=False)
  (bn): BatchNorm1d(3, eps=0.0001, momentum=0.1, affine=True, track_running_stats=True)
  (top_linear): Linear(in_features=256, out_features=512, bias=True)
  (pooling): AvgPool1d(kernel_size=(512,), stride=(512,), padding=(0,))
  (outlinear): Linear(in_features=1, out_features=999, bias=True)
  (dropout): Dropout(p=0.2, inplace=False)
)
[INFO] 2023-12-21 21:58:25 > Run name : test
[INFO] 2023-12-21 21:58:25 > cfgs.DATA =
[INFO] 2023-12-21 21:58:25 > {
  "name": "LSFB",
  "input_size": [
    3,
    32
  ],
  "num_classes": 999,
  "min_samples": 20,
  "oversample": true,
  "poses": [
    [
      "right_hand",
      "all"
    ],
    [
      "left_hand",
…
[INFO] 2023-12-21 21:58:25 > cfgs.PRE =
[INFO] 2023-12-21 21:58:25 > {
  "apply_rflip": true
}
[INFO] 2023-12-21 21:58:25 > cfgs.AUG =
[INFO] 2023-12-21 21:58:25 > {}
[INFO] 2023-12-21 21:58:25 > cfgs.RUN =
[INFO] 2023-12-21 21:58:25 > {
  "mixed_precision": true
}
[INFO] 2023-12-21 21:58:25 > Build the model.
[INFO] 2023-12-21 21:58:25 > Modules are located on './src/models.conv1d'.
[INFO] 2023-12-21 21:58:26 > Number of parameters: 24155292
[INFO] 2023-12-21 21:58:26 > Classifier(
  (blocks): ModuleList(
    (0): ModuleList(
      (0): Block(
        (conv1d0): Conv1DBlock(
          (in_linear): Linear(in_features=3, out_features=6, bias=True)
          (conv1d): Conv1d(3, 6, kernel_size=(17,), stride=(1,), padding=same)
          (eca): eca(
            (avg_pool): AdaptiveAvgPool2d(output_size=1)
            (conv): Conv1d(1, 1, kernel_size=(3,), stride=(1,), padding=(1,), bias=False)
            (sigmoid): Sigmoid()
          )
          (bn): BatchNorm1d(6, eps=0.0001, momentum=0.1, affine=True, track_running_stats=True)
          (out_linear): Linear(in_features=6, out_features=3, bias=True)
          (dropout): Dropout(p=0.2, inplace=False)
          (activation): ReLU(inplace=True)
        )
        (conv1d1): Conv1DBlock(
          (in_linear): Linear(in_features=3, out_features=6, bias=True)
          (conv1d): Conv1d(3, 6, kernel_size=(17,), stride=(1,), padding=same)
          (eca): eca(
            (avg_pool): AdaptiveAvgPool2d(output_size=1)
            (conv): Conv1d(1, 1, kernel_size=(3,), stride=(1,), padding=(1,), bias=False)
            (sigmoid): Sigmoid()
          )
          (bn): BatchNorm1d(6, eps=0.0001, momentum=0.1, affine=True, track_running_stats=True)
          (out_linear): Linear(in_features=6, out_features=3, bias=True)
          (dropout): Dropout(p=0.2, inplace=False)
          (activation): ReLU(inplace=True)
        )
        (conv1d2): Conv1DBlock(
          (in_linear): Linear(in_features=3, out_features=6, bias=True)
          (conv1d): Conv1d(3, 6, kernel_size=(17,), stride=(1,), padding=same)
          (eca): eca(
            (avg_pool): AdaptiveAvgPool2d(output_size=1)
            (conv): Conv1d(1, 1, kernel_size=(3,), stride=(1,), padding=(1,), bias=False)
            (sigmoid): Sigmoid()
          )
          (bn): BatchNorm1d(6, eps=0.0001, momentum=0.1, affine=True, track_running_stats=True)
          (out_linear): Linear(in_features=6, out_features=256, bias=True)
          (dropout): Dropout(p=0.2, inplace=False)
          (activation): ReLU(inplace=True)
        )
        (bn): BatchNorm1d(3, eps=0.0001, momentum=0.1, affine=True, track_running_stats=True)
      )
    )
    (1): ModuleList(
      (0): TransformerEncoderLayer(
        (self_attn): MultiheadAttention(
          (out_proj): NonDynamicallyQuantizableLinear(in_features=256, out_features=256, bias=True)
        )
        (linear1): Linear(in_features=256, out_features=256, bias=True)
        (dropout): Dropout(p=0.2, inplace=False)
        (linear2): Linear(in_features=256, out_features=256, bias=True)
        (norm1): LayerNorm((256,), eps=1e-05, elementwise_affine=True)
        (norm2): LayerNorm((256,), eps=1e-05, elementwise_affine=True)
        (dropout1): Dropout(p=0.2, inplace=False)
        (dropout2): Dropout(p=0.2, inplace=False)
      )
    )
    (2): ModuleList(
      (0): Block(
        (conv1d0): Conv1DBlock(
          (in_linear): Linear(in_features=256, out_features=512, bias=True)
          (conv1d): Conv1d(256, 512, kernel_size=(17,), stride=(1,), padding=same)
          (eca): eca(
            (avg_pool): AdaptiveAvgPool2d(output_size=1)
            (conv): Conv1d(1, 1, kernel_size=(3,), stride=(1,), padding=(1,), bias=False)
            (sigmoid): Sigmoid()
          )
          (bn): BatchNorm1d(512, eps=0.0001, momentum=0.1, affine=True, track_running_stats=True)
          (out_linear): Linear(in_features=512, out_features=256, bias=True)
          (dropout): Dropout(p=0.2, inplace=False)
          (activation): ReLU(inplace=True)
        )
        (conv1d1): Conv1DBlock(
          (in_linear): Linear(in_features=256, out_features=512, bias=True)
          (conv1d): Conv1d(256, 512, kernel_size=(17,), stride=(1,), padding=same)
          (eca): eca(
            (avg_pool): AdaptiveAvgPool2d(output_size=1)
            (conv): Conv1d(1, 1, kernel_size=(3,), stride=(1,), padding=(1,), bias=False)
            (sigmoid): Sigmoid()
          )
          (bn): BatchNorm1d(512, eps=0.0001, momentum=0.1, affine=True, track_running_stats=True)
          (out_linear): Linear(in_features=512, out_features=256, bias=True)
          (dropout): Dropout(p=0.2, inplace=False)
          (activation): ReLU(inplace=True)
        )
        (conv1d2): Conv1DBlock(
          (in_linear): Linear(in_features=256, out_features=512, bias=True)
          (conv1d): Conv1d(256, 512, kernel_size=(17,), stride=(1,), padding=same)
          (eca): eca(
            (avg_pool): AdaptiveAvgPool2d(output_size=1)
            (conv): Conv1d(1, 1, kernel_size=(3,), stride=(1,), padding=(1,), bias=False)
            (sigmoid): Sigmoid()
          )
          (bn): BatchNorm1d(512, eps=0.0001, momentum=0.1, affine=True, track_running_stats=True)
          (out_linear): Linear(in_features=512, out_features=256, bias=True)
          (dropout): Dropout(p=0.2, inplace=False)
          (activation): ReLU(inplace=True)
        )
        (bn): BatchNorm1d(256, eps=0.0001, momentum=0.1, affine=True, track_running_stats=True)
      )
    )
    (3): ModuleList(
      (0): TransformerEncoderLayer(
        (self_attn): MultiheadAttention(
          (out_proj): NonDynamicallyQuantizableLinear(in_features=256, out_features=256, bias=True)
        )
        (linear1): Linear(in_features=256, out_features=256, bias=True)
        (dropout): Dropout(p=0.2, inplace=False)
        (linear2): Linear(in_features=256, out_features=256, bias=True)
        (norm1): LayerNorm((256,), eps=1e-05, elementwise_affine=True)
        (norm2): LayerNorm((256,), eps=1e-05, elementwise_affine=True)
        (dropout1): Dropout(p=0.2, inplace=False)
        (dropout2): Dropout(p=0.2, inplace=False)
      )
    )
    (4): ModuleList(
      (0): Block(
        (conv1d0): Conv1DBlock(
          (in_linear): Linear(in_features=256, out_features=512, bias=True)
          (conv1d): Conv1d(256, 512, kernel_size=(17,), stride=(1,), padding=same)
          (eca): eca(
            (avg_pool): AdaptiveAvgPool2d(output_size=1)
            (conv): Conv1d(1, 1, kernel_size=(3,), stride=(1,), padding=(1,), bias=False)
            (sigmoid): Sigmoid()
          )
          (bn): BatchNorm1d(512, eps=0.0001, momentum=0.1, affine=True, track_running_stats=True)
          (out_linear): Linear(in_features=512, out_features=256, bias=True)
          (dropout): Dropout(p=0.2, inplace=False)
          (activation): ReLU(inplace=True)
        )
        (conv1d1): Conv1DBlock(
          (in_linear): Linear(in_features=256, out_features=512, bias=True)
          (conv1d): Conv1d(256, 512, kernel_size=(17,), stride=(1,), padding=same)
          (eca): eca(
            (avg_pool): AdaptiveAvgPool2d(output_size=1)
            (conv): Conv1d(1, 1, kernel_size=(3,), stride=(1,), padding=(1,), bias=False)
            (sigmoid): Sigmoid()
          )
          (bn): BatchNorm1d(512, eps=0.0001, momentum=0.1, affine=True, track_running_stats=True)
          (out_linear): Linear(in_features=512, out_features=256, bias=True)
          (dropout): Dropout(p=0.2, inplace=False)
          (activation): ReLU(inplace=True)
        )
        (conv1d2): Conv1DBlock(
          (in_linear): Linear(in_features=256, out_features=512, bias=True)
          (conv1d): Conv1d(256, 512, kernel_size=(17,), stride=(1,), padding=same)
          (eca): eca(
            (avg_pool): AdaptiveAvgPool2d(output_size=1)
            (conv): Conv1d(1, 1, kernel_size=(3,), stride=(1,), padding=(1,), bias=False)
            (sigmoid): Sigmoid()
          )
          (bn): BatchNorm1d(512, eps=0.0001, momentum=0.1, affine=True, track_running_stats=True)
          (out_linear): Linear(in_features=512, out_features=256, bias=True)
          (dropout): Dropout(p=0.2, inplace=False)
          (activation): ReLU(inplace=True)
        )
        (bn): BatchNorm1d(256, eps=0.0001, momentum=0.1, affine=True, track_running_stats=True)
      )
    )
    (5): ModuleList(
      (0): TransformerEncoderLayer(
        (self_attn): MultiheadAttention(
          (out_proj): NonDynamicallyQuantizableLinear(in_features=256, out_features=256, bias=True)
        )
        (linear1): Linear(in_features=256, out_features=256, bias=True)
        (dropout): Dropout(p=0.2, inplace=False)
        (linear2): Linear(in_features=256, out_features=256, bias=True)
        (norm1): LayerNorm((256,), eps=1e-05, elementwise_affine=True)
        (norm2): LayerNorm((256,), eps=1e-05, elementwise_affine=True)
        (dropout1): Dropout(p=0.2, inplace=False)
        (dropout2): Dropout(p=0.2, inplace=False)
      )
    )
    (6): ModuleList(
      (0): Block(
        (conv1d0): Conv1DBlock(
          (in_linear): Linear(in_features=256, out_features=512, bias=True)
          (conv1d): Conv1d(256, 512, kernel_size=(17,), stride=(1,), padding=same)
          (eca): eca(
            (avg_pool): AdaptiveAvgPool2d(output_size=1)
            (conv): Conv1d(1, 1, kernel_size=(3,), stride=(1,), padding=(1,), bias=False)
            (sigmoid): Sigmoid()
          )
          (bn): BatchNorm1d(512, eps=0.0001, momentum=0.1, affine=True, track_running_stats=True)
          (out_linear): Linear(in_features=512, out_features=256, bias=True)
          (dropout): Dropout(p=0.2, inplace=False)
          (activation): ReLU(inplace=True)
        )
        (conv1d1): Conv1DBlock(
          (in_linear): Linear(in_features=256, out_features=512, bias=True)
          (conv1d): Conv1d(256, 512, kernel_size=(17,), stride=(1,), padding=same)
          (eca): eca(
            (avg_pool): AdaptiveAvgPool2d(output_size=1)
            (conv): Conv1d(1, 1, kernel_size=(3,), stride=(1,), padding=(1,), bias=False)
            (sigmoid): Sigmoid()
          )
          (bn): BatchNorm1d(512, eps=0.0001, momentum=0.1, affine=True, track_running_stats=True)
          (out_linear): Linear(in_features=512, out_features=256, bias=True)
          (dropout): Dropout(p=0.2, inplace=False)
          (activation): ReLU(inplace=True)
        )
        (conv1d2): Conv1DBlock(
          (in_linear): Linear(in_features=256, out_features=512, bias=True)
          (conv1d): Conv1d(256, 512, kernel_size=(17,), stride=(1,), padding=same)
          (eca): eca(
            (avg_pool): AdaptiveAvgPool2d(output_size=1)
            (conv): Conv1d(1, 1, kernel_size=(3,), stride=(1,), padding=(1,), bias=False)
            (sigmoid): Sigmoid()
          )
          (bn): BatchNorm1d(512, eps=0.0001, momentum=0.1, affine=True, track_running_stats=True)
          (out_linear): Linear(in_features=512, out_features=256, bias=True)
          (dropout): Dropout(p=0.2, inplace=False)
          (activation): ReLU(inplace=True)
        )
        (bn): BatchNorm1d(256, eps=0.0001, momentum=0.1, affine=True, track_running_stats=True)
      )
    )
    (7): ModuleList(
      (0): TransformerEncoderLayer(
        (self_attn): MultiheadAttention(
          (out_proj): NonDynamicallyQuantizableLinear(in_features=256, out_features=256, bias=True)
        )
        (linear1): Linear(in_features=256, out_features=256, bias=True)
        (dropout): Dropout(p=0.2, inplace=False)
        (linear2): Linear(in_features=256, out_features=256, bias=True)
        (norm1): LayerNorm((256,), eps=1e-05, elementwise_affine=True)
        (norm2): LayerNorm((256,), eps=1e-05, elementwise_affine=True)
        (dropout1): Dropout(p=0.2, inplace=False)
        (dropout2): Dropout(p=0.2, inplace=False)
      )
    )
  )
  (inlinear): Linear(in_features=32, out_features=3, bias=False)
  (bn): BatchNorm1d(3, eps=0.0001, momentum=0.1, affine=True, track_running_stats=True)
  (top_linear): Linear(in_features=256, out_features=512, bias=True)
  (pooling): AvgPool1d(kernel_size=(512,), stride=(512,), padding=(0,))
  (outlinear): Linear(in_features=1, out_features=999, bias=True)
  (dropout): Dropout(p=0.2, inplace=False)
)
[INFO] 2023-12-21 22:00:41 > Run name : test
[INFO] 2023-12-21 22:00:41 > cfgs.DATA =
[INFO] 2023-12-21 22:00:41 > {
  "name": "LSFB",
  "input_size": [
    3,
    32
  ],
  "num_classes": 999,
  "min_samples": 20,
  "oversample": true,
  "poses": [
    [
      "right_hand",
      "all"
    ],
    [
      "left_hand",
…
[INFO] 2024-02-16 15:46:37 > cfgs.PRE =
[INFO] 2024-02-16 15:46:37 > {
  "apply_rflip": true
}
[INFO] 2024-02-16 15:46:37 > cfgs.AUG =
[INFO] 2024-02-16 15:46:37 > {}
[INFO] 2024-02-16 15:46:37 > cfgs.RUN =
[INFO] 2024-02-16 15:46:37 > {
  "mixed_precision": true
}
[INFO] 2024-02-16 15:46:37 > Build the model.
[INFO] 2024-02-16 15:46:37 > Modules are located on './src/models.conv1d'.
[INFO] 2024-02-16 15:46:39 > Number of parameters: 24314176
[INFO] 2024-02-16 15:46:39 > Classifier(
  (blocks): ModuleList(
    (0): ModuleList(
      (0): Block(
        (conv1d0): Conv1DBlock(
          (in_linear): Linear(in_features=3, out_features=6, bias=True)
          (conv1d): Conv1d(3, 6, kernel_size=(17,), stride=(1,), padding=same)
          (eca): eca(
            (avg_pool): AdaptiveAvgPool2d(output_size=1)
            (conv): Conv1d(1, 1, kernel_size=(3,), stride=(1,), padding=(1,), bias=False)
            (sigmoid): Sigmoid()
          )
          (bn): BatchNorm1d(6, eps=0.0001, momentum=0.1, affine=True, track_running_stats=True)
          (out_linear): Linear(in_features=6, out_features=3, bias=True)
          (dropout): Dropout(p=0.2, inplace=False)
          (activation): ReLU(inplace=True)
        )
        (conv1d1): Conv1DBlock(
          (in_linear): Linear(in_features=3, out_features=6, bias=True)
          (conv1d): Conv1d(3, 6, kernel_size=(17,), stride=(1,), padding=same)
          (eca): eca(
            (avg_pool): AdaptiveAvgPool2d(output_size=1)
            (conv): Conv1d(1, 1, kernel_size=(3,), stride=(1,), padding=(1,), bias=False)
            (sigmoid): Sigmoid()
          )
          (bn): BatchNorm1d(6, eps=0.0001, momentum=0.1, affine=True, track_running_stats=True)
          (out_linear): Linear(in_features=6, out_features=3, bias=True)
          (dropout): Dropout(p=0.2, inplace=False)
          (activation): ReLU(inplace=True)
        )
        (conv1d2): Conv1DBlock(
          (in_linear): Linear(in_features=3, out_features=512, bias=True)
          (conv1d): Conv1d(3, 512, kernel_size=(17,), stride=(1,), padding=same)
          (eca): eca(
            (avg_pool): AdaptiveAvgPool2d(output_size=1)
            (conv): Conv1d(1, 1, kernel_size=(3,), stride=(1,), padding=(1,), bias=False)
            (sigmoid): Sigmoid()
          )
          (bn): BatchNorm1d(512, eps=0.0001, momentum=0.1, affine=True, track_running_stats=True)
          (out_linear): Linear(in_features=512, out_features=256, bias=True)
          (dropout): Dropout(p=0.2, inplace=False)
          (activation): ReLU(inplace=True)
        )
        (bn): BatchNorm1d(3, eps=0.0001, momentum=0.1, affine=True, track_running_stats=True)
      )
    )
    (1): ModuleList(
      (0): TransformerEncoderLayer(
        (self_attn): MultiheadAttention(
          (out_proj): NonDynamicallyQuantizableLinear(in_features=256, out_features=256, bias=True)
        )
        (linear1): Linear(in_features=256, out_features=256, bias=True)
        (dropout): Dropout(p=0.2, inplace=False)
        (linear2): Linear(in_features=256, out_features=256, bias=True)
        (norm1): LayerNorm((256,), eps=1e-05, elementwise_affine=True)
        (norm2): LayerNorm((256,), eps=1e-05, elementwise_affine=True)
        (dropout1): Dropout(p=0.2, inplace=False)
        (dropout2): Dropout(p=0.2, inplace=False)
      )
    )
    (2): ModuleList(
      (0): Block(
        (conv1d0): Conv1DBlock(
          (in_linear): Linear(in_features=256, out_features=512, bias=True)
          (conv1d): Conv1d(256, 512, kernel_size=(17,), stride=(1,), padding=same)
          (eca): eca(
            (avg_pool): AdaptiveAvgPool2d(output_size=1)
            (conv): Conv1d(1, 1, kernel_size=(3,), stride=(1,), padding=(1,), bias=False)
            (sigmoid): Sigmoid()
          )
          (bn): BatchNorm1d(512, eps=0.0001, momentum=0.1, affine=True, track_running_stats=True)
          (out_linear): Linear(in_features=512, out_features=256, bias=True)
          (dropout): Dropout(p=0.2, inplace=False)
          (activation): ReLU(inplace=True)
        )
        (conv1d1): Conv1DBlock(
          (in_linear): Linear(in_features=256, out_features=512, bias=True)
          (conv1d): Conv1d(256, 512, kernel_size=(17,), stride=(1,), padding=same)
          (eca): eca(
            (avg_pool): AdaptiveAvgPool2d(output_size=1)
            (conv): Conv1d(1, 1, kernel_size=(3,), stride=(1,), padding=(1,), bias=False)
            (sigmoid): Sigmoid()
          )
          (bn): BatchNorm1d(512, eps=0.0001, momentum=0.1, affine=True, track_running_stats=True)
          (out_linear): Linear(in_features=512, out_features=256, bias=True)
          (dropout): Dropout(p=0.2, inplace=False)
          (activation): ReLU(inplace=True)
        )
        (conv1d2): Conv1DBlock(
          (in_linear): Linear(in_features=256, out_features=512, bias=True)
          (conv1d): Conv1d(256, 512, kernel_size=(17,), stride=(1,), padding=same)
          (eca): eca(
            (avg_pool): AdaptiveAvgPool2d(output_size=1)
            (conv): Conv1d(1, 1, kernel_size=(3,), stride=(1,), padding=(1,), bias=False)
            (sigmoid): Sigmoid()
          )
          (bn): BatchNorm1d(512, eps=0.0001, momentum=0.1, affine=True, track_running_stats=True)
          (out_linear): Linear(in_features=512, out_features=256, bias=True)
          (dropout): Dropout(p=0.2, inplace=False)
          (activation): ReLU(inplace=True)
        )
        (bn): BatchNorm1d(256, eps=0.0001, momentum=0.1, affine=True, track_running_stats=True)
      )
    )
    (3): ModuleList(
      (0): TransformerEncoderLayer(
        (self_attn): MultiheadAttention(
          (out_proj): NonDynamicallyQuantizableLinear(in_features=256, out_features=256, bias=True)
        )
        (linear1): Linear(in_features=256, out_features=256, bias=True)
        (dropout): Dropout(p=0.2, inplace=False)
        (linear2): Linear(in_features=256, out_features=256, bias=True)
        (norm1): LayerNorm((256,), eps=1e-05, elementwise_affine=True)
        (norm2): LayerNorm((256,), eps=1e-05, elementwise_affine=True)
        (dropout1): Dropout(p=0.2, inplace=False)
        (dropout2): Dropout(p=0.2, inplace=False)
      )
    )
    (4): ModuleList(
      (0): Block(
        (conv1d0): Conv1DBlock(
          (in_linear): Linear(in_features=256, out_features=512, bias=True)
          (conv1d): Conv1d(256, 512, kernel_size=(17,), stride=(1,), padding=same)
          (eca): eca(
            (avg_pool): AdaptiveAvgPool2d(output_size=1)
            (conv): Conv1d(1, 1, kernel_size=(3,), stride=(1,), padding=(1,), bias=False)
            (sigmoid): Sigmoid()
          )
          (bn): BatchNorm1d(512, eps=0.0001, momentum=0.1, affine=True, track_running_stats=True)
          (out_linear): Linear(in_features=512, out_features=256, bias=True)
          (dropout): Dropout(p=0.2, inplace=False)
          (activation): ReLU(inplace=True)
        )
        (conv1d1): Conv1DBlock(
          (in_linear): Linear(in_features=256, out_features=512, bias=True)
          (conv1d): Conv1d(256, 512, kernel_size=(17,), stride=(1,), padding=same)
          (eca): eca(
            (avg_pool): AdaptiveAvgPool2d(output_size=1)
            (conv): Conv1d(1, 1, kernel_size=(3,), stride=(1,), padding=(1,), bias=False)
            (sigmoid): Sigmoid()
          )
          (bn): BatchNorm1d(512, eps=0.0001, momentum=0.1, affine=True, track_running_stats=True)
          (out_linear): Linear(in_features=512, out_features=256, bias=True)
          (dropout): Dropout(p=0.2, inplace=False)
          (activation): ReLU(inplace=True)
        )
        (conv1d2): Conv1DBlock(
          (in_linear): Linear(in_features=256, out_features=512, bias=True)
          (conv1d): Conv1d(256, 512, kernel_size=(17,), stride=(1,), padding=same)
          (eca): eca(
            (avg_pool): AdaptiveAvgPool2d(output_size=1)
            (conv): Conv1d(1, 1, kernel_size=(3,), stride=(1,), padding=(1,), bias=False)
            (sigmoid): Sigmoid()
          )
          (bn): BatchNorm1d(512, eps=0.0001, momentum=0.1, affine=True, track_running_stats=True)
          (out_linear): Linear(in_features=512, out_features=256, bias=True)
          (dropout): Dropout(p=0.2, inplace=False)
          (activation): ReLU(inplace=True)
        )
        (bn): BatchNorm1d(256, eps=0.0001, momentum=0.1, affine=True, track_running_stats=True)
      )
    )
    (5): ModuleList(
      (0): TransformerEncoderLayer(
        (self_attn): MultiheadAttention(
          (out_proj): NonDynamicallyQuantizableLinear(in_features=256, out_features=256, bias=True)
        )
        (linear1): Linear(in_features=256, out_features=256, bias=True)
        (dropout): Dropout(p=0.2, inplace=False)
        (linear2): Linear(in_features=256, out_features=256, bias=True)
        (norm1): LayerNorm((256,), eps=1e-05, elementwise_affine=True)
        (norm2): LayerNorm((256,), eps=1e-05, elementwise_affine=True)
        (dropout1): Dropout(p=0.2, inplace=False)
        (dropout2): Dropout(p=0.2, inplace=False)
      )
    )
    (6): ModuleList(
      (0): Block(
        (conv1d0): Conv1DBlock(
          (in_linear): Linear(in_features=256, out_features=512, bias=True)
          (conv1d): Conv1d(256, 512, kernel_size=(17,), stride=(1,), padding=same)
          (eca): eca(
            (avg_pool): AdaptiveAvgPool2d(output_size=1)
            (conv): Conv1d(1, 1, kernel_size=(3,), stride=(1,), padding=(1,), bias=False)
            (sigmoid): Sigmoid()
          )
          (bn): BatchNorm1d(512, eps=0.0001, momentum=0.1, affine=True, track_running_stats=True)
          (out_linear): Linear(in_features=512, out_features=256, bias=True)
          (dropout): Dropout(p=0.2, inplace=False)
          (activation): ReLU(inplace=True)
        )
        (conv1d1): Conv1DBlock(
          (in_linear): Linear(in_features=256, out_features=512, bias=True)
          (conv1d): Conv1d(256, 512, kernel_size=(17,), stride=(1,), padding=same)
          (eca): eca(
            (avg_pool): AdaptiveAvgPool2d(output_size=1)
            (conv): Conv1d(1, 1, kernel_size=(3,), stride=(1,), padding=(1,), bias=False)
            (sigmoid): Sigmoid()
          )
          (bn): BatchNorm1d(512, eps=0.0001, momentum=0.1, affine=True, track_running_stats=True)
          (out_linear): Linear(in_features=512, out_features=256, bias=True)
          (dropout): Dropout(p=0.2, inplace=False)
          (activation): ReLU(inplace=True)
        )
        (conv1d2): Conv1DBlock(
          (in_linear): Linear(in_features=256, out_features=512, bias=True)
          (conv1d): Conv1d(256, 512, kernel_size=(17,), stride=(1,), padding=same)
          (eca): eca(
            (avg_pool): AdaptiveAvgPool2d(output_size=1)
            (conv): Conv1d(1, 1, kernel_size=(3,), stride=(1,), padding=(1,), bias=False)
            (sigmoid): Sigmoid()
          )
          (bn): BatchNorm1d(512, eps=0.0001, momentum=0.1, affine=True, track_running_stats=True)
          (out_linear): Linear(in_features=512, out_features=256, bias=True)
          (dropout): Dropout(p=0.2, inplace=False)
          (activation): ReLU(inplace=True)
        )
        (bn): BatchNorm1d(256, eps=0.0001, momentum=0.1, affine=True, track_running_stats=True)
      )
    )
    (7): ModuleList(
      (0): TransformerEncoderLayer(
        (self_attn): MultiheadAttention(
          (out_proj): NonDynamicallyQuantizableLinear(in_features=256, out_features=256, bias=True)
        )
        (linear1): Linear(in_features=256, out_features=256, bias=True)
        (dropout): Dropout(p=0.2, inplace=False)
        (linear2): Linear(in_features=256, out_features=256, bias=True)
        (norm1): LayerNorm((256,), eps=1e-05, elementwise_affine=True)
        (norm2): LayerNorm((256,), eps=1e-05, elementwise_affine=True)
        (dropout1): Dropout(p=0.2, inplace=False)
        (dropout2): Dropout(p=0.2, inplace=False)
      )
    )
  )
  (inlinear): Linear(in_features=32, out_features=3, bias=False)
  (bn): BatchNorm1d(3, eps=0.0001, momentum=0.1, affine=True, track_running_stats=True)
  (top_linear): Linear(in_features=256, out_features=512, bias=True)
  (pooling): AvgPool1d(kernel_size=(512,), stride=(512,), padding=(0,))
  (outlinear): Linear(in_features=1, out_features=999, bias=True)
  (dropout): Dropout(p=0.2, inplace=False)
)
[INFO] 2024-02-16 15:48:40 > Run name : test
[INFO] 2024-02-16 15:48:40 > cfgs.DATA =
[INFO] 2024-02-16 15:48:40 > {
  "name": "LSFB",
  "input_size": [
    3,
    32
  ],
  "num_classes": 999,
  "min_samples": 20,
  "oversample": true,
  "poses": [
    [
      "right_hand",
      "all"
    ],
    [
      "left_hand",
…
[INFO] 2024-02-16 15:49:42 > cfgs.PRE =
[INFO] 2024-02-16 15:49:42 > {
  "apply_rflip": true
}
[INFO] 2024-02-16 15:49:42 > cfgs.AUG =
[INFO] 2024-02-16 15:49:42 > {}
[INFO] 2024-02-16 15:49:42 > cfgs.RUN =
[INFO] 2024-02-16 15:49:42 > {
  "mixed_precision": true
}
[INFO] 2024-02-16 15:49:42 > Build the model.
[INFO] 2024-02-16 15:49:42 > Modules are located on './src/models.conv1d'.
[INFO] 2024-02-16 15:49:43 > Number of parameters: 25875832
[INFO] 2024-02-16 15:49:43 > Classifier(
  (blocks): ModuleList(
    (0): ModuleList(
      (0): Block(
        (conv1d0): Conv1DBlock(
          (in_linear): Linear(in_features=96, out_features=192, bias=True)
          (conv1d): Conv1d(96, 192, kernel_size=(17,), stride=(1,), padding=same)
          (eca): eca(
            (avg_pool): AdaptiveAvgPool2d(output_size=1)
            (conv): Conv1d(1, 1, kernel_size=(3,), stride=(1,), padding=(1,), bias=False)
            (sigmoid): Sigmoid()
          )
          (bn): BatchNorm1d(192, eps=0.0001, momentum=0.1, affine=True, track_running_stats=True)
          (out_linear): Linear(in_features=192, out_features=96, bias=True)
          (dropout): Dropout(p=0.2, inplace=False)
          (activation): ReLU(inplace=True)
        )
        (conv1d1): Conv1DBlock(
          (in_linear): Linear(in_features=96, out_features=192, bias=True)
          (conv1d): Conv1d(96, 192, kernel_size=(17,), stride=(1,), padding=same)
          (eca): eca(
            (avg_pool): AdaptiveAvgPool2d(output_size=1)
            (conv): Conv1d(1, 1, kernel_size=(3,), stride=(1,), padding=(1,), bias=False)
            (sigmoid): Sigmoid()
          )
          (bn): BatchNorm1d(192, eps=0.0001, momentum=0.1, affine=True, track_running_stats=True)
          (out_linear): Linear(in_features=192, out_features=96, bias=True)
          (dropout): Dropout(p=0.2, inplace=False)
          (activation): ReLU(inplace=True)
        )
        (conv1d2): Conv1DBlock(
          (in_linear): Linear(in_features=96, out_features=512, bias=True)
          (conv1d): Conv1d(96, 512, kernel_size=(17,), stride=(1,), padding=same)
          (eca): eca(
            (avg_pool): AdaptiveAvgPool2d(output_size=1)
            (conv): Conv1d(1, 1, kernel_size=(3,), stride=(1,), padding=(1,), bias=False)
            (sigmoid): Sigmoid()
          )
          (bn): BatchNorm1d(512, eps=0.0001, momentum=0.1, affine=True, track_running_stats=True)
          (out_linear): Linear(in_features=512, out_features=256, bias=True)
          (dropout): Dropout(p=0.2, inplace=False)
          (activation): ReLU(inplace=True)
        )
        (bn): BatchNorm1d(96, eps=0.0001, momentum=0.1, affine=True, track_running_stats=True)
      )
    )
    (1): ModuleList(
      (0): TransformerEncoderLayer(
        (self_attn): MultiheadAttention(
          (out_proj): NonDynamicallyQuantizableLinear(in_features=256, out_features=256, bias=True)
        )
        (linear1): Linear(in_features=256, out_features=256, bias=True)
        (dropout): Dropout(p=0.2, inplace=False)
        (linear2): Linear(in_features=256, out_features=256, bias=True)
        (norm1): LayerNorm((256,), eps=1e-05, elementwise_affine=True)
        (norm2): LayerNorm((256,), eps=1e-05, elementwise_affine=True)
        (dropout1): Dropout(p=0.2, inplace=False)
        (dropout2): Dropout(p=0.2, inplace=False)
      )
    )
    (2): ModuleList(
      (0): Block(
        (conv1d0): Conv1DBlock(
          (in_linear): Linear(in_features=256, out_features=512, bias=True)
          (conv1d): Conv1d(256, 512, kernel_size=(17,), stride=(1,), padding=same)
          (eca): eca(
            (avg_pool): AdaptiveAvgPool2d(output_size=1)
            (conv): Conv1d(1, 1, kernel_size=(3,), stride=(1,), padding=(1,), bias=False)
            (sigmoid): Sigmoid()
          )
          (bn): BatchNorm1d(512, eps=0.0001, momentum=0.1, affine=True, track_running_stats=True)
          (out_linear): Linear(in_features=512, out_features=256, bias=True)
          (dropout): Dropout(p=0.2, inplace=False)
          (activation): ReLU(inplace=True)
        )
        (conv1d1): Conv1DBlock(
          (in_linear): Linear(in_features=256, out_features=512, bias=True)
          (conv1d): Conv1d(256, 512, kernel_size=(17,), stride=(1,), padding=same)
          (eca): eca(
            (avg_pool): AdaptiveAvgPool2d(output_size=1)
            (conv): Conv1d(1, 1, kernel_size=(3,), stride=(1,), padding=(1,), bias=False)
            (sigmoid): Sigmoid()
          )
          (bn): BatchNorm1d(512, eps=0.0001, momentum=0.1, affine=True, track_running_stats=True)
          (out_linear): Linear(in_features=512, out_features=256, bias=True)
          (dropout): Dropout(p=0.2, inplace=False)
          (activation): ReLU(inplace=True)
        )
        (conv1d2): Conv1DBlock(
          (in_linear): Linear(in_features=256, out_features=512, bias=True)
          (conv1d): Conv1d(256, 512, kernel_size=(17,), stride=(1,), padding=same)
          (eca): eca(
            (avg_pool): AdaptiveAvgPool2d(output_size=1)
            (conv): Conv1d(1, 1, kernel_size=(3,), stride=(1,), padding=(1,), bias=False)
            (sigmoid): Sigmoid()
          )
          (bn): BatchNorm1d(512, eps=0.0001, momentum=0.1, affine=True, track_running_stats=True)
          (out_linear): Linear(in_features=512, out_features=256, bias=True)
          (dropout): Dropout(p=0.2, inplace=False)
          (activation): ReLU(inplace=True)
        )
        (bn): BatchNorm1d(256, eps=0.0001, momentum=0.1, affine=True, track_running_stats=True)
      )
    )
    (3): ModuleList(
      (0): TransformerEncoderLayer(
        (self_attn): MultiheadAttention(
          (out_proj): NonDynamicallyQuantizableLinear(in_features=256, out_features=256, bias=True)
        )
        (linear1): Linear(in_features=256, out_features=256, bias=True)
        (dropout): Dropout(p=0.2, inplace=False)
        (linear2): Linear(in_features=256, out_features=256, bias=True)
        (norm1): LayerNorm((256,), eps=1e-05, elementwise_affine=True)
        (norm2): LayerNorm((256,), eps=1e-05, elementwise_affine=True)
        (dropout1): Dropout(p=0.2, inplace=False)
        (dropout2): Dropout(p=0.2, inplace=False)
      )
    )
    (4): ModuleList(
      (0): Block(
        (conv1d0): Conv1DBlock(
          (in_linear): Linear(in_features=256, out_features=512, bias=True)
          (conv1d): Conv1d(256, 512, kernel_size=(17,), stride=(1,), padding=same)
          (eca): eca(
            (avg_pool): AdaptiveAvgPool2d(output_size=1)
            (conv): Conv1d(1, 1, kernel_size=(3,), stride=(1,), padding=(1,), bias=False)
            (sigmoid): Sigmoid()
          )
          (bn): BatchNorm1d(512, eps=0.0001, momentum=0.1, affine=True, track_running_stats=True)
          (out_linear): Linear(in_features=512, out_features=256, bias=True)
          (dropout): Dropout(p=0.2, inplace=False)
          (activation): ReLU(inplace=True)
        )
        (conv1d1): Conv1DBlock(
          (in_linear): Linear(in_features=256, out_features=512, bias=True)
          (conv1d): Conv1d(256, 512, kernel_size=(17,), stride=(1,), padding=same)
          (eca): eca(
            (avg_pool): AdaptiveAvgPool2d(output_size=1)
            (conv): Conv1d(1, 1, kernel_size=(3,), stride=(1,), padding=(1,), bias=False)
            (sigmoid): Sigmoid()
          )
          (bn): BatchNorm1d(512, eps=0.0001, momentum=0.1, affine=True, track_running_stats=True)
          (out_linear): Linear(in_features=512, out_features=256, bias=True)
          (dropout): Dropout(p=0.2, inplace=False)
          (activation): ReLU(inplace=True)
        )
        (conv1d2): Conv1DBlock(
          (in_linear): Linear(in_features=256, out_features=512, bias=True)
          (conv1d): Conv1d(256, 512, kernel_size=(17,), stride=(1,), padding=same)
          (eca): eca(
            (avg_pool): AdaptiveAvgPool2d(output_size=1)
            (conv): Conv1d(1, 1, kernel_size=(3,), stride=(1,), padding=(1,), bias=False)
            (sigmoid): Sigmoid()
          )
          (bn): BatchNorm1d(512, eps=0.0001, momentum=0.1, affine=True, track_running_stats=True)
          (out_linear): Linear(in_features=512, out_features=256, bias=True)
          (dropout): Dropout(p=0.2, inplace=False)
          (activation): ReLU(inplace=True)
        )
        (bn): BatchNorm1d(256, eps=0.0001, momentum=0.1, affine=True, track_running_stats=True)
      )
    )
    (5): ModuleList(
      (0): TransformerEncoderLayer(
        (self_attn): MultiheadAttention(
          (out_proj): NonDynamicallyQuantizableLinear(in_features=256, out_features=256, bias=True)
        )
        (linear1): Linear(in_features=256, out_features=256, bias=True)
        (dropout): Dropout(p=0.2, inplace=False)
        (linear2): Linear(in_features=256, out_features=256, bias=True)
        (norm1): LayerNorm((256,), eps=1e-05, elementwise_affine=True)
        (norm2): LayerNorm((256,), eps=1e-05, elementwise_affine=True)
        (dropout1): Dropout(p=0.2, inplace=False)
        (dropout2): Dropout(p=0.2, inplace=False)
      )
    )
    (6): ModuleList(
      (0): Block(
        (conv1d0): Conv1DBlock(
          (in_linear): Linear(in_features=256, out_features=512, bias=True)
          (conv1d): Conv1d(256, 512, kernel_size=(17,), stride=(1,), padding=same)
          (eca): eca(
            (avg_pool): AdaptiveAvgPool2d(output_size=1)
            (conv): Conv1d(1, 1, kernel_size=(3,), stride=(1,), padding=(1,), bias=False)
            (sigmoid): Sigmoid()
          )
          (bn): BatchNorm1d(512, eps=0.0001, momentum=0.1, affine=True, track_running_stats=True)
          (out_linear): Linear(in_features=512, out_features=256, bias=True)
          (dropout): Dropout(p=0.2, inplace=False)
          (activation): ReLU(inplace=True)
        )
        (conv1d1): Conv1DBlock(
          (in_linear): Linear(in_features=256, out_features=512, bias=True)
          (conv1d): Conv1d(256, 512, kernel_size=(17,), stride=(1,), padding=same)
          (eca): eca(
            (avg_pool): AdaptiveAvgPool2d(output_size=1)
            (conv): Conv1d(1, 1, kernel_size=(3,), stride=(1,), padding=(1,), bias=False)
            (sigmoid): Sigmoid()
          )
          (bn): BatchNorm1d(512, eps=0.0001, momentum=0.1, affine=True, track_running_stats=True)
          (out_linear): Linear(in_features=512, out_features=256, bias=True)
          (dropout): Dropout(p=0.2, inplace=False)
          (activation): ReLU(inplace=True)
        )
        (conv1d2): Conv1DBlock(
          (in_linear): Linear(in_features=256, out_features=512, bias=True)
          (conv1d): Conv1d(256, 512, kernel_size=(17,), stride=(1,), padding=same)
          (eca): eca(
            (avg_pool): AdaptiveAvgPool2d(output_size=1)
            (conv): Conv1d(1, 1, kernel_size=(3,), stride=(1,), padding=(1,), bias=False)
            (sigmoid): Sigmoid()
          )
          (bn): BatchNorm1d(512, eps=0.0001, momentum=0.1, affine=True, track_running_stats=True)
          (out_linear): Linear(in_features=512, out_features=256, bias=True)
          (dropout): Dropout(p=0.2, inplace=False)
          (activation): ReLU(inplace=True)
        )
        (bn): BatchNorm1d(256, eps=0.0001, momentum=0.1, affine=True, track_running_stats=True)
      )
    )
    (7): ModuleList(
      (0): TransformerEncoderLayer(
        (self_attn): MultiheadAttention(
          (out_proj): NonDynamicallyQuantizableLinear(in_features=256, out_features=256, bias=True)
        )
        (linear1): Linear(in_features=256, out_features=256, bias=True)
        (dropout): Dropout(p=0.2, inplace=False)
        (linear2): Linear(in_features=256, out_features=256, bias=True)
        (norm1): LayerNorm((256,), eps=1e-05, elementwise_affine=True)
        (norm2): LayerNorm((256,), eps=1e-05, elementwise_affine=True)
        (dropout1): Dropout(p=0.2, inplace=False)
        (dropout2): Dropout(p=0.2, inplace=False)
      )
    )
  )
  (inlinear): Linear(in_features=32, out_features=96, bias=False)
  (bn): BatchNorm1d(3, eps=0.0001, momentum=0.1, affine=True, track_running_stats=True)
  (top_linear): Linear(in_features=256, out_features=512, bias=True)
  (pooling): AvgPool1d(kernel_size=(512,), stride=(512,), padding=(0,))
  (outlinear): Linear(in_features=1, out_features=999, bias=True)
  (dropout): Dropout(p=0.2, inplace=False)
)
[INFO] 2024-02-16 15:54:20 > Run name : test
[INFO] 2024-02-16 15:54:20 > cfgs.DATA =
[INFO] 2024-02-16 15:54:20 > {
  "name": "LSFB",
  "input_size": [
    3,
    32
  ],
  "num_classes": 999,
  "min_samples": 20,
  "oversample": true,
  "poses": [
    [
      "right_hand",
      "all"
    ],
    [
      "left_hand",
…
[INFO] 2024-02-16 15:54:20 > cfgs.PRE =
[INFO] 2024-02-16 15:54:20 > {
  "apply_rflip": true
}
[INFO] 2024-02-16 15:54:20 > cfgs.AUG =
[INFO] 2024-02-16 15:54:20 > {}
[INFO] 2024-02-16 15:54:20 > cfgs.RUN =
[INFO] 2024-02-16 15:54:20 > {
  "mixed_precision": true
}
[INFO] 2024-02-16 15:54:20 > Build the model.
[INFO] 2024-02-16 15:54:20 > Modules are located on './src/models.conv1d'.
[INFO] 2024-02-16 15:54:21 > Number of parameters: 25882162
[INFO] 2024-02-16 15:54:21 > Classifier(
  (blocks): ModuleList(
    (0): ModuleList(
      (0): Block(
        (conv1d0): Conv1DBlock(
          (in_linear): Linear(in_features=96, out_features=192, bias=True)
          (conv1d): Conv1d(96, 192, kernel_size=(17,), stride=(1,), padding=same)
          (eca): eca(
            (avg_pool): AdaptiveAvgPool2d(output_size=1)
            (conv): Conv1d(1, 1, kernel_size=(3,), stride=(1,), padding=(1,), bias=False)
            (sigmoid): Sigmoid()
          )
          (bn): BatchNorm1d(192, eps=0.0001, momentum=0.1, affine=True, track_running_stats=True)
          (out_linear): Linear(in_features=192, out_features=96, bias=True)
          (dropout): Dropout(p=0.2, inplace=False)
          (activation): ReLU(inplace=True)
        )
        (conv1d1): Conv1DBlock(
          (in_linear): Linear(in_features=96, out_features=192, bias=True)
          (conv1d): Conv1d(96, 192, kernel_size=(17,), stride=(1,), padding=same)
          (eca): eca(
            (avg_pool): AdaptiveAvgPool2d(output_size=1)
            (conv): Conv1d(1, 1, kernel_size=(3,), stride=(1,), padding=(1,), bias=False)
            (sigmoid): Sigmoid()
          )
          (bn): BatchNorm1d(192, eps=0.0001, momentum=0.1, affine=True, track_running_stats=True)
          (out_linear): Linear(in_features=192, out_features=96, bias=True)
          (dropout): Dropout(p=0.2, inplace=False)
          (activation): ReLU(inplace=True)
        )
        (conv1d2): Conv1DBlock(
          (in_linear): Linear(in_features=96, out_features=512, bias=True)
          (conv1d): Conv1d(96, 512, kernel_size=(17,), stride=(1,), padding=same)
          (eca): eca(
            (avg_pool): AdaptiveAvgPool2d(output_size=1)
            (conv): Conv1d(1, 1, kernel_size=(3,), stride=(1,), padding=(1,), bias=False)
            (sigmoid): Sigmoid()
          )
          (bn): BatchNorm1d(512, eps=0.0001, momentum=0.1, affine=True, track_running_stats=True)
          (out_linear): Linear(in_features=512, out_features=256, bias=True)
          (dropout): Dropout(p=0.2, inplace=False)
          (activation): ReLU(inplace=True)
        )
        (bn): BatchNorm1d(96, eps=0.0001, momentum=0.1, affine=True, track_running_stats=True)
      )
    )
    (1): ModuleList(
      (0): TransformerEncoderLayer(
        (self_attn): MultiheadAttention(
          (out_proj): NonDynamicallyQuantizableLinear(in_features=256, out_features=256, bias=True)
        )
        (linear1): Linear(in_features=256, out_features=256, bias=True)
        (dropout): Dropout(p=0.2, inplace=False)
        (linear2): Linear(in_features=256, out_features=256, bias=True)
        (norm1): LayerNorm((256,), eps=1e-05, elementwise_affine=True)
        (norm2): LayerNorm((256,), eps=1e-05, elementwise_affine=True)
        (dropout1): Dropout(p=0.2, inplace=False)
        (dropout2): Dropout(p=0.2, inplace=False)
      )
    )
    (2): ModuleList(
      (0): Block(
        (conv1d0): Conv1DBlock(
          (in_linear): Linear(in_features=256, out_features=512, bias=True)
          (conv1d): Conv1d(256, 512, kernel_size=(17,), stride=(1,), padding=same)
          (eca): eca(
            (avg_pool): AdaptiveAvgPool2d(output_size=1)
            (conv): Conv1d(1, 1, kernel_size=(3,), stride=(1,), padding=(1,), bias=False)
            (sigmoid): Sigmoid()
          )
          (bn): BatchNorm1d(512, eps=0.0001, momentum=0.1, affine=True, track_running_stats=True)
          (out_linear): Linear(in_features=512, out_features=256, bias=True)
          (dropout): Dropout(p=0.2, inplace=False)
          (activation): ReLU(inplace=True)
        )
        (conv1d1): Conv1DBlock(
          (in_linear): Linear(in_features=256, out_features=512, bias=True)
          (conv1d): Conv1d(256, 512, kernel_size=(17,), stride=(1,), padding=same)
          (eca): eca(
            (avg_pool): AdaptiveAvgPool2d(output_size=1)
            (conv): Conv1d(1, 1, kernel_size=(3,), stride=(1,), padding=(1,), bias=False)
            (sigmoid): Sigmoid()
          )
          (bn): BatchNorm1d(512, eps=0.0001, momentum=0.1, affine=True, track_running_stats=True)
          (out_linear): Linear(in_features=512, out_features=256, bias=True)
          (dropout): Dropout(p=0.2, inplace=False)
          (activation): ReLU(inplace=True)
        )
        (conv1d2): Conv1DBlock(
          (in_linear): Linear(in_features=256, out_features=512, bias=True)
          (conv1d): Conv1d(256, 512, kernel_size=(17,), stride=(1,), padding=same)
          (eca): eca(
            (avg_pool): AdaptiveAvgPool2d(output_size=1)
            (conv): Conv1d(1, 1, kernel_size=(3,), stride=(1,), padding=(1,), bias=False)
            (sigmoid): Sigmoid()
          )
          (bn): BatchNorm1d(512, eps=0.0001, momentum=0.1, affine=True, track_running_stats=True)
          (out_linear): Linear(in_features=512, out_features=256, bias=True)
          (dropout): Dropout(p=0.2, inplace=False)
          (activation): ReLU(inplace=True)
        )
        (bn): BatchNorm1d(256, eps=0.0001, momentum=0.1, affine=True, track_running_stats=True)
      )
    )
    (3): ModuleList(
      (0): TransformerEncoderLayer(
        (self_attn): MultiheadAttention(
          (out_proj): NonDynamicallyQuantizableLinear(in_features=256, out_features=256, bias=True)
        )
        (linear1): Linear(in_features=256, out_features=256, bias=True)
        (dropout): Dropout(p=0.2, inplace=False)
        (linear2): Linear(in_features=256, out_features=256, bias=True)
        (norm1): LayerNorm((256,), eps=1e-05, elementwise_affine=True)
        (norm2): LayerNorm((256,), eps=1e-05, elementwise_affine=True)
        (dropout1): Dropout(p=0.2, inplace=False)
        (dropout2): Dropout(p=0.2, inplace=False)
      )
    )
    (4): ModuleList(
      (0): Block(
        (conv1d0): Conv1DBlock(
          (in_linear): Linear(in_features=256, out_features=512, bias=True)
          (conv1d): Conv1d(256, 512, kernel_size=(17,), stride=(1,), padding=same)
          (eca): eca(
            (avg_pool): AdaptiveAvgPool2d(output_size=1)
            (conv): Conv1d(1, 1, kernel_size=(3,), stride=(1,), padding=(1,), bias=False)
            (sigmoid): Sigmoid()
          )
          (bn): BatchNorm1d(512, eps=0.0001, momentum=0.1, affine=True, track_running_stats=True)
          (out_linear): Linear(in_features=512, out_features=256, bias=True)
          (dropout): Dropout(p=0.2, inplace=False)
          (activation): ReLU(inplace=True)
        )
        (conv1d1): Conv1DBlock(
          (in_linear): Linear(in_features=256, out_features=512, bias=True)
          (conv1d): Conv1d(256, 512, kernel_size=(17,), stride=(1,), padding=same)
          (eca): eca(
            (avg_pool): AdaptiveAvgPool2d(output_size=1)
            (conv): Conv1d(1, 1, kernel_size=(3,), stride=(1,), padding=(1,), bias=False)
            (sigmoid): Sigmoid()
          )
          (bn): BatchNorm1d(512, eps=0.0001, momentum=0.1, affine=True, track_running_stats=True)
          (out_linear): Linear(in_features=512, out_features=256, bias=True)
          (dropout): Dropout(p=0.2, inplace=False)
          (activation): ReLU(inplace=True)
        )
        (conv1d2): Conv1DBlock(
          (in_linear): Linear(in_features=256, out_features=512, bias=True)
          (conv1d): Conv1d(256, 512, kernel_size=(17,), stride=(1,), padding=same)
          (eca): eca(
            (avg_pool): AdaptiveAvgPool2d(output_size=1)
            (conv): Conv1d(1, 1, kernel_size=(3,), stride=(1,), padding=(1,), bias=False)
            (sigmoid): Sigmoid()
          )
          (bn): BatchNorm1d(512, eps=0.0001, momentum=0.1, affine=True, track_running_stats=True)
          (out_linear): Linear(in_features=512, out_features=256, bias=True)
          (dropout): Dropout(p=0.2, inplace=False)
          (activation): ReLU(inplace=True)
        )
        (bn): BatchNorm1d(256, eps=0.0001, momentum=0.1, affine=True, track_running_stats=True)
      )
    )
    (5): ModuleList(
      (0): TransformerEncoderLayer(
        (self_attn): MultiheadAttention(
          (out_proj): NonDynamicallyQuantizableLinear(in_features=256, out_features=256, bias=True)
        )
        (linear1): Linear(in_features=256, out_features=256, bias=True)
        (dropout): Dropout(p=0.2, inplace=False)
        (linear2): Linear(in_features=256, out_features=256, bias=True)
        (norm1): LayerNorm((256,), eps=1e-05, elementwise_affine=True)
        (norm2): LayerNorm((256,), eps=1e-05, elementwise_affine=True)
        (dropout1): Dropout(p=0.2, inplace=False)
        (dropout2): Dropout(p=0.2, inplace=False)
      )
    )
    (6): ModuleList(
      (0): Block(
        (conv1d0): Conv1DBlock(
          (in_linear): Linear(in_features=256, out_features=512, bias=True)
          (conv1d): Conv1d(256, 512, kernel_size=(17,), stride=(1,), padding=same)
          (eca): eca(
            (avg_pool): AdaptiveAvgPool2d(output_size=1)
            (conv): Conv1d(1, 1, kernel_size=(3,), stride=(1,), padding=(1,), bias=False)
            (sigmoid): Sigmoid()
          )
          (bn): BatchNorm1d(512, eps=0.0001, momentum=0.1, affine=True, track_running_stats=True)
          (out_linear): Linear(in_features=512, out_features=256, bias=True)
          (dropout): Dropout(p=0.2, inplace=False)
          (activation): ReLU(inplace=True)
        )
        (conv1d1): Conv1DBlock(
          (in_linear): Linear(in_features=256, out_features=512, bias=True)
          (conv1d): Conv1d(256, 512, kernel_size=(17,), stride=(1,), padding=same)
          (eca): eca(
            (avg_pool): AdaptiveAvgPool2d(output_size=1)
            (conv): Conv1d(1, 1, kernel_size=(3,), stride=(1,), padding=(1,), bias=False)
            (sigmoid): Sigmoid()
          )
          (bn): BatchNorm1d(512, eps=0.0001, momentum=0.1, affine=True, track_running_stats=True)
          (out_linear): Linear(in_features=512, out_features=256, bias=True)
          (dropout): Dropout(p=0.2, inplace=False)
          (activation): ReLU(inplace=True)
        )
        (conv1d2): Conv1DBlock(
          (in_linear): Linear(in_features=256, out_features=512, bias=True)
          (conv1d): Conv1d(256, 512, kernel_size=(17,), stride=(1,), padding=same)
          (eca): eca(
            (avg_pool): AdaptiveAvgPool2d(output_size=1)
            (conv): Conv1d(1, 1, kernel_size=(3,), stride=(1,), padding=(1,), bias=False)
            (sigmoid): Sigmoid()
          )
          (bn): BatchNorm1d(512, eps=0.0001, momentum=0.1, affine=True, track_running_stats=True)
          (out_linear): Linear(in_features=512, out_features=256, bias=True)
          (dropout): Dropout(p=0.2, inplace=False)
          (activation): ReLU(inplace=True)
        )
        (bn): BatchNorm1d(256, eps=0.0001, momentum=0.1, affine=True, track_running_stats=True)
      )
    )
    (7): ModuleList(
      (0): TransformerEncoderLayer(
        (self_attn): MultiheadAttention(
          (out_proj): NonDynamicallyQuantizableLinear(in_features=256, out_features=256, bias=True)
        )
        (linear1): Linear(in_features=256, out_features=256, bias=True)
        (dropout): Dropout(p=0.2, inplace=False)
        (linear2): Linear(in_features=256, out_features=256, bias=True)
        (norm1): LayerNorm((256,), eps=1e-05, elementwise_affine=True)
        (norm2): LayerNorm((256,), eps=1e-05, elementwise_affine=True)
        (dropout1): Dropout(p=0.2, inplace=False)
        (dropout2): Dropout(p=0.2, inplace=False)
      )
    )
  )
  (inlinear): Linear(in_features=96, out_features=96, bias=False)
  (bn): BatchNorm1d(96, eps=0.0001, momentum=0.1, affine=True, track_running_stats=True)
  (top_linear): Linear(in_features=256, out_features=512, bias=True)
  (pooling): AvgPool1d(kernel_size=(512,), stride=(512,), padding=(0,))
  (outlinear): Linear(in_features=1, out_features=999, bias=True)
  (dropout): Dropout(p=0.2, inplace=False)
)
[INFO] 2024-02-21 22:02:16 > Run name : test
[INFO] 2024-02-21 22:02:16 > cfgs.DATA =
[INFO] 2024-02-21 22:02:16 > {
  "name": "LSFB",
  "input_size": [
    3,
    32
  ],
  "num_classes": 999,
  "min_samples": 20,
  "oversample": true,
  "poses": [
    [
      "right_hand",
      "all"
    ],
    [
      "left_hand",
…
[INFO] 2024-02-21 23:46:54 > cfgs.PRE =
[INFO] 2024-02-21 23:46:54 > {
  "apply_rflip": true
}
[INFO] 2024-02-21 23:46:54 > cfgs.AUG =
[INFO] 2024-02-21 23:46:54 > {}
[INFO] 2024-02-21 23:46:54 > cfgs.RUN =
[INFO] 2024-02-21 23:46:54 > {
  "mixed_precision": true
}
[INFO] 2024-02-21 23:46:54 > Build the model.
[INFO] 2024-02-21 23:46:54 > Modules are located on './src/models.conv1d'.
[INFO] 2024-02-21 23:46:56 > Number of parameters: 24660146
[INFO] 2024-02-21 23:46:56 > Classifier(
  (blocks): ModuleList(
    (0): ModuleList(
      (0): Block(
        (conv1d0): Conv1DBlock(
          (in_linear): Linear(in_features=32, out_features=64, bias=True)
          (conv1d): Conv1d(32, 64, kernel_size=(17,), stride=(1,), padding=same)
          (eca): eca(
            (avg_pool): AdaptiveAvgPool2d(output_size=1)
            (conv): Conv1d(1, 1, kernel_size=(3,), stride=(1,), padding=(1,), bias=False)
            (sigmoid): Sigmoid()
          )
          (bn): BatchNorm1d(64, eps=0.0001, momentum=0.1, affine=True, track_running_stats=True)
          (out_linear): Linear(in_features=64, out_features=32, bias=True)
          (dropout): Dropout(p=0.2, inplace=False)
          (activation): ReLU(inplace=True)
        )
        (conv1d1): Conv1DBlock(
          (in_linear): Linear(in_features=32, out_features=64, bias=True)
          (conv1d): Conv1d(32, 64, kernel_size=(17,), stride=(1,), padding=same)
          (eca): eca(
            (avg_pool): AdaptiveAvgPool2d(output_size=1)
            (conv): Conv1d(1, 1, kernel_size=(3,), stride=(1,), padding=(1,), bias=False)
            (sigmoid): Sigmoid()
          )
          (bn): BatchNorm1d(64, eps=0.0001, momentum=0.1, affine=True, track_running_stats=True)
          (out_linear): Linear(in_features=64, out_features=32, bias=True)
          (dropout): Dropout(p=0.2, inplace=False)
          (activation): ReLU(inplace=True)
        )
        (conv1d2): Conv1DBlock(
          (in_linear): Linear(in_features=32, out_features=512, bias=True)
          (conv1d): Conv1d(32, 512, kernel_size=(17,), stride=(1,), padding=same)
          (eca): eca(
            (avg_pool): AdaptiveAvgPool2d(output_size=1)
            (conv): Conv1d(1, 1, kernel_size=(3,), stride=(1,), padding=(1,), bias=False)
            (sigmoid): Sigmoid()
          )
          (bn): BatchNorm1d(512, eps=0.0001, momentum=0.1, affine=True, track_running_stats=True)
          (out_linear): Linear(in_features=512, out_features=256, bias=True)
          (dropout): Dropout(p=0.2, inplace=False)
          (activation): ReLU(inplace=True)
        )
        (bn): BatchNorm1d(32, eps=0.0001, momentum=0.1, affine=True, track_running_stats=True)
      )
    )
    (1): ModuleList(
      (0): TransformerEncoderLayer(
        (self_attn): MultiheadAttention(
          (out_proj): NonDynamicallyQuantizableLinear(in_features=256, out_features=256, bias=True)
        )
        (linear1): Linear(in_features=256, out_features=256, bias=True)
        (dropout): Dropout(p=0.2, inplace=False)
        (linear2): Linear(in_features=256, out_features=256, bias=True)
        (norm1): LayerNorm((256,), eps=1e-05, elementwise_affine=True)
        (norm2): LayerNorm((256,), eps=1e-05, elementwise_affine=True)
        (dropout1): Dropout(p=0.2, inplace=False)
        (dropout2): Dropout(p=0.2, inplace=False)
      )
    )
    (2): ModuleList(
      (0): Block(
        (conv1d0): Conv1DBlock(
          (in_linear): Linear(in_features=256, out_features=512, bias=True)
          (conv1d): Conv1d(256, 512, kernel_size=(17,), stride=(1,), padding=same)
          (eca): eca(
            (avg_pool): AdaptiveAvgPool2d(output_size=1)
            (conv): Conv1d(1, 1, kernel_size=(3,), stride=(1,), padding=(1,), bias=False)
            (sigmoid): Sigmoid()
          )
          (bn): BatchNorm1d(512, eps=0.0001, momentum=0.1, affine=True, track_running_stats=True)
          (out_linear): Linear(in_features=512, out_features=256, bias=True)
          (dropout): Dropout(p=0.2, inplace=False)
          (activation): ReLU(inplace=True)
        )
        (conv1d1): Conv1DBlock(
          (in_linear): Linear(in_features=256, out_features=512, bias=True)
          (conv1d): Conv1d(256, 512, kernel_size=(17,), stride=(1,), padding=same)
          (eca): eca(
            (avg_pool): AdaptiveAvgPool2d(output_size=1)
            (conv): Conv1d(1, 1, kernel_size=(3,), stride=(1,), padding=(1,), bias=False)
            (sigmoid): Sigmoid()
          )
          (bn): BatchNorm1d(512, eps=0.0001, momentum=0.1, affine=True, track_running_stats=True)
          (out_linear): Linear(in_features=512, out_features=256, bias=True)
          (dropout): Dropout(p=0.2, inplace=False)
          (activation): ReLU(inplace=True)
        )
        (conv1d2): Conv1DBlock(
          (in_linear): Linear(in_features=256, out_features=512, bias=True)
          (conv1d): Conv1d(256, 512, kernel_size=(17,), stride=(1,), padding=same)
          (eca): eca(
            (avg_pool): AdaptiveAvgPool2d(output_size=1)
            (conv): Conv1d(1, 1, kernel_size=(3,), stride=(1,), padding=(1,), bias=False)
            (sigmoid): Sigmoid()
          )
          (bn): BatchNorm1d(512, eps=0.0001, momentum=0.1, affine=True, track_running_stats=True)
          (out_linear): Linear(in_features=512, out_features=256, bias=True)
          (dropout): Dropout(p=0.2, inplace=False)
          (activation): ReLU(inplace=True)
        )
        (bn): BatchNorm1d(256, eps=0.0001, momentum=0.1, affine=True, track_running_stats=True)
      )
    )
    (3): ModuleList(
      (0): TransformerEncoderLayer(
        (self_attn): MultiheadAttention(
          (out_proj): NonDynamicallyQuantizableLinear(in_features=256, out_features=256, bias=True)
        )
        (linear1): Linear(in_features=256, out_features=256, bias=True)
        (dropout): Dropout(p=0.2, inplace=False)
        (linear2): Linear(in_features=256, out_features=256, bias=True)
        (norm1): LayerNorm((256,), eps=1e-05, elementwise_affine=True)
        (norm2): LayerNorm((256,), eps=1e-05, elementwise_affine=True)
        (dropout1): Dropout(p=0.2, inplace=False)
        (dropout2): Dropout(p=0.2, inplace=False)
      )
    )
    (4): ModuleList(
      (0): Block(
        (conv1d0): Conv1DBlock(
          (in_linear): Linear(in_features=256, out_features=512, bias=True)
          (conv1d): Conv1d(256, 512, kernel_size=(17,), stride=(1,), padding=same)
          (eca): eca(
            (avg_pool): AdaptiveAvgPool2d(output_size=1)
            (conv): Conv1d(1, 1, kernel_size=(3,), stride=(1,), padding=(1,), bias=False)
            (sigmoid): Sigmoid()
          )
          (bn): BatchNorm1d(512, eps=0.0001, momentum=0.1, affine=True, track_running_stats=True)
          (out_linear): Linear(in_features=512, out_features=256, bias=True)
          (dropout): Dropout(p=0.2, inplace=False)
          (activation): ReLU(inplace=True)
        )
        (conv1d1): Conv1DBlock(
          (in_linear): Linear(in_features=256, out_features=512, bias=True)
          (conv1d): Conv1d(256, 512, kernel_size=(17,), stride=(1,), padding=same)
          (eca): eca(
            (avg_pool): AdaptiveAvgPool2d(output_size=1)
            (conv): Conv1d(1, 1, kernel_size=(3,), stride=(1,), padding=(1,), bias=False)
            (sigmoid): Sigmoid()
          )
          (bn): BatchNorm1d(512, eps=0.0001, momentum=0.1, affine=True, track_running_stats=True)
          (out_linear): Linear(in_features=512, out_features=256, bias=True)
          (dropout): Dropout(p=0.2, inplace=False)
          (activation): ReLU(inplace=True)
        )
        (conv1d2): Conv1DBlock(
          (in_linear): Linear(in_features=256, out_features=512, bias=True)
          (conv1d): Conv1d(256, 512, kernel_size=(17,), stride=(1,), padding=same)
          (eca): eca(
            (avg_pool): AdaptiveAvgPool2d(output_size=1)
            (conv): Conv1d(1, 1, kernel_size=(3,), stride=(1,), padding=(1,), bias=False)
            (sigmoid): Sigmoid()
          )
          (bn): BatchNorm1d(512, eps=0.0001, momentum=0.1, affine=True, track_running_stats=True)
          (out_linear): Linear(in_features=512, out_features=256, bias=True)
          (dropout): Dropout(p=0.2, inplace=False)
          (activation): ReLU(inplace=True)
        )
        (bn): BatchNorm1d(256, eps=0.0001, momentum=0.1, affine=True, track_running_stats=True)
      )
    )
    (5): ModuleList(
      (0): TransformerEncoderLayer(
        (self_attn): MultiheadAttention(
          (out_proj): NonDynamicallyQuantizableLinear(in_features=256, out_features=256, bias=True)
        )
        (linear1): Linear(in_features=256, out_features=256, bias=True)
        (dropout): Dropout(p=0.2, inplace=False)
        (linear2): Linear(in_features=256, out_features=256, bias=True)
        (norm1): LayerNorm((256,), eps=1e-05, elementwise_affine=True)
        (norm2): LayerNorm((256,), eps=1e-05, elementwise_affine=True)
        (dropout1): Dropout(p=0.2, inplace=False)
        (dropout2): Dropout(p=0.2, inplace=False)
      )
    )
    (6): ModuleList(
      (0): Block(
        (conv1d0): Conv1DBlock(
          (in_linear): Linear(in_features=256, out_features=512, bias=True)
          (conv1d): Conv1d(256, 512, kernel_size=(17,), stride=(1,), padding=same)
          (eca): eca(
            (avg_pool): AdaptiveAvgPool2d(output_size=1)
            (conv): Conv1d(1, 1, kernel_size=(3,), stride=(1,), padding=(1,), bias=False)
            (sigmoid): Sigmoid()
          )
          (bn): BatchNorm1d(512, eps=0.0001, momentum=0.1, affine=True, track_running_stats=True)
          (out_linear): Linear(in_features=512, out_features=256, bias=True)
          (dropout): Dropout(p=0.2, inplace=False)
          (activation): ReLU(inplace=True)
        )
        (conv1d1): Conv1DBlock(
          (in_linear): Linear(in_features=256, out_features=512, bias=True)
          (conv1d): Conv1d(256, 512, kernel_size=(17,), stride=(1,), padding=same)
          (eca): eca(
            (avg_pool): AdaptiveAvgPool2d(output_size=1)
            (conv): Conv1d(1, 1, kernel_size=(3,), stride=(1,), padding=(1,), bias=False)
            (sigmoid): Sigmoid()
          )
          (bn): BatchNorm1d(512, eps=0.0001, momentum=0.1, affine=True, track_running_stats=True)
          (out_linear): Linear(in_features=512, out_features=256, bias=True)
          (dropout): Dropout(p=0.2, inplace=False)
          (activation): ReLU(inplace=True)
        )
        (conv1d2): Conv1DBlock(
          (in_linear): Linear(in_features=256, out_features=512, bias=True)
          (conv1d): Conv1d(256, 512, kernel_size=(17,), stride=(1,), padding=same)
          (eca): eca(
            (avg_pool): AdaptiveAvgPool2d(output_size=1)
            (conv): Conv1d(1, 1, kernel_size=(3,), stride=(1,), padding=(1,), bias=False)
            (sigmoid): Sigmoid()
          )
          (bn): BatchNorm1d(512, eps=0.0001, momentum=0.1, affine=True, track_running_stats=True)
          (out_linear): Linear(in_features=512, out_features=256, bias=True)
          (dropout): Dropout(p=0.2, inplace=False)
          (activation): ReLU(inplace=True)
        )
        (bn): BatchNorm1d(256, eps=0.0001, momentum=0.1, affine=True, track_running_stats=True)
      )
    )
    (7): ModuleList(
      (0): TransformerEncoderLayer(
        (self_attn): MultiheadAttention(
          (out_proj): NonDynamicallyQuantizableLinear(in_features=256, out_features=256, bias=True)
        )
        (linear1): Linear(in_features=256, out_features=256, bias=True)
        (dropout): Dropout(p=0.2, inplace=False)
        (linear2): Linear(in_features=256, out_features=256, bias=True)
        (norm1): LayerNorm((256,), eps=1e-05, elementwise_affine=True)
        (norm2): LayerNorm((256,), eps=1e-05, elementwise_affine=True)
        (dropout1): Dropout(p=0.2, inplace=False)
        (dropout2): Dropout(p=0.2, inplace=False)
      )
    )
  )
  (inlinear): Linear(in_features=32, out_features=32, bias=False)
  (bn): BatchNorm1d(32, eps=0.0001, momentum=0.1, affine=True, track_running_stats=True)
  (top_linear): Linear(in_features=256, out_features=512, bias=True)
  (pooling): AvgPool1d(kernel_size=(512,), stride=(512,), padding=(0,))
  (outlinear): Linear(in_features=1, out_features=999, bias=True)
  (dropout): Dropout(p=0.2, inplace=False)
)
[INFO] 2024-02-22 00:03:03 > Run name : test
[INFO] 2024-02-22 00:03:03 > cfgs.DATA =
[INFO] 2024-02-22 00:03:03 > {
  "name": "LSFB",
  "input_size": [
    3,
    32
  ],
  "num_classes": 999,
  "min_samples": 20,
  "oversample": true,
  "poses": [
    [
      "right_hand",
      "all"
    ],
    [
      "left_hand",
…
[INFO] 2024-02-22 00:08:52 > cfgs.PRE =
[INFO] 2024-02-22 00:08:52 > {
  "apply_rflip": true
}
[INFO] 2024-02-22 00:08:52 > cfgs.AUG =
[INFO] 2024-02-22 00:08:52 > {}
[INFO] 2024-02-22 00:08:52 > cfgs.RUN =
[INFO] 2024-02-22 00:08:52 > {
  "mixed_precision": true
}
[INFO] 2024-02-22 00:08:53 > Build the model.
[INFO] 2024-02-22 00:08:53 > Modules are located on './src/models.conv1d'.
[INFO] 2024-02-22 00:08:54 > Number of parameters: 50183730
[INFO] 2024-02-22 00:08:54 > Classifier(
  (blocks): ModuleList(
    (0): ModuleList(
      (0): Block(
        (conv1d0): Conv1DBlock(
          (in_linear): Linear(in_features=96, out_features=192, bias=True)
          (conv1d): conv1d(
            (pad): ConstantPad1d(padding=(16, 0), value=0)
            (conv): Conv1d(192, 192, kernel_size=(17,), stride=(1,), padding=same)
          )
          (eca): eca(
            (avg_pool): AdaptiveAvgPool2d(output_size=1)
            (conv): Conv1d(1, 1, kernel_size=(3,), stride=(1,), padding=(1,), bias=False)
            (sigmoid): Sigmoid()
          )
          (bn): BatchNorm1d(192, eps=0.0001, momentum=0.1, affine=True, track_running_stats=True)
          (out_linear): Linear(in_features=192, out_features=96, bias=True)
          (dropout): Dropout(p=0.2, inplace=False)
          (activation): ReLU(inplace=True)
        )
        (conv1d1): Conv1DBlock(
          (in_linear): Linear(in_features=96, out_features=192, bias=True)
          (conv1d): conv1d(
            (pad): ConstantPad1d(padding=(16, 0), value=0)
            (conv): Conv1d(192, 192, kernel_size=(17,), stride=(1,), padding=same)
          )
          (eca): eca(
            (avg_pool): AdaptiveAvgPool2d(output_size=1)
            (conv): Conv1d(1, 1, kernel_size=(3,), stride=(1,), padding=(1,), bias=False)
            (sigmoid): Sigmoid()
          )
          (bn): BatchNorm1d(192, eps=0.0001, momentum=0.1, affine=True, track_running_stats=True)
          (out_linear): Linear(in_features=192, out_features=96, bias=True)
          (dropout): Dropout(p=0.2, inplace=False)
          (activation): ReLU(inplace=True)
        )
        (conv1d2): Conv1DBlock(
          (in_linear): Linear(in_features=96, out_features=512, bias=True)
          (conv1d): conv1d(
            (pad): ConstantPad1d(padding=(16, 0), value=0)
            (conv): Conv1d(512, 512, kernel_size=(17,), stride=(1,), padding=same)
          )
          (eca): eca(
            (avg_pool): AdaptiveAvgPool2d(output_size=1)
            (conv): Conv1d(1, 1, kernel_size=(3,), stride=(1,), padding=(1,), bias=False)
            (sigmoid): Sigmoid()
          )
          (bn): BatchNorm1d(512, eps=0.0001, momentum=0.1, affine=True, track_running_stats=True)
          (out_linear): Linear(in_features=512, out_features=256, bias=True)
          (dropout): Dropout(p=0.2, inplace=False)
          (activation): ReLU(inplace=True)
        )
        (bn): BatchNorm1d(96, eps=0.0001, momentum=0.1, affine=True, track_running_stats=True)
      )
    )
    (1): ModuleList(
      (0): TransformerEncoderLayer(
        (self_attn): MultiheadAttention(
          (out_proj): NonDynamicallyQuantizableLinear(in_features=256, out_features=256, bias=True)
        )
        (linear1): Linear(in_features=256, out_features=256, bias=True)
        (dropout): Dropout(p=0.2, inplace=False)
        (linear2): Linear(in_features=256, out_features=256, bias=True)
        (norm1): LayerNorm((256,), eps=1e-05, elementwise_affine=True)
        (norm2): LayerNorm((256,), eps=1e-05, elementwise_affine=True)
        (dropout1): Dropout(p=0.2, inplace=False)
        (dropout2): Dropout(p=0.2, inplace=False)
      )
    )
    (2): ModuleList(
      (0): Block(
        (conv1d0): Conv1DBlock(
          (in_linear): Linear(in_features=256, out_features=512, bias=True)
          (conv1d): conv1d(
            (pad): ConstantPad1d(padding=(16, 0), value=0)
            (conv): Conv1d(512, 512, kernel_size=(17,), stride=(1,), padding=same)
          )
          (eca): eca(
            (avg_pool): AdaptiveAvgPool2d(output_size=1)
            (conv): Conv1d(1, 1, kernel_size=(3,), stride=(1,), padding=(1,), bias=False)
            (sigmoid): Sigmoid()
          )
          (bn): BatchNorm1d(512, eps=0.0001, momentum=0.1, affine=True, track_running_stats=True)
          (out_linear): Linear(in_features=512, out_features=256, bias=True)
          (dropout): Dropout(p=0.2, inplace=False)
          (activation): ReLU(inplace=True)
        )
        (conv1d1): Conv1DBlock(
          (in_linear): Linear(in_features=256, out_features=512, bias=True)
          (conv1d): conv1d(
            (pad): ConstantPad1d(padding=(16, 0), value=0)
            (conv): Conv1d(512, 512, kernel_size=(17,), stride=(1,), padding=same)
          )
          (eca): eca(
            (avg_pool): AdaptiveAvgPool2d(output_size=1)
            (conv): Conv1d(1, 1, kernel_size=(3,), stride=(1,), padding=(1,), bias=False)
            (sigmoid): Sigmoid()
          )
          (bn): BatchNorm1d(512, eps=0.0001, momentum=0.1, affine=True, track_running_stats=True)
          (out_linear): Linear(in_features=512, out_features=256, bias=True)
          (dropout): Dropout(p=0.2, inplace=False)
          (activation): ReLU(inplace=True)
        )
        (conv1d2): Conv1DBlock(
          (in_linear): Linear(in_features=256, out_features=512, bias=True)
          (conv1d): conv1d(
            (pad): ConstantPad1d(padding=(16, 0), value=0)
            (conv): Conv1d(512, 512, kernel_size=(17,), stride=(1,), padding=same)
          )
          (eca): eca(
            (avg_pool): AdaptiveAvgPool2d(output_size=1)
            (conv): Conv1d(1, 1, kernel_size=(3,), stride=(1,), padding=(1,), bias=False)
            (sigmoid): Sigmoid()
          )
          (bn): BatchNorm1d(512, eps=0.0001, momentum=0.1, affine=True, track_running_stats=True)
          (out_linear): Linear(in_features=512, out_features=256, bias=True)
          (dropout): Dropout(p=0.2, inplace=False)
          (activation): ReLU(inplace=True)
        )
        (bn): BatchNorm1d(256, eps=0.0001, momentum=0.1, affine=True, track_running_stats=True)
      )
    )
    (3): ModuleList(
      (0): TransformerEncoderLayer(
        (self_attn): MultiheadAttention(
          (out_proj): NonDynamicallyQuantizableLinear(in_features=256, out_features=256, bias=True)
        )
        (linear1): Linear(in_features=256, out_features=256, bias=True)
        (dropout): Dropout(p=0.2, inplace=False)
        (linear2): Linear(in_features=256, out_features=256, bias=True)
        (norm1): LayerNorm((256,), eps=1e-05, elementwise_affine=True)
        (norm2): LayerNorm((256,), eps=1e-05, elementwise_affine=True)
        (dropout1): Dropout(p=0.2, inplace=False)
        (dropout2): Dropout(p=0.2, inplace=False)
      )
    )
    (4): ModuleList(
      (0): Block(
        (conv1d0): Conv1DBlock(
          (in_linear): Linear(in_features=256, out_features=512, bias=True)
          (conv1d): conv1d(
            (pad): ConstantPad1d(padding=(16, 0), value=0)
            (conv): Conv1d(512, 512, kernel_size=(17,), stride=(1,), padding=same)
          )
          (eca): eca(
            (avg_pool): AdaptiveAvgPool2d(output_size=1)
            (conv): Conv1d(1, 1, kernel_size=(3,), stride=(1,), padding=(1,), bias=False)
            (sigmoid): Sigmoid()
          )
          (bn): BatchNorm1d(512, eps=0.0001, momentum=0.1, affine=True, track_running_stats=True)
          (out_linear): Linear(in_features=512, out_features=256, bias=True)
          (dropout): Dropout(p=0.2, inplace=False)
          (activation): ReLU(inplace=True)
        )
        (conv1d1): Conv1DBlock(
          (in_linear): Linear(in_features=256, out_features=512, bias=True)
          (conv1d): conv1d(
            (pad): ConstantPad1d(padding=(16, 0), value=0)
            (conv): Conv1d(512, 512, kernel_size=(17,), stride=(1,), padding=same)
          )
          (eca): eca(
            (avg_pool): AdaptiveAvgPool2d(output_size=1)
            (conv): Conv1d(1, 1, kernel_size=(3,), stride=(1,), padding=(1,), bias=False)
            (sigmoid): Sigmoid()
          )
          (bn): BatchNorm1d(512, eps=0.0001, momentum=0.1, affine=True, track_running_stats=True)
          (out_linear): Linear(in_features=512, out_features=256, bias=True)
          (dropout): Dropout(p=0.2, inplace=False)
          (activation): ReLU(inplace=True)
        )
        (conv1d2): Conv1DBlock(
          (in_linear): Linear(in_features=256, out_features=512, bias=True)
          (conv1d): conv1d(
            (pad): ConstantPad1d(padding=(16, 0), value=0)
            (conv): Conv1d(512, 512, kernel_size=(17,), stride=(1,), padding=same)
          )
          (eca): eca(
            (avg_pool): AdaptiveAvgPool2d(output_size=1)
            (conv): Conv1d(1, 1, kernel_size=(3,), stride=(1,), padding=(1,), bias=False)
            (sigmoid): Sigmoid()
          )
          (bn): BatchNorm1d(512, eps=0.0001, momentum=0.1, affine=True, track_running_stats=True)
          (out_linear): Linear(in_features=512, out_features=256, bias=True)
          (dropout): Dropout(p=0.2, inplace=False)
          (activation): ReLU(inplace=True)
        )
        (bn): BatchNorm1d(256, eps=0.0001, momentum=0.1, affine=True, track_running_stats=True)
      )
    )
    (5): ModuleList(
      (0): TransformerEncoderLayer(
        (self_attn): MultiheadAttention(
          (out_proj): NonDynamicallyQuantizableLinear(in_features=256, out_features=256, bias=True)
        )
        (linear1): Linear(in_features=256, out_features=256, bias=True)
        (dropout): Dropout(p=0.2, inplace=False)
        (linear2): Linear(in_features=256, out_features=256, bias=True)
        (norm1): LayerNorm((256,), eps=1e-05, elementwise_affine=True)
        (norm2): LayerNorm((256,), eps=1e-05, elementwise_affine=True)
        (dropout1): Dropout(p=0.2, inplace=False)
        (dropout2): Dropout(p=0.2, inplace=False)
      )
    )
    (6): ModuleList(
      (0): Block(
        (conv1d0): Conv1DBlock(
          (in_linear): Linear(in_features=256, out_features=512, bias=True)
          (conv1d): conv1d(
            (pad): ConstantPad1d(padding=(16, 0), value=0)
            (conv): Conv1d(512, 512, kernel_size=(17,), stride=(1,), padding=same)
          )
          (eca): eca(
            (avg_pool): AdaptiveAvgPool2d(output_size=1)
            (conv): Conv1d(1, 1, kernel_size=(3,), stride=(1,), padding=(1,), bias=False)
            (sigmoid): Sigmoid()
          )
          (bn): BatchNorm1d(512, eps=0.0001, momentum=0.1, affine=True, track_running_stats=True)
          (out_linear): Linear(in_features=512, out_features=256, bias=True)
          (dropout): Dropout(p=0.2, inplace=False)
          (activation): ReLU(inplace=True)
        )
        (conv1d1): Conv1DBlock(
          (in_linear): Linear(in_features=256, out_features=512, bias=True)
          (conv1d): conv1d(
            (pad): ConstantPad1d(padding=(16, 0), value=0)
            (conv): Conv1d(512, 512, kernel_size=(17,), stride=(1,), padding=same)
          )
          (eca): eca(
            (avg_pool): AdaptiveAvgPool2d(output_size=1)
            (conv): Conv1d(1, 1, kernel_size=(3,), stride=(1,), padding=(1,), bias=False)
            (sigmoid): Sigmoid()
          )
          (bn): BatchNorm1d(512, eps=0.0001, momentum=0.1, affine=True, track_running_stats=True)
          (out_linear): Linear(in_features=512, out_features=256, bias=True)
          (dropout): Dropout(p=0.2, inplace=False)
          (activation): ReLU(inplace=True)
        )
        (conv1d2): Conv1DBlock(
          (in_linear): Linear(in_features=256, out_features=512, bias=True)
          (conv1d): conv1d(
            (pad): ConstantPad1d(padding=(16, 0), value=0)
            (conv): Conv1d(512, 512, kernel_size=(17,), stride=(1,), padding=same)
          )
          (eca): eca(
            (avg_pool): AdaptiveAvgPool2d(output_size=1)
            (conv): Conv1d(1, 1, kernel_size=(3,), stride=(1,), padding=(1,), bias=False)
            (sigmoid): Sigmoid()
          )
          (bn): BatchNorm1d(512, eps=0.0001, momentum=0.1, affine=True, track_running_stats=True)
          (out_linear): Linear(in_features=512, out_features=256, bias=True)
          (dropout): Dropout(p=0.2, inplace=False)
          (activation): ReLU(inplace=True)
        )
        (bn): BatchNorm1d(256, eps=0.0001, momentum=0.1, affine=True, track_running_stats=True)
      )
    )
    (7): ModuleList(
      (0): TransformerEncoderLayer(
        (self_attn): MultiheadAttention(
          (out_proj): NonDynamicallyQuantizableLinear(in_features=256, out_features=256, bias=True)
        )
        (linear1): Linear(in_features=256, out_features=256, bias=True)
        (dropout): Dropout(p=0.2, inplace=False)
        (linear2): Linear(in_features=256, out_features=256, bias=True)
        (norm1): LayerNorm((256,), eps=1e-05, elementwise_affine=True)
        (norm2): LayerNorm((256,), eps=1e-05, elementwise_affine=True)
        (dropout1): Dropout(p=0.2, inplace=False)
        (dropout2): Dropout(p=0.2, inplace=False)
      )
    )
  )
  (inlinear): Linear(in_features=96, out_features=96, bias=False)
  (bn): BatchNorm1d(96, eps=0.0001, momentum=0.1, affine=True, track_running_stats=True)
  (top_linear): Linear(in_features=256, out_features=512, bias=True)
  (pooling): AvgPool1d(kernel_size=(512,), stride=(512,), padding=(0,))
  (outlinear): Linear(in_features=1, out_features=999, bias=True)
  (dropout): Dropout(p=0.2, inplace=False)
)
[INFO] 2024-02-22 00:12:09 > Run name : test
[INFO] 2024-02-22 00:12:09 > cfgs.DATA =
[INFO] 2024-02-22 00:12:09 > {
  "name": "LSFB",
  "input_size": [
    3,
    32
  ],
  "num_classes": 999,
  "min_samples": 20,
  "oversample": true,
  "poses": [
    [
      "right_hand",
      "all"
    ],
    [
      "left_hand",
…
[INFO] 2024-02-22 00:24:54 > cfgs.PRE =
[INFO] 2024-02-22 00:24:54 > {
  "apply_rflip": true
}
[INFO] 2024-02-22 00:24:54 > cfgs.AUG =
[INFO] 2024-02-22 00:24:54 > {}
[INFO] 2024-02-22 00:24:54 > cfgs.RUN =
[INFO] 2024-02-22 00:24:54 > {
  "mixed_precision": true
}
[INFO] 2024-02-22 00:24:54 > Build the model.
[INFO] 2024-02-22 00:24:54 > Modules are located on './src/models.conv1d'.
[INFO] 2024-02-22 00:24:55 > Number of parameters: 50183568
[INFO] 2024-02-22 00:24:55 > Classifier(
  (blocks): ModuleList(
    (0): ModuleList(
      (0): Block(
        (conv1d0): Conv1DBlock(
          (in_linear): Linear(in_features=96, out_features=192, bias=True)
          (conv1d): conv1d(
            (pad): ConstantPad1d(padding=(16, 0), value=0)
            (conv): Conv1d(192, 192, kernel_size=(17,), stride=(1,), padding=same)
          )
          (eca): eca(
            (avg_pool): AdaptiveAvgPool2d(output_size=1)
            (conv): Conv1d(1, 1, kernel_size=(3,), stride=(1,), padding=(1,), bias=False)
            (sigmoid): Sigmoid()
          )
          (bn): BatchNorm1d(192, eps=0.0001, momentum=0.1, affine=True, track_running_stats=True)
          (out_linear): Linear(in_features=192, out_features=96, bias=True)
          (dropout): Dropout(p=0.2, inplace=False)
          (activation): ReLU(inplace=True)
        )
        (conv1d1): Conv1DBlock(
          (in_linear): Linear(in_features=96, out_features=192, bias=True)
          (conv1d): conv1d(
            (pad): ConstantPad1d(padding=(16, 0), value=0)
            (conv): Conv1d(192, 192, kernel_size=(17,), stride=(1,), padding=same)
          )
          (eca): eca(
            (avg_pool): AdaptiveAvgPool2d(output_size=1)
            (conv): Conv1d(1, 1, kernel_size=(3,), stride=(1,), padding=(1,), bias=False)
            (sigmoid): Sigmoid()
          )
          (bn): BatchNorm1d(192, eps=0.0001, momentum=0.1, affine=True, track_running_stats=True)
          (out_linear): Linear(in_features=192, out_features=96, bias=True)
          (dropout): Dropout(p=0.2, inplace=False)
          (activation): ReLU(inplace=True)
        )
        (conv1d2): Conv1DBlock(
          (in_linear): Linear(in_features=96, out_features=512, bias=True)
          (conv1d): conv1d(
            (pad): ConstantPad1d(padding=(16, 0), value=0)
            (conv): Conv1d(512, 512, kernel_size=(17,), stride=(1,), padding=same)
          )
          (eca): eca(
            (avg_pool): AdaptiveAvgPool2d(output_size=1)
            (conv): Conv1d(1, 1, kernel_size=(3,), stride=(1,), padding=(1,), bias=False)
            (sigmoid): Sigmoid()
          )
          (bn): BatchNorm1d(512, eps=0.0001, momentum=0.1, affine=True, track_running_stats=True)
          (out_linear): Linear(in_features=512, out_features=256, bias=True)
          (dropout): Dropout(p=0.2, inplace=False)
          (activation): ReLU(inplace=True)
        )
        (bn): BatchNorm1d(96, eps=0.0001, momentum=0.1, affine=True, track_running_stats=True)
      )
    )
    (1): ModuleList(
      (0): TransformerEncoderLayer(
        (self_attn): MultiheadAttention(
          (out_proj): NonDynamicallyQuantizableLinear(in_features=256, out_features=256, bias=True)
        )
        (linear1): Linear(in_features=256, out_features=256, bias=True)
        (dropout): Dropout(p=0.2, inplace=False)
        (linear2): Linear(in_features=256, out_features=256, bias=True)
        (norm1): LayerNorm((256,), eps=1e-05, elementwise_affine=True)
        (norm2): LayerNorm((256,), eps=1e-05, elementwise_affine=True)
        (dropout1): Dropout(p=0.2, inplace=False)
        (dropout2): Dropout(p=0.2, inplace=False)
      )
    )
    (2): ModuleList(
      (0): Block(
        (conv1d0): Conv1DBlock(
          (in_linear): Linear(in_features=256, out_features=512, bias=True)
          (conv1d): conv1d(
            (pad): ConstantPad1d(padding=(16, 0), value=0)
            (conv): Conv1d(512, 512, kernel_size=(17,), stride=(1,), padding=same)
          )
          (eca): eca(
            (avg_pool): AdaptiveAvgPool2d(output_size=1)
            (conv): Conv1d(1, 1, kernel_size=(3,), stride=(1,), padding=(1,), bias=False)
            (sigmoid): Sigmoid()
          )
          (bn): BatchNorm1d(512, eps=0.0001, momentum=0.1, affine=True, track_running_stats=True)
          (out_linear): Linear(in_features=512, out_features=256, bias=True)
          (dropout): Dropout(p=0.2, inplace=False)
          (activation): ReLU(inplace=True)
        )
        (conv1d1): Conv1DBlock(
          (in_linear): Linear(in_features=256, out_features=512, bias=True)
          (conv1d): conv1d(
            (pad): ConstantPad1d(padding=(16, 0), value=0)
            (conv): Conv1d(512, 512, kernel_size=(17,), stride=(1,), padding=same)
          )
          (eca): eca(
            (avg_pool): AdaptiveAvgPool2d(output_size=1)
            (conv): Conv1d(1, 1, kernel_size=(3,), stride=(1,), padding=(1,), bias=False)
            (sigmoid): Sigmoid()
          )
          (bn): BatchNorm1d(512, eps=0.0001, momentum=0.1, affine=True, track_running_stats=True)
          (out_linear): Linear(in_features=512, out_features=256, bias=True)
          (dropout): Dropout(p=0.2, inplace=False)
          (activation): ReLU(inplace=True)
        )
        (conv1d2): Conv1DBlock(
          (in_linear): Linear(in_features=256, out_features=512, bias=True)
          (conv1d): conv1d(
            (pad): ConstantPad1d(padding=(16, 0), value=0)
            (conv): Conv1d(512, 512, kernel_size=(17,), stride=(1,), padding=same)
          )
          (eca): eca(
            (avg_pool): AdaptiveAvgPool2d(output_size=1)
            (conv): Conv1d(1, 1, kernel_size=(3,), stride=(1,), padding=(1,), bias=False)
            (sigmoid): Sigmoid()
          )
          (bn): BatchNorm1d(512, eps=0.0001, momentum=0.1, affine=True, track_running_stats=True)
          (out_linear): Linear(in_features=512, out_features=256, bias=True)
          (dropout): Dropout(p=0.2, inplace=False)
          (activation): ReLU(inplace=True)
        )
        (bn): BatchNorm1d(256, eps=0.0001, momentum=0.1, affine=True, track_running_stats=True)
      )
    )
    (3): ModuleList(
      (0): TransformerEncoderLayer(
        (self_attn): MultiheadAttention(
          (out_proj): NonDynamicallyQuantizableLinear(in_features=256, out_features=256, bias=True)
        )
        (linear1): Linear(in_features=256, out_features=256, bias=True)
        (dropout): Dropout(p=0.2, inplace=False)
        (linear2): Linear(in_features=256, out_features=256, bias=True)
        (norm1): LayerNorm((256,), eps=1e-05, elementwise_affine=True)
        (norm2): LayerNorm((256,), eps=1e-05, elementwise_affine=True)
        (dropout1): Dropout(p=0.2, inplace=False)
        (dropout2): Dropout(p=0.2, inplace=False)
      )
    )
    (4): ModuleList(
      (0): Block(
        (conv1d0): Conv1DBlock(
          (in_linear): Linear(in_features=256, out_features=512, bias=True)
          (conv1d): conv1d(
            (pad): ConstantPad1d(padding=(16, 0), value=0)
            (conv): Conv1d(512, 512, kernel_size=(17,), stride=(1,), padding=same)
          )
          (eca): eca(
            (avg_pool): AdaptiveAvgPool2d(output_size=1)
            (conv): Conv1d(1, 1, kernel_size=(3,), stride=(1,), padding=(1,), bias=False)
            (sigmoid): Sigmoid()
          )
          (bn): BatchNorm1d(512, eps=0.0001, momentum=0.1, affine=True, track_running_stats=True)
          (out_linear): Linear(in_features=512, out_features=256, bias=True)
          (dropout): Dropout(p=0.2, inplace=False)
          (activation): ReLU(inplace=True)
        )
        (conv1d1): Conv1DBlock(
          (in_linear): Linear(in_features=256, out_features=512, bias=True)
          (conv1d): conv1d(
            (pad): ConstantPad1d(padding=(16, 0), value=0)
            (conv): Conv1d(512, 512, kernel_size=(17,), stride=(1,), padding=same)
          )
          (eca): eca(
            (avg_pool): AdaptiveAvgPool2d(output_size=1)
            (conv): Conv1d(1, 1, kernel_size=(3,), stride=(1,), padding=(1,), bias=False)
            (sigmoid): Sigmoid()
          )
          (bn): BatchNorm1d(512, eps=0.0001, momentum=0.1, affine=True, track_running_stats=True)
          (out_linear): Linear(in_features=512, out_features=256, bias=True)
          (dropout): Dropout(p=0.2, inplace=False)
          (activation): ReLU(inplace=True)
        )
        (conv1d2): Conv1DBlock(
          (in_linear): Linear(in_features=256, out_features=512, bias=True)
          (conv1d): conv1d(
            (pad): ConstantPad1d(padding=(16, 0), value=0)
            (conv): Conv1d(512, 512, kernel_size=(17,), stride=(1,), padding=same)
          )
          (eca): eca(
            (avg_pool): AdaptiveAvgPool2d(output_size=1)
            (conv): Conv1d(1, 1, kernel_size=(3,), stride=(1,), padding=(1,), bias=False)
            (sigmoid): Sigmoid()
          )
          (bn): BatchNorm1d(512, eps=0.0001, momentum=0.1, affine=True, track_running_stats=True)
          (out_linear): Linear(in_features=512, out_features=256, bias=True)
          (dropout): Dropout(p=0.2, inplace=False)
          (activation): ReLU(inplace=True)
        )
        (bn): BatchNorm1d(256, eps=0.0001, momentum=0.1, affine=True, track_running_stats=True)
      )
    )
    (5): ModuleList(
      (0): TransformerEncoderLayer(
        (self_attn): MultiheadAttention(
          (out_proj): NonDynamicallyQuantizableLinear(in_features=256, out_features=256, bias=True)
        )
        (linear1): Linear(in_features=256, out_features=256, bias=True)
        (dropout): Dropout(p=0.2, inplace=False)
        (linear2): Linear(in_features=256, out_features=256, bias=True)
        (norm1): LayerNorm((256,), eps=1e-05, elementwise_affine=True)
        (norm2): LayerNorm((256,), eps=1e-05, elementwise_affine=True)
        (dropout1): Dropout(p=0.2, inplace=False)
        (dropout2): Dropout(p=0.2, inplace=False)
      )
    )
    (6): ModuleList(
      (0): Block(
        (conv1d0): Conv1DBlock(
          (in_linear): Linear(in_features=256, out_features=512, bias=True)
          (conv1d): conv1d(
            (pad): ConstantPad1d(padding=(16, 0), value=0)
            (conv): Conv1d(512, 512, kernel_size=(17,), stride=(1,), padding=same)
          )
          (eca): eca(
            (avg_pool): AdaptiveAvgPool2d(output_size=1)
            (conv): Conv1d(1, 1, kernel_size=(3,), stride=(1,), padding=(1,), bias=False)
            (sigmoid): Sigmoid()
          )
          (bn): BatchNorm1d(512, eps=0.0001, momentum=0.1, affine=True, track_running_stats=True)
          (out_linear): Linear(in_features=512, out_features=256, bias=True)
          (dropout): Dropout(p=0.2, inplace=False)
          (activation): ReLU(inplace=True)
        )
        (conv1d1): Conv1DBlock(
          (in_linear): Linear(in_features=256, out_features=512, bias=True)
          (conv1d): conv1d(
            (pad): ConstantPad1d(padding=(16, 0), value=0)
            (conv): Conv1d(512, 512, kernel_size=(17,), stride=(1,), padding=same)
          )
          (eca): eca(
            (avg_pool): AdaptiveAvgPool2d(output_size=1)
            (conv): Conv1d(1, 1, kernel_size=(3,), stride=(1,), padding=(1,), bias=False)
            (sigmoid): Sigmoid()
          )
          (bn): BatchNorm1d(512, eps=0.0001, momentum=0.1, affine=True, track_running_stats=True)
          (out_linear): Linear(in_features=512, out_features=256, bias=True)
          (dropout): Dropout(p=0.2, inplace=False)
          (activation): ReLU(inplace=True)
        )
        (conv1d2): Conv1DBlock(
          (in_linear): Linear(in_features=256, out_features=512, bias=True)
          (conv1d): conv1d(
            (pad): ConstantPad1d(padding=(16, 0), value=0)
            (conv): Conv1d(512, 512, kernel_size=(17,), stride=(1,), padding=same)
          )
          (eca): eca(
            (avg_pool): AdaptiveAvgPool2d(output_size=1)
            (conv): Conv1d(1, 1, kernel_size=(3,), stride=(1,), padding=(1,), bias=False)
            (sigmoid): Sigmoid()
          )
          (bn): BatchNorm1d(512, eps=0.0001, momentum=0.1, affine=True, track_running_stats=True)
          (out_linear): Linear(in_features=512, out_features=256, bias=True)
          (dropout): Dropout(p=0.2, inplace=False)
          (activation): ReLU(inplace=True)
        )
        (bn): BatchNorm1d(256, eps=0.0001, momentum=0.1, affine=True, track_running_stats=True)
      )
    )
    (7): ModuleList(
      (0): TransformerEncoderLayer(
        (self_attn): MultiheadAttention(
          (out_proj): NonDynamicallyQuantizableLinear(in_features=256, out_features=256, bias=True)
        )
        (linear1): Linear(in_features=256, out_features=256, bias=True)
        (dropout): Dropout(p=0.2, inplace=False)
        (linear2): Linear(in_features=256, out_features=256, bias=True)
        (norm1): LayerNorm((256,), eps=1e-05, elementwise_affine=True)
        (norm2): LayerNorm((256,), eps=1e-05, elementwise_affine=True)
        (dropout1): Dropout(p=0.2, inplace=False)
        (dropout2): Dropout(p=0.2, inplace=False)
      )
    )
  )
  (inlinear): Linear(in_features=96, out_features=96, bias=False)
  (bn): BatchNorm1d(15, eps=0.0001, momentum=0.1, affine=True, track_running_stats=True)
  (top_linear): Linear(in_features=256, out_features=512, bias=True)
  (pooling): AvgPool1d(kernel_size=(512,), stride=(512,), padding=(0,))
  (outlinear): Linear(in_features=1, out_features=999, bias=True)
  (dropout): Dropout(p=0.2, inplace=False)
)
[INFO] 2024-02-22 00:28:19 > Run name : test
[INFO] 2024-02-22 00:28:19 > cfgs.DATA =
[INFO] 2024-02-22 00:28:19 > {
  "name": "LSFB",
  "input_size": [
    15,
    32,
    3
  ],
  "num_classes": 999,
  "min_samples": 20,
  "oversample": true,
  "poses": [
    [
      "right_hand",
      "all"
    ],
    [
      "left_hand",
…
[INFO] 2024-02-22 00:28:19 > cfgs.PRE =
[INFO] 2024-02-22 00:28:19 > {
  "apply_rflip": true
}
[INFO] 2024-02-22 00:28:19 > cfgs.AUG =
[INFO] 2024-02-22 00:28:19 > {}
[INFO] 2024-02-22 00:28:19 > cfgs.RUN =
[INFO] 2024-02-22 00:28:19 > {
  "mixed_precision": true
}
[INFO] 2024-02-22 00:28:19 > Build the model.
[INFO] 2024-02-22 00:28:19 > Modules are located on './src/models.conv1d'.
[INFO] 2024-02-22 00:28:21 > Number of parameters: 50183568
[INFO] 2024-02-22 00:28:21 > Classifier(
  (blocks): ModuleList(
    (0): ModuleList(
      (0): Block(
        (conv1d0): Conv1DBlock(
          (in_linear): Linear(in_features=96, out_features=192, bias=True)
          (conv1d): conv1d(
            (pad): ConstantPad1d(padding=(16, 0), value=0)
            (conv): Conv1d(192, 192, kernel_size=(17,), stride=(1,), padding=valid)
          )
          (eca): eca(
            (avg_pool): AdaptiveAvgPool2d(output_size=1)
            (conv): Conv1d(1, 1, kernel_size=(3,), stride=(1,), padding=(1,), bias=False)
            (sigmoid): Sigmoid()
          )
          (bn): BatchNorm1d(192, eps=0.0001, momentum=0.1, affine=True, track_running_stats=True)
          (out_linear): Linear(in_features=192, out_features=96, bias=True)
          (dropout): Dropout(p=0.2, inplace=False)
          (activation): ReLU(inplace=True)
        )
        (conv1d1): Conv1DBlock(
          (in_linear): Linear(in_features=96, out_features=192, bias=True)
          (conv1d): conv1d(
            (pad): ConstantPad1d(padding=(16, 0), value=0)
            (conv): Conv1d(192, 192, kernel_size=(17,), stride=(1,), padding=valid)
          )
          (eca): eca(
            (avg_pool): AdaptiveAvgPool2d(output_size=1)
            (conv): Conv1d(1, 1, kernel_size=(3,), stride=(1,), padding=(1,), bias=False)
            (sigmoid): Sigmoid()
          )
          (bn): BatchNorm1d(192, eps=0.0001, momentum=0.1, affine=True, track_running_stats=True)
          (out_linear): Linear(in_features=192, out_features=96, bias=True)
          (dropout): Dropout(p=0.2, inplace=False)
          (activation): ReLU(inplace=True)
        )
        (conv1d2): Conv1DBlock(
          (in_linear): Linear(in_features=96, out_features=512, bias=True)
          (conv1d): conv1d(
            (pad): ConstantPad1d(padding=(16, 0), value=0)
            (conv): Conv1d(512, 512, kernel_size=(17,), stride=(1,), padding=valid)
          )
          (eca): eca(
            (avg_pool): AdaptiveAvgPool2d(output_size=1)
            (conv): Conv1d(1, 1, kernel_size=(3,), stride=(1,), padding=(1,), bias=False)
            (sigmoid): Sigmoid()
          )
          (bn): BatchNorm1d(512, eps=0.0001, momentum=0.1, affine=True, track_running_stats=True)
          (out_linear): Linear(in_features=512, out_features=256, bias=True)
          (dropout): Dropout(p=0.2, inplace=False)
          (activation): ReLU(inplace=True)
        )
        (bn): BatchNorm1d(96, eps=0.0001, momentum=0.1, affine=True, track_running_stats=True)
      )
    )
    (1): ModuleList(
      (0): TransformerEncoderLayer(
        (self_attn): MultiheadAttention(
          (out_proj): NonDynamicallyQuantizableLinear(in_features=256, out_features=256, bias=True)
        )
        (linear1): Linear(in_features=256, out_features=256, bias=True)
        (dropout): Dropout(p=0.2, inplace=False)
        (linear2): Linear(in_features=256, out_features=256, bias=True)
        (norm1): LayerNorm((256,), eps=1e-05, elementwise_affine=True)
        (norm2): LayerNorm((256,), eps=1e-05, elementwise_affine=True)
        (dropout1): Dropout(p=0.2, inplace=False)
        (dropout2): Dropout(p=0.2, inplace=False)
      )
    )
    (2): ModuleList(
      (0): Block(
        (conv1d0): Conv1DBlock(
          (in_linear): Linear(in_features=256, out_features=512, bias=True)
          (conv1d): conv1d(
            (pad): ConstantPad1d(padding=(16, 0), value=0)
            (conv): Conv1d(512, 512, kernel_size=(17,), stride=(1,), padding=valid)
          )
          (eca): eca(
            (avg_pool): AdaptiveAvgPool2d(output_size=1)
            (conv): Conv1d(1, 1, kernel_size=(3,), stride=(1,), padding=(1,), bias=False)
            (sigmoid): Sigmoid()
          )
          (bn): BatchNorm1d(512, eps=0.0001, momentum=0.1, affine=True, track_running_stats=True)
          (out_linear): Linear(in_features=512, out_features=256, bias=True)
          (dropout): Dropout(p=0.2, inplace=False)
          (activation): ReLU(inplace=True)
        )
        (conv1d1): Conv1DBlock(
          (in_linear): Linear(in_features=256, out_features=512, bias=True)
          (conv1d): conv1d(
            (pad): ConstantPad1d(padding=(16, 0), value=0)
            (conv): Conv1d(512, 512, kernel_size=(17,), stride=(1,), padding=valid)
          )
          (eca): eca(
            (avg_pool): AdaptiveAvgPool2d(output_size=1)
            (conv): Conv1d(1, 1, kernel_size=(3,), stride=(1,), padding=(1,), bias=False)
            (sigmoid): Sigmoid()
          )
          (bn): BatchNorm1d(512, eps=0.0001, momentum=0.1, affine=True, track_running_stats=True)
          (out_linear): Linear(in_features=512, out_features=256, bias=True)
          (dropout): Dropout(p=0.2, inplace=False)
          (activation): ReLU(inplace=True)
        )
        (conv1d2): Conv1DBlock(
          (in_linear): Linear(in_features=256, out_features=512, bias=True)
          (conv1d): conv1d(
            (pad): ConstantPad1d(padding=(16, 0), value=0)
            (conv): Conv1d(512, 512, kernel_size=(17,), stride=(1,), padding=valid)
          )
          (eca): eca(
            (avg_pool): AdaptiveAvgPool2d(output_size=1)
            (conv): Conv1d(1, 1, kernel_size=(3,), stride=(1,), padding=(1,), bias=False)
            (sigmoid): Sigmoid()
          )
          (bn): BatchNorm1d(512, eps=0.0001, momentum=0.1, affine=True, track_running_stats=True)
          (out_linear): Linear(in_features=512, out_features=256, bias=True)
          (dropout): Dropout(p=0.2, inplace=False)
          (activation): ReLU(inplace=True)
        )
        (bn): BatchNorm1d(256, eps=0.0001, momentum=0.1, affine=True, track_running_stats=True)
      )
    )
    (3): ModuleList(
      (0): TransformerEncoderLayer(
        (self_attn): MultiheadAttention(
          (out_proj): NonDynamicallyQuantizableLinear(in_features=256, out_features=256, bias=True)
        )
        (linear1): Linear(in_features=256, out_features=256, bias=True)
        (dropout): Dropout(p=0.2, inplace=False)
        (linear2): Linear(in_features=256, out_features=256, bias=True)
        (norm1): LayerNorm((256,), eps=1e-05, elementwise_affine=True)
        (norm2): LayerNorm((256,), eps=1e-05, elementwise_affine=True)
        (dropout1): Dropout(p=0.2, inplace=False)
        (dropout2): Dropout(p=0.2, inplace=False)
      )
    )
    (4): ModuleList(
      (0): Block(
        (conv1d0): Conv1DBlock(
          (in_linear): Linear(in_features=256, out_features=512, bias=True)
          (conv1d): conv1d(
            (pad): ConstantPad1d(padding=(16, 0), value=0)
            (conv): Conv1d(512, 512, kernel_size=(17,), stride=(1,), padding=valid)
          )
          (eca): eca(
            (avg_pool): AdaptiveAvgPool2d(output_size=1)
            (conv): Conv1d(1, 1, kernel_size=(3,), stride=(1,), padding=(1,), bias=False)
            (sigmoid): Sigmoid()
          )
          (bn): BatchNorm1d(512, eps=0.0001, momentum=0.1, affine=True, track_running_stats=True)
          (out_linear): Linear(in_features=512, out_features=256, bias=True)
          (dropout): Dropout(p=0.2, inplace=False)
          (activation): ReLU(inplace=True)
        )
        (conv1d1): Conv1DBlock(
          (in_linear): Linear(in_features=256, out_features=512, bias=True)
          (conv1d): conv1d(
            (pad): ConstantPad1d(padding=(16, 0), value=0)
            (conv): Conv1d(512, 512, kernel_size=(17,), stride=(1,), padding=valid)
          )
          (eca): eca(
            (avg_pool): AdaptiveAvgPool2d(output_size=1)
            (conv): Conv1d(1, 1, kernel_size=(3,), stride=(1,), padding=(1,), bias=False)
            (sigmoid): Sigmoid()
          )
          (bn): BatchNorm1d(512, eps=0.0001, momentum=0.1, affine=True, track_running_stats=True)
          (out_linear): Linear(in_features=512, out_features=256, bias=True)
          (dropout): Dropout(p=0.2, inplace=False)
          (activation): ReLU(inplace=True)
        )
        (conv1d2): Conv1DBlock(
          (in_linear): Linear(in_features=256, out_features=512, bias=True)
          (conv1d): conv1d(
            (pad): ConstantPad1d(padding=(16, 0), value=0)
            (conv): Conv1d(512, 512, kernel_size=(17,), stride=(1,), padding=valid)
          )
          (eca): eca(
            (avg_pool): AdaptiveAvgPool2d(output_size=1)
            (conv): Conv1d(1, 1, kernel_size=(3,), stride=(1,), padding=(1,), bias=False)
            (sigmoid): Sigmoid()
          )
          (bn): BatchNorm1d(512, eps=0.0001, momentum=0.1, affine=True, track_running_stats=True)
          (out_linear): Linear(in_features=512, out_features=256, bias=True)
          (dropout): Dropout(p=0.2, inplace=False)
          (activation): ReLU(inplace=True)
        )
        (bn): BatchNorm1d(256, eps=0.0001, momentum=0.1, affine=True, track_running_stats=True)
      )
    )
    (5): ModuleList(
      (0): TransformerEncoderLayer(
        (self_attn): MultiheadAttention(
          (out_proj): NonDynamicallyQuantizableLinear(in_features=256, out_features=256, bias=True)
        )
        (linear1): Linear(in_features=256, out_features=256, bias=True)
        (dropout): Dropout(p=0.2, inplace=False)
        (linear2): Linear(in_features=256, out_features=256, bias=True)
        (norm1): LayerNorm((256,), eps=1e-05, elementwise_affine=True)
        (norm2): LayerNorm((256,), eps=1e-05, elementwise_affine=True)
        (dropout1): Dropout(p=0.2, inplace=False)
        (dropout2): Dropout(p=0.2, inplace=False)
      )
    )
    (6): ModuleList(
      (0): Block(
        (conv1d0): Conv1DBlock(
          (in_linear): Linear(in_features=256, out_features=512, bias=True)
          (conv1d): conv1d(
            (pad): ConstantPad1d(padding=(16, 0), value=0)
            (conv): Conv1d(512, 512, kernel_size=(17,), stride=(1,), padding=valid)
          )
          (eca): eca(
            (avg_pool): AdaptiveAvgPool2d(output_size=1)
            (conv): Conv1d(1, 1, kernel_size=(3,), stride=(1,), padding=(1,), bias=False)
            (sigmoid): Sigmoid()
          )
          (bn): BatchNorm1d(512, eps=0.0001, momentum=0.1, affine=True, track_running_stats=True)
          (out_linear): Linear(in_features=512, out_features=256, bias=True)
          (dropout): Dropout(p=0.2, inplace=False)
          (activation): ReLU(inplace=True)
        )
        (conv1d1): Conv1DBlock(
          (in_linear): Linear(in_features=256, out_features=512, bias=True)
          (conv1d): conv1d(
            (pad): ConstantPad1d(padding=(16, 0), value=0)
            (conv): Conv1d(512, 512, kernel_size=(17,), stride=(1,), padding=valid)
          )
          (eca): eca(
            (avg_pool): AdaptiveAvgPool2d(output_size=1)
            (conv): Conv1d(1, 1, kernel_size=(3,), stride=(1,), padding=(1,), bias=False)
            (sigmoid): Sigmoid()
          )
          (bn): BatchNorm1d(512, eps=0.0001, momentum=0.1, affine=True, track_running_stats=True)
          (out_linear): Linear(in_features=512, out_features=256, bias=True)
          (dropout): Dropout(p=0.2, inplace=False)
          (activation): ReLU(inplace=True)
        )
        (conv1d2): Conv1DBlock(
          (in_linear): Linear(in_features=256, out_features=512, bias=True)
          (conv1d): conv1d(
            (pad): ConstantPad1d(padding=(16, 0), value=0)
            (conv): Conv1d(512, 512, kernel_size=(17,), stride=(1,), padding=valid)
          )
          (eca): eca(
            (avg_pool): AdaptiveAvgPool2d(output_size=1)
            (conv): Conv1d(1, 1, kernel_size=(3,), stride=(1,), padding=(1,), bias=False)
            (sigmoid): Sigmoid()
          )
          (bn): BatchNorm1d(512, eps=0.0001, momentum=0.1, affine=True, track_running_stats=True)
          (out_linear): Linear(in_features=512, out_features=256, bias=True)
          (dropout): Dropout(p=0.2, inplace=False)
          (activation): ReLU(inplace=True)
        )
        (bn): BatchNorm1d(256, eps=0.0001, momentum=0.1, affine=True, track_running_stats=True)
      )
    )
    (7): ModuleList(
      (0): TransformerEncoderLayer(
        (self_attn): MultiheadAttention(
          (out_proj): NonDynamicallyQuantizableLinear(in_features=256, out_features=256, bias=True)
        )
        (linear1): Linear(in_features=256, out_features=256, bias=True)
        (dropout): Dropout(p=0.2, inplace=False)
        (linear2): Linear(in_features=256, out_features=256, bias=True)
        (norm1): LayerNorm((256,), eps=1e-05, elementwise_affine=True)
        (norm2): LayerNorm((256,), eps=1e-05, elementwise_affine=True)
        (dropout1): Dropout(p=0.2, inplace=False)
        (dropout2): Dropout(p=0.2, inplace=False)
      )
    )
  )
  (inlinear): Linear(in_features=96, out_features=96, bias=False)
  (bn): BatchNorm1d(15, eps=0.0001, momentum=0.1, affine=True, track_running_stats=True)
  (top_linear): Linear(in_features=256, out_features=512, bias=True)
  (pooling): AvgPool1d(kernel_size=(512,), stride=(512,), padding=(0,))
  (outlinear): Linear(in_features=1, out_features=999, bias=True)
  (dropout): Dropout(p=0.2, inplace=False)
)
[INFO] 2024-02-22 00:29:09 > Run name : test
[INFO] 2024-02-22 00:29:09 > cfgs.DATA =
[INFO] 2024-02-22 00:29:09 > {
  "name": "LSFB",
  "input_size": [
    15,
    32,
    3
  ],
  "num_classes": 999,
  "min_samples": 20,
  "oversample": true,
  "poses": [
    [
      "right_hand",
      "all"
    ],
    [
      "left_hand",
…
[INFO] 2024-02-22 02:25:14 > cfgs.PRE =
[INFO] 2024-02-22 02:25:14 > {
  "apply_rflip": true
}
[INFO] 2024-02-22 02:25:14 > cfgs.AUG =
[INFO] 2024-02-22 02:25:14 > {}
[INFO] 2024-02-22 02:25:14 > cfgs.RUN =
[INFO] 2024-02-22 02:25:14 > {
  "mixed_precision": false
}
[INFO] 2024-02-22 02:25:14 > Build the model.
[INFO] 2024-02-22 02:25:14 > Modules are located on './src/models.conv1d'.
[INFO] 2024-02-22 02:25:16 > Number of parameters: 88129629
[INFO] 2024-02-22 02:25:16 > Classifier(
  (blocks): ModuleList(
    (0): ModuleList(
      (0): Block(
        (conv1d0): Conv1DBlock(
          (in_linear): Linear(in_features=519, out_features=1038, bias=True)
          (conv1d): conv1d(
            (pad): ConstantPad1d(padding=(16, 0), value=0)
            (conv): Conv1d(1038, 1038, kernel_size=(17,), stride=(1,), padding=valid)
          )
          (eca): eca(
            (avg_pool): AdaptiveAvgPool2d(output_size=1)
            (conv): Conv1d(1, 1, kernel_size=(3,), stride=(1,), padding=(1,), bias=False)
            (sigmoid): Sigmoid()
          )
          (bn): BatchNorm1d(1038, eps=0.0001, momentum=0.1, affine=True, track_running_stats=True)
          (out_linear): Linear(in_features=1038, out_features=519, bias=True)
          (dropout): Dropout(p=0.2, inplace=False)
          (activation): ReLU(inplace=True)
        )
        (conv1d1): Conv1DBlock(
          (in_linear): Linear(in_features=519, out_features=1038, bias=True)
          (conv1d): conv1d(
            (pad): ConstantPad1d(padding=(16, 0), value=0)
            (conv): Conv1d(1038, 1038, kernel_size=(17,), stride=(1,), padding=valid)
          )
          (eca): eca(
            (avg_pool): AdaptiveAvgPool2d(output_size=1)
            (conv): Conv1d(1, 1, kernel_size=(3,), stride=(1,), padding=(1,), bias=False)
            (sigmoid): Sigmoid()
          )
          (bn): BatchNorm1d(1038, eps=0.0001, momentum=0.1, affine=True, track_running_stats=True)
          (out_linear): Linear(in_features=1038, out_features=519, bias=True)
          (dropout): Dropout(p=0.2, inplace=False)
          (activation): ReLU(inplace=True)
        )
        (conv1d2): Conv1DBlock(
          (in_linear): Linear(in_features=519, out_features=512, bias=True)
          (conv1d): conv1d(
            (pad): ConstantPad1d(padding=(16, 0), value=0)
            (conv): Conv1d(512, 512, kernel_size=(17,), stride=(1,), padding=valid)
          )
          (eca): eca(
            (avg_pool): AdaptiveAvgPool2d(output_size=1)
            (conv): Conv1d(1, 1, kernel_size=(3,), stride=(1,), padding=(1,), bias=False)
            (sigmoid): Sigmoid()
          )
          (bn): BatchNorm1d(512, eps=0.0001, momentum=0.1, affine=True, track_running_stats=True)
          (out_linear): Linear(in_features=512, out_features=256, bias=True)
          (dropout): Dropout(p=0.2, inplace=False)
          (activation): ReLU(inplace=True)
        )
        (bn): BatchNorm1d(519, eps=0.0001, momentum=0.1, affine=True, track_running_stats=True)
      )
    )
    (1): ModuleList(
      (0): TransformerEncoderLayer(
        (self_attn): MultiheadAttention(
          (out_proj): NonDynamicallyQuantizableLinear(in_features=256, out_features=256, bias=True)
        )
        (linear1): Linear(in_features=256, out_features=256, bias=True)
        (dropout): Dropout(p=0.2, inplace=False)
        (linear2): Linear(in_features=256, out_features=256, bias=True)
        (norm1): LayerNorm((256,), eps=1e-05, elementwise_affine=True)
        (norm2): LayerNorm((256,), eps=1e-05, elementwise_affine=True)
        (dropout1): Dropout(p=0.2, inplace=False)
        (dropout2): Dropout(p=0.2, inplace=False)
      )
    )
    (2): ModuleList(
      (0): Block(
        (conv1d0): Conv1DBlock(
          (in_linear): Linear(in_features=256, out_features=512, bias=True)
          (conv1d): conv1d(
            (pad): ConstantPad1d(padding=(16, 0), value=0)
            (conv): Conv1d(512, 512, kernel_size=(17,), stride=(1,), padding=valid)
          )
          (eca): eca(
            (avg_pool): AdaptiveAvgPool2d(output_size=1)
            (conv): Conv1d(1, 1, kernel_size=(3,), stride=(1,), padding=(1,), bias=False)
            (sigmoid): Sigmoid()
          )
          (bn): BatchNorm1d(512, eps=0.0001, momentum=0.1, affine=True, track_running_stats=True)
          (out_linear): Linear(in_features=512, out_features=256, bias=True)
          (dropout): Dropout(p=0.2, inplace=False)
          (activation): ReLU(inplace=True)
        )
        (conv1d1): Conv1DBlock(
          (in_linear): Linear(in_features=256, out_features=512, bias=True)
          (conv1d): conv1d(
            (pad): ConstantPad1d(padding=(16, 0), value=0)
            (conv): Conv1d(512, 512, kernel_size=(17,), stride=(1,), padding=valid)
          )
          (eca): eca(
            (avg_pool): AdaptiveAvgPool2d(output_size=1)
            (conv): Conv1d(1, 1, kernel_size=(3,), stride=(1,), padding=(1,), bias=False)
            (sigmoid): Sigmoid()
          )
          (bn): BatchNorm1d(512, eps=0.0001, momentum=0.1, affine=True, track_running_stats=True)
          (out_linear): Linear(in_features=512, out_features=256, bias=True)
          (dropout): Dropout(p=0.2, inplace=False)
          (activation): ReLU(inplace=True)
        )
        (conv1d2): Conv1DBlock(
          (in_linear): Linear(in_features=256, out_features=512, bias=True)
          (conv1d): conv1d(
            (pad): ConstantPad1d(padding=(16, 0), value=0)
            (conv): Conv1d(512, 512, kernel_size=(17,), stride=(1,), padding=valid)
          )
          (eca): eca(
            (avg_pool): AdaptiveAvgPool2d(output_size=1)
            (conv): Conv1d(1, 1, kernel_size=(3,), stride=(1,), padding=(1,), bias=False)
            (sigmoid): Sigmoid()
          )
          (bn): BatchNorm1d(512, eps=0.0001, momentum=0.1, affine=True, track_running_stats=True)
          (out_linear): Linear(in_features=512, out_features=256, bias=True)
          (dropout): Dropout(p=0.2, inplace=False)
          (activation): ReLU(inplace=True)
        )
        (bn): BatchNorm1d(256, eps=0.0001, momentum=0.1, affine=True, track_running_stats=True)
      )
    )
    (3): ModuleList(
      (0): TransformerEncoderLayer(
        (self_attn): MultiheadAttention(
          (out_proj): NonDynamicallyQuantizableLinear(in_features=256, out_features=256, bias=True)
        )
        (linear1): Linear(in_features=256, out_features=256, bias=True)
        (dropout): Dropout(p=0.2, inplace=False)
        (linear2): Linear(in_features=256, out_features=256, bias=True)
        (norm1): LayerNorm((256,), eps=1e-05, elementwise_affine=True)
        (norm2): LayerNorm((256,), eps=1e-05, elementwise_affine=True)
        (dropout1): Dropout(p=0.2, inplace=False)
        (dropout2): Dropout(p=0.2, inplace=False)
      )
    )
    (4): ModuleList(
      (0): Block(
        (conv1d0): Conv1DBlock(
          (in_linear): Linear(in_features=256, out_features=512, bias=True)
          (conv1d): conv1d(
            (pad): ConstantPad1d(padding=(16, 0), value=0)
…
          (bn): BatchNorm1d(128, eps=0.0001, momentum=0.1, affine=True, track_running_stats=True)
          (out_linear): Linear(in_features=128, out_features=64, bias=True)
          (dropout): Dropout(p=0.2, inplace=False)
          (drop_path): StochasticDepth(p=0.0, mode=batch)
          (activation): GELU(approximate='none')
        )
        (conv1d2): Conv1DBlock(
          (in_linear): Linear(in_features=64, out_features=128, bias=True)
          (conv1d): dwconv1d(
            (pad): ConstantPad1d(padding=(16, 0), value=0)
            (conv): Conv1d(128, 128, kernel_size=(17,), stride=(1,), padding=valid, groups=128)
          )
          (eca): eca(
            (avg_pool): AdaptiveAvgPool2d(output_size=1)
            (conv): Conv1d(1, 1, kernel_size=(3,), stride=(1,), padding=(1,), bias=False)
            (sigmoid): Sigmoid()
          )
          (bn): BatchNorm1d(128, eps=0.0001, momentum=0.1, affine=True, track_running_stats=True)
          (out_linear): Linear(in_features=128, out_features=64, bias=True)
          (dropout): Dropout(p=0.2, inplace=False)
          (drop_path): StochasticDepth(p=0.0, mode=batch)
          (activation): GELU(approximate='none')
        )
        (bn): BatchNorm1d(64, eps=0.0001, momentum=0.1, affine=True, track_running_stats=True)
      )
    )
    (5): ModuleList(
      (0): TransformerEncoderLayer(
        (self_attn): MultiheadAttention(
          (out_proj): NonDynamicallyQuantizableLinear(in_features=64, out_features=64, bias=True)
        )
        (linear1): Linear(in_features=64, out_features=64, bias=True)
        (dropout): Dropout(p=0.2, inplace=False)
        (linear2): Linear(in_features=64, out_features=64, bias=True)
        (norm1): LayerNorm((64,), eps=1e-05, elementwise_affine=True)
        (norm2): LayerNorm((64,), eps=1e-05, elementwise_affine=True)
        (dropout1): Dropout(p=0.2, inplace=False)
        (dropout2): Dropout(p=0.2, inplace=False)
      )
    )
    (6): ModuleList(
      (0): Block(
        (conv1d0): Conv1DBlock(
          (in_linear): Linear(in_features=64, out_features=128, bias=True)
          (conv1d): dwconv1d(
            (pad): ConstantPad1d(padding=(16, 0), value=0)
            (conv): Conv1d(128, 128, kernel_size=(17,), stride=(1,), padding=valid, groups=128)
          )
          (eca): eca(
            (avg_pool): AdaptiveAvgPool2d(output_size=1)
            (conv): Conv1d(1, 1, kernel_size=(3,), stride=(1,), padding=(1,), bias=False)
            (sigmoid): Sigmoid()
          )
          (bn): BatchNorm1d(128, eps=0.0001, momentum=0.1, affine=True, track_running_stats=True)
          (out_linear): Linear(in_features=128, out_features=64, bias=True)
          (dropout): Dropout(p=0.2, inplace=False)
          (drop_path): StochasticDepth(p=0.0, mode=batch)
          (activation): GELU(approximate='none')
        )
        (conv1d1): Conv1DBlock(
          (in_linear): Linear(in_features=64, out_features=128, bias=True)
          (conv1d): dwconv1d(
            (pad): ConstantPad1d(padding=(16, 0), value=0)
            (conv): Conv1d(128, 128, kernel_size=(17,), stride=(1,), padding=valid, groups=128)
          )
          (eca): eca(
            (avg_pool): AdaptiveAvgPool2d(output_size=1)
            (conv): Conv1d(1, 1, kernel_size=(3,), stride=(1,), padding=(1,), bias=False)
            (sigmoid): Sigmoid()
          )
          (bn): BatchNorm1d(128, eps=0.0001, momentum=0.1, affine=True, track_running_stats=True)
          (out_linear): Linear(in_features=128, out_features=64, bias=True)
          (dropout): Dropout(p=0.2, inplace=False)
          (drop_path): StochasticDepth(p=0.0, mode=batch)
          (activation): GELU(approximate='none')
        )
        (conv1d2): Conv1DBlock(
          (in_linear): Linear(in_features=64, out_features=128, bias=True)
          (conv1d): dwconv1d(
            (pad): ConstantPad1d(padding=(16, 0), value=0)
            (conv): Conv1d(128, 128, kernel_size=(17,), stride=(1,), padding=valid, groups=128)
          )
          (eca): eca(
            (avg_pool): AdaptiveAvgPool2d(output_size=1)
            (conv): Conv1d(1, 1, kernel_size=(3,), stride=(1,), padding=(1,), bias=False)
            (sigmoid): Sigmoid()
          )
          (bn): BatchNorm1d(128, eps=0.0001, momentum=0.1, affine=True, track_running_stats=True)
          (out_linear): Linear(in_features=128, out_features=64, bias=True)
          (dropout): Dropout(p=0.2, inplace=False)
          (drop_path): StochasticDepth(p=0.0, mode=batch)
          (activation): GELU(approximate='none')
        )
        (bn): BatchNorm1d(64, eps=0.0001, momentum=0.1, affine=True, track_running_stats=True)
      )
    )
    (7): ModuleList(
      (0): TransformerEncoderLayer(
        (self_attn): MultiheadAttention(
          (out_proj): NonDynamicallyQuantizableLinear(in_features=64, out_features=64, bias=True)
        )
        (linear1): Linear(in_features=64, out_features=64, bias=True)
        (dropout): Dropout(p=0.2, inplace=False)
        (linear2): Linear(in_features=64, out_features=64, bias=True)
        (norm1): LayerNorm((64,), eps=1e-05, elementwise_affine=True)
        (norm2): LayerNorm((64,), eps=1e-05, elementwise_affine=True)
        (dropout1): Dropout(p=0.2, inplace=False)
        (dropout2): Dropout(p=0.2, inplace=False)
      )
    )
  )
  (inlinear): Linear(in_features=297, out_features=32, bias=False)
  (bn): BatchNorm1d(16, eps=0.0001, momentum=0.1, affine=True, track_running_stats=True)
  (top_linear): Linear(in_features=64, out_features=128, bias=True)
  (outlinear): Linear(in_features=16, out_features=637, bias=True)
  (dropout): Dropout(p=0.2, inplace=False)
)
[INFO] 2024-04-04 11:07:37 > Run name : test
[INFO] 2024-04-04 11:07:37 > cfgs.DATA =
[INFO] 2024-04-04 11:07:37 > {
  "name": "LSFB",
  "input_size": [
    16,
    99,
    3
  ],
  "num_classes": 637,
  "min_samples": 20,
  "max_len": 16,
  "oversample": true,
  "poses": [
    [
      "pose",
      "all"
    ],
…
[INFO] 2024-04-08 20:41:03 > cfgs.PRE =
[INFO] 2024-04-08 20:41:03 > {
  "apply_rflip": true
}
[INFO] 2024-04-08 20:41:03 > cfgs.AUG =
[INFO] 2024-04-08 20:41:03 > {}
[INFO] 2024-04-08 20:41:03 > cfgs.RUN =
[INFO] 2024-04-08 20:41:03 > {
  "mixed_precision": false
}
[INFO] 2024-04-08 20:41:04 > Build the model.
[INFO] 2024-04-08 20:41:04 > Modules are located on './src/models.conv1d'.
[INFO] 2024-04-08 20:41:12 > Number of parameters: 675148
[INFO] 2024-04-08 20:41:12 > EMA(
  (online_model): Classifier(
    (blocks): ModuleList(
      (0): ModuleList(
        (0): Block(
          (conv1d0): Conv1DBlock(
            (in_linear): Linear(in_features=32, out_features=64, bias=True)
            (conv1d): dwconv1d(
              (pad): ConstantPad1d(padding=(16, 0), value=0)
              (conv): Conv1d(64, 64, kernel_size=(17,), stride=(1,), padding=valid, groups=64)
            )
            (eca): eca(
              (avg_pool): AdaptiveAvgPool2d(output_size=1)
              (conv): Conv1d(1, 1, kernel_size=(3,), stride=(1,), padding=(1,), bias=False)
              (sigmoid): Sigmoid()
            )
            (bn): BatchNorm1d(64, eps=0.0001, momentum=0.1, affine=True, track_running_stats=True)
            (out_linear): Linear(in_features=64, out_features=32, bias=True)
            (dropout): Dropout(p=0.2, inplace=False)
            (drop_path): StochasticDepth(p=0.0, mode=batch)
            (activation): GELU(approximate='none')
          )
          (conv1d1): Conv1DBlock(
            (in_linear): Linear(in_features=32, out_features=64, bias=True)
            (conv1d): dwconv1d(
              (pad): ConstantPad1d(padding=(16, 0), value=0)
              (conv): Conv1d(64, 64, kernel_size=(17,), stride=(1,), padding=valid, groups=64)
            )
            (eca): eca(
              (avg_pool): AdaptiveAvgPool2d(output_size=1)
              (conv): Conv1d(1, 1, kernel_size=(3,), stride=(1,), padding=(1,), bias=False)
              (sigmoid): Sigmoid()
            )
            (bn): BatchNorm1d(64, eps=0.0001, momentum=0.1, affine=True, track_running_stats=True)
            (out_linear): Linear(in_features=64, out_features=32, bias=True)
            (dropout): Dropout(p=0.2, inplace=False)
            (drop_path): StochasticDepth(p=0.0, mode=batch)
            (activation): GELU(approximate='none')
          )
          (conv1d2): Conv1DBlock(
            (in_linear): Linear(in_features=32, out_features=128, bias=True)
            (conv1d): dwconv1d(
              (pad): ConstantPad1d(padding=(16, 0), value=0)
              (conv): Conv1d(128, 128, kernel_size=(17,), stride=(1,), padding=valid, groups=128)
            )
            (eca): eca(
              (avg_pool): AdaptiveAvgPool2d(output_size=1)
              (conv): Conv1d(1, 1, kernel_size=(3,), stride=(1,), padding=(1,), bias=False)
              (sigmoid): Sigmoid()
            )
            (bn): BatchNorm1d(128, eps=0.0001, momentum=0.1, affine=True, track_running_stats=True)
            (out_linear): Linear(in_features=128, out_features=64, bias=True)
            (dropout): Dropout(p=0.2, inplace=False)
            (drop_path): StochasticDepth(p=0.0, mode=batch)
            (activation): GELU(approximate='none')
          )
          (bn): BatchNorm1d(32, eps=0.0001, momentum=0.1, affine=True, track_running_stats=True)
        )
      )
      (1): ModuleList(
        (0): TransformerEncoderLayer(
          (self_attn): MultiheadAttention(
            (out_proj): NonDynamicallyQuantizableLinear(in_features=64, out_features=64, bias=True)
          )
          (linear1): Linear(in_features=64, out_features=64, bias=True)
          (dropout): Dropout(p=0.2, inplace=False)
          (linear2): Linear(in_features=64, out_features=64, bias=True)
          (norm1): LayerNorm((64,), eps=1e-05, elementwise_affine=True)
          (norm2): LayerNorm((64,), eps=1e-05, elementwise_affine=True)
          (dropout1): Dropout(p=0.2, inplace=False)
          (dropout2): Dropout(p=0.2, inplace=False)
        )
      )
      (2): ModuleList(
        (0): Block(
          (conv1d0): Conv1DBlock(
            (in_linear): Linear(in_features=64, out_features=128, bias=True)
            (conv1d): dwconv1d(
              (pad): ConstantPad1d(padding=(16, 0), value=0)
              (conv): Conv1d(128, 128, kernel_size=(17,), stride=(1,), padding=valid, groups=128)
            )
            (eca): eca(
              (avg_pool): AdaptiveAvgPool2d(output_size=1)
              (conv): Conv1d(1, 1, kernel_size=(3,), stride=(1,), padding=(1,), bias=False)
              (sigmoid): Sigmoid()
            )
            (bn): BatchNorm1d(128, eps=0.0001, momentum=0.1, affine=True, track_running_stats=True)
            (out_linear): Linear(in_features=128, out_features=64, bias=True)
            (dropout): Dropout(p=0.2, inplace=False)
            (drop_path): StochasticDepth(p=0.0, mode=batch)
            (activation): GELU(approximate='none')
          )
          (conv1d1): Conv1DBlock(
            (in_linear): Linear(in_features=64, out_features=128, bias=True)
            (conv1d): dwconv1d(
              (pad): ConstantPad1d(padding=(16, 0), value=0)
              (conv): Conv1d(128, 128, kernel_size=(17,), stride=(1,), padding=valid, groups=128)
            )
            (eca): eca(
              (avg_pool): AdaptiveAvgPool2d(output_size=1)
              (conv): Conv1d(1, 1, kernel_size=(3,), stride=(1,), padding=(1,), bias=False)
              (sigmoid): Sigmoid()
            )
            (bn): BatchNorm1d(128, eps=0.0001, momentum=0.1, affine=True, track_running_stats=True)
            (out_linear): Linear(in_features=128, out_features=64, bias=True)
            (dropout): Dropout(p=0.2, inplace=False)
            (drop_path): StochasticDepth(p=0.0, mode=batch)
            (activation): GELU(approximate='none')
          )
          (conv1d2): Conv1DBlock(
            (in_linear): Linear(in_features=64, out_features=128, bias=True)
            (conv1d): dwconv1d(
              (pad): ConstantPad1d(padding=(16, 0), value=0)
              (conv): Conv1d(128, 128, kernel_size=(17,), stride=(1,), padding=valid, groups=128)
            )
            (eca): eca(
              (avg_pool): AdaptiveAvgPool2d(output_size=1)
              (conv): Conv1d(1, 1, kernel_size=(3,), stride=(1,), padding=(1,), bias=False)
              (sigmoid): Sigmoid()
            )
            (bn): BatchNorm1d(128, eps=0.0001, momentum=0.1, affine=True, track_running_stats=True)
            (out_linear): Linear(in_features=128, out_features=64, bias=True)
            (dropout): Dropout(p=0.2, inplace=False)
            (drop_path): StochasticDepth(p=0.0, mode=batch)
            (activation): GELU(approximate='none')
          )
          (bn): BatchNorm1d(64, eps=0.0001, momentum=0.1, affine=True, track_running_stats=True)
        )
      )
      (3): ModuleList(
        (0): TransformerEncoderLayer(
          (self_attn): MultiheadAttention(
            (out_proj): NonDynamicallyQuantizableLinear(in_features=64, out_features=64, bias=True)
          )
          (linear1): Linear(in_features=64, out_features=64, bias=True)
          (dropout): Dropout(p=0.2, inplace=False)
          (linear2): Linear(in_features=64, out_features=64, bias=True)
          (norm1): LayerNorm((64,), eps=1e-05, elementwise_affine=True)
          (norm2): LayerNorm((64,), eps=1e-05, elementwise_affine=True)
          (dropout1): Dropout(p=0.2, inplace=False)
          (dropout2): Dropout(p=0.2, inplace=False)
        )
      )
      (4): ModuleList(
        (0): Block(
          (conv1d0): Conv1DBlock(
            (in_linear): Linear(in_features=64, out_features=128, bias=True)
            (conv1d): dwconv1d(
              (pad): ConstantPad1d(padding=(16, 0), value=0)
              (conv): Conv1d(128, 128, kernel_size=(17,), stride=(1,), padding=valid, groups=128)
            )
            (eca): eca(
              (avg_pool): AdaptiveAvgPool2d(output_size=1)
              (conv): Conv1d(1, 1, kernel_size=(3,), stride=(1,), padding=(1,), bias=False)
              (sigmoid): Sigmoid()
            )
            (bn): BatchNorm1d(128, eps=0.0001, momentum=0.1, affine=True, track_running_stats=True)
            (out_linear): Linear(in_features=128, out_features=64, bias=True)
            (dropout): Dropout(p=0.2, inplace=False)
            (drop_path): StochasticDepth(p=0.0, mode=batch)
            (activation): GELU(approximate='none')
          )
          (conv1d1): Conv1DBlock(
            (in_linear): Linear(in_features=64, out_features=128, bias=True)
            (conv1d): dwconv1d(
              (pad): ConstantPad1d(padding=(16, 0), value=0)
              (conv): Conv1d(128, 128, kernel_size=(17,), stride=(1,), padding=valid, groups=128)
            )
            (eca): eca(
              (avg_pool): AdaptiveAvgPool2d(output_size=1)
              (conv): Conv1d(1, 1, kernel_size=(3,), stride=(1,), padding=(1,), bias=False)
              (sigmoid): Sigmoid()
            )
            (bn): BatchNorm1d(128, eps=0.0001, momentum=0.1, affine=True, track_running_stats=True)
            (out_linear): Linear(in_features=128, out_features=64, bias=True)
            (dropout): Dropout(p=0.2, inplace=False)
            (drop_path): StochasticDepth(p=0.0, mode=batch)
            (activation): GELU(approximate='none')
          )
          (conv1d2): Conv1DBlock(
            (in_linear): Linear(in_features=64, out_features=128, bias=True)
            (conv1d): dwconv1d(
              (pad): ConstantPad1d(padding=(16, 0), value=0)
              (conv): Conv1d(128, 128, kernel_size=(17,), stride=(1,), padding=valid, groups=128)
            )
            (eca): eca(
              (avg_pool): AdaptiveAvgPool2d(output_size=1)
              (conv): Conv1d(1, 1, kernel_size=(3,), stride=(1,), padding=(1,), bias=False)
              (sigmoid): Sigmoid()
            )
            (bn): BatchNorm1d(128, eps=0.0001, momentum=0.1, affine=True, track_running_stats=True)
            (out_linear): Linear(in_features=128, out_features=64, bias=True)
            (dropout): Dropout(p=0.2, inplace=False)
            (drop_path): StochasticDepth(p=0.0, mode=batch)
            (activation): GELU(approximate='none')
          )
          (bn): BatchNorm1d(64, eps=0.0001, momentum=0.1, affine=True, track_running_stats=True)
        )
      )
      (5): ModuleList(
        (0): TransformerEncoderLayer(
          (self_attn): MultiheadAttention(
            (out_proj): NonDynamicallyQuantizableLinear(in_features=64, out_features=64, bias=True)
          )
          (linear1): Linear(in_features=64, out_features=64, bias=True)
          (dropout): Dropout(p=0.2, inplace=False)
          (linear2): Linear(in_features=64, out_features=64, bias=True)
          (norm1): LayerNorm((64,), eps=1e-05, elementwise_affine=True)
          (norm2): LayerNorm((64,), eps=1e-05, elementwise_affine=True)
          (dropout1): Dropout(p=0.2, inplace=False)
          (dropout2): Dropout(p=0.2, inplace=False)
        )
      )
      (6): ModuleList(
        (0): Block(
          (conv1d0): Conv1DBlock(
            (in_linear): Linear(in_features=64, out_features=128, bias=True)
            (conv1d): dwconv1d(
              (pad): ConstantPad1d(padding=(16, 0), value=0)
              (conv): Conv1d(128, 128, kernel_size=(17,), stride=(1,), padding=valid, groups=128)
            )
            (eca): eca(
              (avg_pool): AdaptiveAvgPool2d(output_size=1)
              (conv): Conv1d(1, 1, kernel_size=(3,), stride=(1,), padding=(1,), bias=False)
              (sigmoid): Sigmoid()
            )
            (bn): BatchNorm1d(128, eps=0.0001, momentum=0.1, affine=True, track_running_stats=True)
            (out_linear): Linear(in_features=128, out_features=64, bias=True)
            (dropout): Dropout(p=0.2, inplace=False)
            (drop_path): StochasticDepth(p=0.0, mode=batch)
            (activation): GELU(approximate='none')
          )
          (conv1d1): Conv1DBlock(
            (in_linear): Linear(in_features=64, out_features=128, bias=True)
            (conv1d): dwconv1d(
              (pad): ConstantPad1d(padding=(16, 0), value=0)
              (conv): Conv1d(128, 128, kernel_size=(17,), stride=(1,), padding=valid, groups=128)
            )
            (eca): eca(
              (avg_pool): AdaptiveAvgPool2d(output_size=1)
              (conv): Conv1d(1, 1, kernel_size=(3,), stride=(1,), padding=(1,), bias=False)
              (sigmoid): Sigmoid()
            )
            (bn): BatchNorm1d(128, eps=0.0001, momentum=0.1, affine=True, track_running_stats=True)
            (out_linear): Linear(in_features=128, out_features=64, bias=True)
            (dropout): Dropout(p=0.2, inplace=False)
            (drop_path): StochasticDepth(p=0.0, mode=batch)
            (activation): GELU(approximate='none')
          )
          (conv1d2): Conv1DBlock(
            (in_linear): Linear(in_features=64, out_features=128, bias=True)
            (conv1d): dwconv1d(
              (pad): ConstantPad1d(padding=(16, 0), value=0)
              (conv): Conv1d(128, 128, kernel_size=(17,), stride=(1,), padding=valid, groups=128)
            )
            (eca): eca(
              (avg_pool): AdaptiveAvgPool2d(output_size=1)
              (conv): Conv1d(1, 1, kernel_size=(3,), stride=(1,), padding=(1,), bias=False)
              (sigmoid): Sigmoid()
            )
            (bn): BatchNorm1d(128, eps=0.0001, momentum=0.1, affine=True, track_running_stats=True)
            (out_linear): Linear(in_features=128, out_features=64, bias=True)
            (dropout): Dropout(p=0.2, inplace=False)
            (drop_path): StochasticDepth(p=0.0, mode=batch)
            (activation): GELU(approximate='none')
          )
          (bn): BatchNorm1d(64, eps=0.0001, momentum=0.1, affine=True, track_running_stats=True)
        )
      )
      (7): ModuleList(
        (0): TransformerEncoderLayer(
          (self_attn): MultiheadAttention(
            (out_proj): NonDynamicallyQuantizableLinear(in_features=64, out_features=64, bias=True)
          )
          (linear1): Linear(in_features=64, out_features=64, bias=True)
          (dropout): Dropout(p=0.2, inplace=False)
          (linear2): Linear(in_features=64, out_features=64, bias=True)
          (norm1): LayerNorm((64,), eps=1e-05, elementwise_affine=True)
          (norm2): LayerNorm((64,), eps=1e-05, elementwise_affine=True)
          (dropout1): Dropout(p=0.2, inplace=False)
          (dropout2): Dropout(p=0.2, inplace=False)
        )
      )
    )
    (inlinear): Linear(in_features=297, out_features=32, bias=False)
    (bn): BatchNorm1d(32, eps=0.0001, momentum=0.1, affine=True, track_running_stats=True)
    (top_linear): Linear(in_features=64, out_features=128, bias=True)
    (outlinear): Linear(in_features=32, out_features=610, bias=True)
    (dropout): Dropout(p=0.2, inplace=False)
  )
  (ema_model): Classifier(
    (blocks): ModuleList(
      (0): ModuleList(
        (0): Block(
          (conv1d0): Conv1DBlock(
            (in_linear): Linear(in_features=32, out_features=64, bias=True)
            (conv1d): dwconv1d(
              (pad): ConstantPad1d(padding=(16, 0), value=0)
              (conv): Conv1d(64, 64, kernel_size=(17,), stride=(1,), padding=valid, groups=64)
            )
            (eca): eca(
              (avg_pool): AdaptiveAvgPool2d(output_size=1)
              (conv): Conv1d(1, 1, kernel_size=(3,), stride=(1,), padding=(1,), bias=False)
              (sigmoid): Sigmoid()
            )
            (bn): BatchNorm1d(64, eps=0.0001, momentum=0.1, affine=True, track_running_stats=True)
            (out_linear): Linear(in_features=64, out_features=32, bias=True)
            (dropout): Dropout(p=0.2, inplace=False)
            (drop_path): StochasticDepth(p=0.0, mode=batch)
            (activation): GELU(approximate='none')
          )
          (conv1d1): Conv1DBlock(
            (in_linear): Linear(in_features=32, out_features=64, bias=True)
            (conv1d): dwconv1d(
              (pad): ConstantPad1d(padding=(16, 0), value=0)
              (conv): Conv1d(64, 64, kernel_size=(17,), stride=(1,), padding=valid, groups=64)
            )
            (eca): eca(
              (avg_pool): AdaptiveAvgPool2d(output_size=1)
              (conv): Conv1d(1, 1, kernel_size=(3,), stride=(1,), padding=(1,), bias=False)
              (sigmoid): Sigmoid()
            )
            (bn): BatchNorm1d(64, eps=0.0001, momentum=0.1, affine=True, track_running_stats=True)
            (out_linear): Linear(in_features=64, out_features=32, bias=True)
            (dropout): Dropout(p=0.2, inplace=False)
            (drop_path): StochasticDepth(p=0.0, mode=batch)
            (activation): GELU(approximate='none')
          )
          (conv1d2): Conv1DBlock(
            (in_linear): Linear(in_features=32, out_features=128, bias=True)
            (conv1d): dwconv1d(
              (pad): ConstantPad1d(padding=(16, 0), value=0)
              (conv): Conv1d(128, 128, kernel_size=(17,), stride=(1,), padding=valid, groups=128)
            )
            (eca): eca(
              (avg_pool): AdaptiveAvgPool2d(output_size=1)
              (conv): Conv1d(1, 1, kernel_size=(3,), stride=(1,), padding=(1,), bias=False)
              (sigmoid): Sigmoid()
            )
            (bn): BatchNorm1d(128, eps=0.0001, momentum=0.1, affine=True, track_running_stats=True)
            (out_linear): Linear(in_features=128, out_features=64, bias=True)
            (dropout): Dropout(p=0.2, inplace=False)
            (drop_path): StochasticDepth(p=0.0, mode=batch)
            (activation): GELU(approximate='none')
          )
          (bn): BatchNorm1d(32, eps=0.0001, momentum=0.1, affine=True, track_running_stats=True)
        )
      )
      (1): ModuleList(
        (0): TransformerEncoderLayer(
          (self_attn): MultiheadAttention(
            (out_proj): NonDynamicallyQuantizableLinear(in_features=64, out_features=64, bias=True)
          )
          (linear1): Linear(in_features=64, out_features=64, bias=True)
          (dropout): Dropout(p=0.2, inplace=False)
          (linear2): Linear(in_features=64, out_features=64, bias=True)
          (norm1): LayerNorm((64,), eps=1e-05, elementwise_affine=True)
          (norm2): LayerNorm((64,), eps=1e-05, elementwise_affine=True)
          (dropout1): Dropout(p=0.2, inplace=False)
          (dropout2): Dropout(p=0.2, inplace=False)
        )
      )
      (2): ModuleList(
        (0): Block(
          (conv1d0): Conv1DBlock(
            (in_linear): Linear(in_features=64, out_features=128, bias=True)
            (conv1d): dwconv1d(
              (pad): ConstantPad1d(padding=(16, 0), value=0)
              (conv): Conv1d(128, 128, kernel_size=(17,), stride=(1,), padding=valid, groups=128)
            )
            (eca): eca(
              (avg_pool): AdaptiveAvgPool2d(output_size=1)
              (conv): Conv1d(1, 1, kernel_size=(3,), stride=(1,), padding=(1,), bias=False)
              (sigmoid): Sigmoid()
            )
            (bn): BatchNorm1d(128, eps=0.0001, momentum=0.1, affine=True, track_running_stats=True)
            (out_linear): Linear(in_features=128, out_features=64, bias=True)
            (dropout): Dropout(p=0.2, inplace=False)
            (drop_path): StochasticDepth(p=0.0, mode=batch)
            (activation): GELU(approximate='none')
          )
          (conv1d1): Conv1DBlock(
            (in_linear): Linear(in_features=64, out_features=128, bias=True)
            (conv1d): dwconv1d(
              (pad): ConstantPad1d(padding=(16, 0), value=0)
              (conv): Conv1d(128, 128, kernel_size=(17,), stride=(1,), padding=valid, groups=128)
            )
            (eca): eca(
              (avg_pool): AdaptiveAvgPool2d(output_size=1)
              (conv): Conv1d(1, 1, kernel_size=(3,), stride=(1,), padding=(1,), bias=False)
              (sigmoid): Sigmoid()
            )
            (bn): BatchNorm1d(128, eps=0.0001, momentum=0.1, affine=True, track_running_stats=True)
            (out_linear): Linear(in_features=128, out_features=64, bias=True)
            (dropout): Dropout(p=0.2, inplace=False)
            (drop_path): StochasticDepth(p=0.0, mode=batch)
            (activation): GELU(approximate='none')
          )
          (conv1d2): Conv1DBlock(
            (in_linear): Linear(in_features=64, out_features=128, bias=True)
            (conv1d): dwconv1d(
              (pad): ConstantPad1d(padding=(16, 0), value=0)
              (conv): Conv1d(128, 128, kernel_size=(17,), stride=(1,), padding=valid, groups=128)
            )
            (eca): eca(
              (avg_pool): AdaptiveAvgPool2d(output_size=1)
              (conv): Conv1d(1, 1, kernel_size=(3,), stride=(1,), padding=(1,), bias=False)
              (sigmoid): Sigmoid()
            )
            (bn): BatchNorm1d(128, eps=0.0001, momentum=0.1, affine=True, track_running_stats=True)
            (out_linear): Linear(in_features=128, out_features=64, bias=True)
            (dropout): Dropout(p=0.2, inplace=False)
            (drop_path): StochasticDepth(p=0.0, mode=batch)
            (activation): GELU(approximate='none')
          )
          (bn): BatchNorm1d(64, eps=0.0001, momentum=0.1, affine=True, track_running_stats=True)
        )
      )
      (3): ModuleList(
        (0): TransformerEncoderLayer(
          (self_attn): MultiheadAttention(
            (out_proj): NonDynamicallyQuantizableLinear(in_features=64, out_features=64, bias=True)
          )
          (linear1): Linear(in_features=64, out_features=64, bias=True)
          (dropout): Dropout(p=0.2, inplace=False)
          (linear2): Linear(in_features=64, out_features=64, bias=True)
          (norm1): LayerNorm((64,), eps=1e-05, elementwise_affine=True)
          (norm2): LayerNorm((64,), eps=1e-05, elementwise_affine=True)
          (dropout1): Dropout(p=0.2, inplace=False)
          (dropout2): Dropout(p=0.2, inplace=False)
        )
      )
      (4): ModuleList(
        (0): Block(
          (conv1d0): Conv1DBlock(
            (in_linear): Linear(in_features=64, out_features=128, bias=True)
            (conv1d): dwconv1d(
              (pad): ConstantPad1d(padding=(16, 0), value=0)
              (conv): Conv1d(128, 128, kernel_size=(17,), stride=(1,), padding=valid, groups=128)
            )
            (eca): eca(
              (avg_pool): AdaptiveAvgPool2d(output_size=1)
              (conv): Conv1d(1, 1, kernel_size=(3,), stride=(1,), padding=(1,), bias=False)
              (sigmoid): Sigmoid()
            )
            (bn): BatchNorm1d(128, eps=0.0001, momentum=0.1, affine=True, track_running_stats=True)
            (out_linear): Linear(in_features=128, out_features=64, bias=True)
            (dropout): Dropout(p=0.2, inplace=False)
            (drop_path): StochasticDepth(p=0.0, mode=batch)
            (activation): GELU(approximate='none')
          )
          (conv1d1): Conv1DBlock(
            (in_linear): Linear(in_features=64, out_features=128, bias=True)
            (conv1d): dwconv1d(
              (pad): ConstantPad1d(padding=(16, 0), value=0)
              (conv): Conv1d(128, 128, kernel_size=(17,), stride=(1,), padding=valid, groups=128)
            )
            (eca): eca(
              (avg_pool): AdaptiveAvgPool2d(output_size=1)
              (conv): Conv1d(1, 1, kernel_size=(3,), stride=(1,), padding=(1,), bias=False)
              (sigmoid): Sigmoid()
            )
            (bn): BatchNorm1d(128, eps=0.0001, momentum=0.1, affine=True, track_running_stats=True)
            (out_linear): Linear(in_features=128, out_features=64, bias=True)
            (dropout): Dropout(p=0.2, inplace=False)
            (drop_path): StochasticDepth(p=0.0, mode=batch)
            (activation): GELU(approximate='none')
          )
          (conv1d2): Conv1DBlock(
            (in_linear): Linear(in_features=64, out_features=128, bias=True)
            (conv1d): dwconv1d(
              (pad): ConstantPad1d(padding=(16, 0), value=0)
              (conv): Conv1d(128, 128, kernel_size=(17,), stride=(1,), padding=valid, groups=128)
            )
            (eca): eca(
              (avg_pool): AdaptiveAvgPool2d(output_size=1)
              (conv): Conv1d(1, 1, kernel_size=(3,), stride=(1,), padding=(1,), bias=False)
              (sigmoid): Sigmoid()
            )
            (bn): BatchNorm1d(128, eps=0.0001, momentum=0.1, affine=True, track_running_stats=True)
            (out_linear): Linear(in_features=128, out_features=64, bias=True)
            (dropout): Dropout(p=0.2, inplace=False)
            (drop_path): StochasticDepth(p=0.0, mode=batch)
            (activation): GELU(approximate='none')
          )
          (bn): BatchNorm1d(64, eps=0.0001, momentum=0.1, affine=True, track_running_stats=True)
        )
      )
      (5): ModuleList(
        (0): TransformerEncoderLayer(
          (self_attn): MultiheadAttention(
            (out_proj): NonDynamicallyQuantizableLinear(in_features=64, out_features=64, bias=True)
          )
          (linear1): Linear(in_features=64, out_features=64, bias=True)
          (dropout): Dropout(p=0.2, inplace=False)
          (linear2): Linear(in_features=64, out_features=64, bias=True)
          (norm1): LayerNorm((64,), eps=1e-05, elementwise_affine=True)
          (norm2): LayerNorm((64,), eps=1e-05, elementwise_affine=True)
          (dropout1): Dropout(p=0.2, inplace=False)
          (dropout2): Dropout(p=0.2, inplace=False)
        )
      )
      (6): ModuleList(
        (0): Block(
          (conv1d0): Conv1DBlock(
            (in_linear): Linear(in_features=64, out_features=128, bias=True)
            (conv1d): dwconv1d(
              (pad): ConstantPad1d(padding=(16, 0), value=0)
              (conv): Conv1d(128, 128, kernel_size=(17,), stride=(1,), padding=valid, groups=128)
            )
            (eca): eca(
              (avg_pool): AdaptiveAvgPool2d(output_size=1)
              (conv): Conv1d(1, 1, kernel_size=(3,), stride=(1,), padding=(1,), bias=False)
              (sigmoid): Sigmoid()
            )
            (bn): BatchNorm1d(128, eps=0.0001, momentum=0.1, affine=True, track_running_stats=True)
            (out_linear): Linear(in_features=128, out_features=64, bias=True)
            (dropout): Dropout(p=0.2, inplace=False)
            (drop_path): StochasticDepth(p=0.0, mode=batch)
            (activation): GELU(approximate='none')
          )
          (conv1d1): Conv1DBlock(
            (in_linear): Linear(in_features=64, out_features=128, bias=True)
            (conv1d): dwconv1d(
              (pad): ConstantPad1d(padding=(16, 0), value=0)
              (conv): Conv1d(128, 128, kernel_size=(17,), stride=(1,), padding=valid, groups=128)
            )
            (eca): eca(
              (avg_pool): AdaptiveAvgPool2d(output_size=1)
              (conv): Conv1d(1, 1, kernel_size=(3,), stride=(1,), padding=(1,), bias=False)
              (sigmoid): Sigmoid()
            )
            (bn): BatchNorm1d(128, eps=0.0001, momentum=0.1, affine=True, track_running_stats=True)
            (out_linear): Linear(in_features=128, out_features=64, bias=True)
            (dropout): Dropout(p=0.2, inplace=False)
            (drop_path): StochasticDepth(p=0.0, mode=batch)
            (activation): GELU(approximate='none')
          )
          (conv1d2): Conv1DBlock(
            (in_linear): Linear(in_features=64, out_features=128, bias=True)
            (conv1d): dwconv1d(
              (pad): ConstantPad1d(padding=(16, 0), value=0)
              (conv): Conv1d(128, 128, kernel_size=(17,), stride=(1,), padding=valid, groups=128)
            )
            (eca): eca(
              (avg_pool): AdaptiveAvgPool2d(output_size=1)
              (conv): Conv1d(1, 1, kernel_size=(3,), stride=(1,), padding=(1,), bias=False)
              (sigmoid): Sigmoid()
            )
            (bn): BatchNorm1d(128, eps=0.0001, momentum=0.1, affine=True, track_running_stats=True)
            (out_linear): Linear(in_features=128, out_features=64, bias=True)
            (dropout): Dropout(p=0.2, inplace=False)
            (drop_path): StochasticDepth(p=0.0, mode=batch)
            (activation): GELU(approximate='none')
          )
          (bn): BatchNorm1d(64, eps=0.0001, momentum=0.1, affine=True, track_running_stats=True)
        )
      )
      (7): ModuleList(
        (0): TransformerEncoderLayer(
          (self_attn): MultiheadAttention(
            (out_proj): NonDynamicallyQuantizableLinear(in_features=64, out_features=64, bias=True)
          )
          (linear1): Linear(in_features=64, out_features=64, bias=True)
          (dropout): Dropout(p=0.2, inplace=False)
          (linear2): Linear(in_features=64, out_features=64, bias=True)
          (norm1): LayerNorm((64,), eps=1e-05, elementwise_affine=True)
          (norm2): LayerNorm((64,), eps=1e-05, elementwise_affine=True)
          (dropout1): Dropout(p=0.2, inplace=False)
          (dropout2): Dropout(p=0.2, inplace=False)
        )
      )
    )
    (inlinear): Linear(in_features=297, out_features=32, bias=False)
    (bn): BatchNorm1d(32, eps=0.0001, momentum=0.1, affine=True, track_running_stats=True)
    (top_linear): Linear(in_features=64, out_features=128, bias=True)
    (outlinear): Linear(in_features=32, out_features=610, bias=True)
    (dropout): Dropout(p=0.2, inplace=False)
  )
)
[INFO] 2024-04-10 22:00:36 > Run name : test
[INFO] 2024-04-10 22:00:36 > cfgs.DATA =
[INFO] 2024-04-10 22:00:36 > {
  "name": "LSFB",
  "input_size": [
    32,
    99,
    3
  ],
  "num_classes": 610,
  "min_samples": 20,
  "max_len": 32,
  "oversample": true,
  "poses": [
    [
      "pose",
      "all"
…
[INFO] 2024-04-12 01:00:01 > cfgs.PRE =
[INFO] 2024-04-12 01:00:01 > {
  "apply_rflip": true
}
[INFO] 2024-04-12 01:00:01 > cfgs.AUG =
[INFO] 2024-04-12 01:00:01 > {}
[INFO] 2024-04-12 01:00:01 > cfgs.RUN =
[INFO] 2024-04-12 01:00:01 > {
  "mixed_precision": false
}
[INFO] 2024-04-12 01:00:03 > Build the model.
[INFO] 2024-04-12 01:00:03 > Modules are located on './src/models.conv1d'.
[INFO] 2024-04-12 01:00:03 > Number of parameters: 337574
[INFO] 2024-04-12 01:00:03 > Classifier(
  (blocks): ModuleList(
    (0): ModuleList(
      (0): Block(
        (conv1d0): Conv1DBlock(
          (in_linear): Linear(in_features=32, out_features=64, bias=True)
          (conv1d): dwconv1d(
            (pad): ConstantPad1d(padding=(16, 0), value=0)
            (conv): Conv1d(64, 64, kernel_size=(17,), stride=(1,), padding=valid, groups=64)
          )
          (eca): eca(
            (avg_pool): AdaptiveAvgPool2d(output_size=1)
            (conv): Conv1d(1, 1, kernel_size=(3,), stride=(1,), padding=(1,), bias=False)
            (sigmoid): Sigmoid()
          )
          (bn): BatchNorm1d(64, eps=0.0001, momentum=0.1, affine=True, track_running_stats=True)
          (out_linear): Linear(in_features=64, out_features=32, bias=True)
          (dropout): Dropout(p=0.2, inplace=False)
          (drop_path): StochasticDepth(p=0.0, mode=batch)
          (activation): GELU(approximate='none')
        )
        (conv1d1): Conv1DBlock(
          (in_linear): Linear(in_features=32, out_features=64, bias=True)
          (conv1d): dwconv1d(
            (pad): ConstantPad1d(padding=(16, 0), value=0)
            (conv): Conv1d(64, 64, kernel_size=(17,), stride=(1,), padding=valid, groups=64)
          )
          (eca): eca(
            (avg_pool): AdaptiveAvgPool2d(output_size=1)
            (conv): Conv1d(1, 1, kernel_size=(3,), stride=(1,), padding=(1,), bias=False)
            (sigmoid): Sigmoid()
          )
          (bn): BatchNorm1d(64, eps=0.0001, momentum=0.1, affine=True, track_running_stats=True)
          (out_linear): Linear(in_features=64, out_features=32, bias=True)
          (dropout): Dropout(p=0.2, inplace=False)
          (drop_path): StochasticDepth(p=0.0, mode=batch)
          (activation): GELU(approximate='none')
        )
        (conv1d2): Conv1DBlock(
          (in_linear): Linear(in_features=32, out_features=128, bias=True)
          (conv1d): dwconv1d(
            (pad): ConstantPad1d(padding=(16, 0), value=0)
            (conv): Conv1d(128, 128, kernel_size=(17,), stride=(1,), padding=valid, groups=128)
          )
          (eca): eca(
            (avg_pool): AdaptiveAvgPool2d(output_size=1)
            (conv): Conv1d(1, 1, kernel_size=(3,), stride=(1,), padding=(1,), bias=False)
            (sigmoid): Sigmoid()
          )
          (bn): BatchNorm1d(128, eps=0.0001, momentum=0.1, affine=True, track_running_stats=True)
          (out_linear): Linear(in_features=128, out_features=64, bias=True)
          (dropout): Dropout(p=0.2, inplace=False)
          (drop_path): StochasticDepth(p=0.0, mode=batch)
          (activation): GELU(approximate='none')
        )
        (bn): BatchNorm1d(32, eps=0.0001, momentum=0.1, affine=True, track_running_stats=True)
      )
    )
    (1): ModuleList(
      (0): TransformerEncoderLayer(
        (self_attn): MultiheadAttention(
          (out_proj): NonDynamicallyQuantizableLinear(in_features=64, out_features=64, bias=True)
        )
        (linear1): Linear(in_features=64, out_features=64, bias=True)
        (dropout): Dropout(p=0.2, inplace=False)
        (linear2): Linear(in_features=64, out_features=64, bias=True)
        (norm1): LayerNorm((64,), eps=1e-05, elementwise_affine=True)
        (norm2): LayerNorm((64,), eps=1e-05, elementwise_affine=True)
        (dropout1): Dropout(p=0.2, inplace=False)
        (dropout2): Dropout(p=0.2, inplace=False)
      )
    )
    (2): ModuleList(
      (0): Block(
        (conv1d0): Conv1DBlock(
          (in_linear): Linear(in_features=64, out_features=128, bias=True)
          (conv1d): dwconv1d(
            (pad): ConstantPad1d(padding=(16, 0), value=0)
            (conv): Conv1d(128, 128, kernel_size=(17,), stride=(1,), padding=valid, groups=128)
          )
          (eca): eca(
            (avg_pool): AdaptiveAvgPool2d(output_size=1)
            (conv): Conv1d(1, 1, kernel_size=(3,), stride=(1,), padding=(1,), bias=False)
            (sigmoid): Sigmoid()
          )
          (bn): BatchNorm1d(128, eps=0.0001, momentum=0.1, affine=True, track_running_stats=True)
          (out_linear): Linear(in_features=128, out_features=64, bias=True)
          (dropout): Dropout(p=0.2, inplace=False)
          (drop_path): StochasticDepth(p=0.0, mode=batch)
          (activation): GELU(approximate='none')
        )
        (conv1d1): Conv1DBlock(
          (in_linear): Linear(in_features=64, out_features=128, bias=True)
          (conv1d): dwconv1d(
            (pad): ConstantPad1d(padding=(16, 0), value=0)
            (conv): Conv1d(128, 128, kernel_size=(17,), stride=(1,), padding=valid, groups=128)
          )
          (eca): eca(
            (avg_pool): AdaptiveAvgPool2d(output_size=1)
            (conv): Conv1d(1, 1, kernel_size=(3,), stride=(1,), padding=(1,), bias=False)
            (sigmoid): Sigmoid()
          )
          (bn): BatchNorm1d(128, eps=0.0001, momentum=0.1, affine=True, track_running_stats=True)
          (out_linear): Linear(in_features=128, out_features=64, bias=True)
          (dropout): Dropout(p=0.2, inplace=False)
          (drop_path): StochasticDepth(p=0.0, mode=batch)
          (activation): GELU(approximate='none')
        )
        (conv1d2): Conv1DBlock(
          (in_linear): Linear(in_features=64, out_features=128, bias=True)
          (conv1d): dwconv1d(
            (pad): ConstantPad1d(padding=(16, 0), value=0)
            (conv): Conv1d(128, 128, kernel_size=(17,), stride=(1,), padding=valid, groups=128)
          )
          (eca): eca(
            (avg_pool): AdaptiveAvgPool2d(output_size=1)
            (conv): Conv1d(1, 1, kernel_size=(3,), stride=(1,), padding=(1,), bias=False)
            (sigmoid): Sigmoid()
          )
          (bn): BatchNorm1d(128, eps=0.0001, momentum=0.1, affine=True, track_running_stats=True)
          (out_linear): Linear(in_features=128, out_features=64, bias=True)
          (dropout): Dropout(p=0.2, inplace=False)
          (drop_path): StochasticDepth(p=0.0, mode=batch)
          (activation): GELU(approximate='none')
        )
        (bn): BatchNorm1d(64, eps=0.0001, momentum=0.1, affine=True, track_running_stats=True)
      )
    )
    (3): ModuleList(
      (0): TransformerEncoderLayer(
        (self_attn): MultiheadAttention(
          (out_proj): NonDynamicallyQuantizableLinear(in_features=64, out_features=64, bias=True)
        )
        (linear1): Linear(in_features=64, out_features=64, bias=True)
        (dropout): Dropout(p=0.2, inplace=False)
        (linear2): Linear(in_features=64, out_features=64, bias=True)
        (norm1): LayerNorm((64,), eps=1e-05, elementwise_affine=True)
        (norm2): LayerNorm((64,), eps=1e-05, elementwise_affine=True)
        (dropout1): Dropout(p=0.2, inplace=False)
        (dropout2): Dropout(p=0.2, inplace=False)
      )
    )
    (4): ModuleList(
      (0): Block(
        (conv1d0): Conv1DBlock(
          (in_linear): Linear(in_features=64, out_features=128, bias=True)
          (conv1d): dwconv1d(
            (pad): ConstantPad1d(padding=(16, 0), value=0)
            (conv): Conv1d(128, 128, kernel_size=(17,), stride=(1,), padding=valid, groups=128)
          )
          (eca): eca(
            (avg_pool): AdaptiveAvgPool2d(output_size=1)
            (conv): Conv1d(1, 1, kernel_size=(3,), stride=(1,), padding=(1,), bias=False)
            (sigmoid): Sigmoid()
          )
          (bn): BatchNorm1d(128, eps=0.0001, momentum=0.1, affine=True, track_running_stats=True)
          (out_linear): Linear(in_features=128, out_features=64, bias=True)
          (dropout): Dropout(p=0.2, inplace=False)
          (drop_path): StochasticDepth(p=0.0, mode=batch)
          (activation): GELU(approximate='none')
        )
        (conv1d1): Conv1DBlock(
          (in_linear): Linear(in_features=64, out_features=128, bias=True)
          (conv1d): dwconv1d(
            (pad): ConstantPad1d(padding=(16, 0), value=0)
            (conv): Conv1d(128, 128, kernel_size=(17,), stride=(1,), padding=valid, groups=128)
          )
          (eca): eca(
            (avg_pool): AdaptiveAvgPool2d(output_size=1)
            (conv): Conv1d(1, 1, kernel_size=(3,), stride=(1,), padding=(1,), bias=False)
            (sigmoid): Sigmoid()
          )
          (bn): BatchNorm1d(128, eps=0.0001, momentum=0.1, affine=True, track_running_stats=True)
          (out_linear): Linear(in_features=128, out_features=64, bias=True)
          (dropout): Dropout(p=0.2, inplace=False)
          (drop_path): StochasticDepth(p=0.0, mode=batch)
          (activation): GELU(approximate='none')
        )
        (conv1d2): Conv1DBlock(
          (in_linear): Linear(in_features=64, out_features=128, bias=True)
          (conv1d): dwconv1d(
            (pad): ConstantPad1d(padding=(16, 0), value=0)
            (conv): Conv1d(128, 128, kernel_size=(17,), stride=(1,), padding=valid, groups=128)
          )
          (eca): eca(
            (avg_pool): AdaptiveAvgPool2d(output_size=1)
            (conv): Conv1d(1, 1, kernel_size=(3,), stride=(1,), padding=(1,), bias=False)
            (sigmoid): Sigmoid()
          )
          (bn): BatchNorm1d(128, eps=0.0001, momentum=0.1, affine=True, track_running_stats=True)
          (out_linear): Linear(in_features=128, out_features=64, bias=True)
          (dropout): Dropout(p=0.2, inplace=False)
          (drop_path): StochasticDepth(p=0.0, mode=batch)
          (activation): GELU(approximate='none')
        )
        (bn): BatchNorm1d(64, eps=0.0001, momentum=0.1, affine=True, track_running_stats=True)
      )
    )
    (5): ModuleList(
      (0): TransformerEncoderLayer(
        (self_attn): MultiheadAttention(
          (out_proj): NonDynamicallyQuantizableLinear(in_features=64, out_features=64, bias=True)
        )
        (linear1): Linear(in_features=64, out_features=64, bias=True)
        (dropout): Dropout(p=0.2, inplace=False)
        (linear2): Linear(in_features=64, out_features=64, bias=True)
        (norm1): LayerNorm((64,), eps=1e-05, elementwise_affine=True)
        (norm2): LayerNorm((64,), eps=1e-05, elementwise_affine=True)
        (dropout1): Dropout(p=0.2, inplace=False)
        (dropout2): Dropout(p=0.2, inplace=False)
      )
    )
    (6): ModuleList(
      (0): Block(
        (conv1d0): Conv1DBlock(
          (in_linear): Linear(in_features=64, out_features=128, bias=True)
          (conv1d): dwconv1d(
            (pad): ConstantPad1d(padding=(16, 0), value=0)
            (conv): Conv1d(128, 128, kernel_size=(17,), stride=(1,), padding=valid, groups=128)
          )
          (eca): eca(
            (avg_pool): AdaptiveAvgPool2d(output_size=1)
            (conv): Conv1d(1, 1, kernel_size=(3,), stride=(1,), padding=(1,), bias=False)
            (sigmoid): Sigmoid()
          )
          (bn): BatchNorm1d(128, eps=0.0001, momentum=0.1, affine=True, track_running_stats=True)
          (out_linear): Linear(in_features=128, out_features=64, bias=True)
          (dropout): Dropout(p=0.2, inplace=False)
          (drop_path): StochasticDepth(p=0.0, mode=batch)
          (activation): GELU(approximate='none')
        )
        (conv1d1): Conv1DBlock(
          (in_linear): Linear(in_features=64, out_features=128, bias=True)
          (conv1d): dwconv1d(
            (pad): ConstantPad1d(padding=(16, 0), value=0)
            (conv): Conv1d(128, 128, kernel_size=(17,), stride=(1,), padding=valid, groups=128)
          )
          (eca): eca(
            (avg_pool): AdaptiveAvgPool2d(output_size=1)
            (conv): Conv1d(1, 1, kernel_size=(3,), stride=(1,), padding=(1,), bias=False)
            (sigmoid): Sigmoid()
          )
          (bn): BatchNorm1d(128, eps=0.0001, momentum=0.1, affine=True, track_running_stats=True)
          (out_linear): Linear(in_features=128, out_features=64, bias=True)
          (dropout): Dropout(p=0.2, inplace=False)
          (drop_path): StochasticDepth(p=0.0, mode=batch)
          (activation): GELU(approximate='none')
        )
        (conv1d2): Conv1DBlock(
          (in_linear): Linear(in_features=64, out_features=128, bias=True)
          (conv1d): dwconv1d(
            (pad): ConstantPad1d(padding=(16, 0), value=0)
            (conv): Conv1d(128, 128, kernel_size=(17,), stride=(1,), padding=valid, groups=128)
          )
          (eca): eca(
            (avg_pool): AdaptiveAvgPool2d(output_size=1)
            (conv): Conv1d(1, 1, kernel_size=(3,), stride=(1,), padding=(1,), bias=False)
            (sigmoid): Sigmoid()
          )
          (bn): BatchNorm1d(128, eps=0.0001, momentum=0.1, affine=True, track_running_stats=True)
          (out_linear): Linear(in_features=128, out_features=64, bias=True)
          (dropout): Dropout(p=0.2, inplace=False)
          (drop_path): StochasticDepth(p=0.0, mode=batch)
          (activation): GELU(approximate='none')
        )
        (bn): BatchNorm1d(64, eps=0.0001, momentum=0.1, affine=True, track_running_stats=True)
      )
    )
    (7): ModuleList(
      (0): TransformerEncoderLayer(
        (self_attn): MultiheadAttention(
          (out_proj): NonDynamicallyQuantizableLinear(in_features=64, out_features=64, bias=True)
        )
        (linear1): Linear(in_features=64, out_features=64, bias=True)
        (dropout): Dropout(p=0.2, inplace=False)
        (linear2): Linear(in_features=64, out_features=64, bias=True)
        (norm1): LayerNorm((64,), eps=1e-05, elementwise_affine=True)
        (norm2): LayerNorm((64,), eps=1e-05, elementwise_affine=True)
        (dropout1): Dropout(p=0.2, inplace=False)
        (dropout2): Dropout(p=0.2, inplace=False)
      )
    )
  )
  (inlinear): Linear(in_features=297, out_features=32, bias=False)
  (bn): BatchNorm1d(32, eps=0.0001, momentum=0.1, affine=True, track_running_stats=True)
  (top_linear): Linear(in_features=64, out_features=128, bias=True)
  (outlinear): Linear(in_features=32, out_features=610, bias=True)
  (dropout): Dropout(p=0.2, inplace=False)
)
